best_models/sac/hardcore/sac_critic_step_1000000.pth (torch, 592863 bytes, 10 tensors)

q1.0.weight f4 [256, 28]
0	0xc00fac27	-2.2448823
1	0xc093a76c	-4.6141872
2	0x3ec5a683	0.386036
3	0xbfe2e317	-1.7725552
4	0xbf175610	-0.59115696
5	0xbed31581	-0.41227344
6	0x3e7285b9	0.23683824
7	0x3bd21ef2	0.0064123804
8	0xbed595e2	-0.41715914
9	0xbf5bf960	-0.8592739
10	0xbeb5f157	-0.3553569
11	0xbe4ba8df	-0.19888638
12	0xbe03dcb6	-0.12877163
13	0xbf228e7b	-0.6349866
14	0xbd6e5ec6	-0.05819585
15	0x3e7fcbc4	0.24980074
16	0x3de22e5c	0.110439986
17	0xbdb46a9f	-0.08809399
18	0xbe9c30b3	-0.30505905
19	0xbee59388	-0.4483912
20	0xbf03ed09	-0.5153356
21	0xbee4b040	-0.44665718
22	0xbe518fcf	-0.20465015
23	0xbee95e3a	-0.45579702
24	0xbea956d9	-0.33074072
25	0xbda3bdde	-0.07995199
26	0x3e1135b6	0.14180645
27	0xbed91c27	-0.4240429
28	0x3d77fe50	0.060545266
29	0x3f55324b	0.83279866
30	0x3f942ec9	1.1576778
31	0x3f94f688	1.1637735
32	0x3f1df80c	0.61706614
33	0xbda290ed	-0.07937799
34	0x3d6b9014	0.05751045
35	0xbe589d73	-0.21153812
36	0x3ee998f5	0.4562451
37	0xbf0338ab	-0.51258343
38	0xbd932213	-0.071842335
39	0xbf255917	-0.64589065
40	0x3e01b083	0.1266499
41	0xbee33a17	-0.44380257
42	0x3f1f5798	0.6224303
43	0xbe108c18	-0.14115942
44	0xbe1987bc	-0.14993185
45	0xbfa1dd74	-1.2645707
46	0xbfb56a5e	-1.4173086
47	0xbf9e962f	-1.2389582
48	0xbf219620	-0.631197
49	0xbf04b554	-0.51839185
50	0x3dd51867	0.10405045
51	0x3f08cd9c	0.53438735
52	0xbe9c2567	-0.30497286
53	0xbe5ca498	-0.21547163
54	0xbe9b189f	-0.30292222
55	0x3d479f7a	0.048736073
56	0xbf3786c1	-0.71689993
57	0xc0fc16f5	-7.8778024
58	0xbc562fc7	-0.013072914
59	0x3e699d65	0.22813947
60	0xbef30568	-0.47465062
61	0xbe8732d8	-0.26405978
62	0xbc2b602f	-0.010459944
63	0xbdfcd55c	-0.123453826
64	0xbe8a59cd	-0.27021638
65	0xbf036b99	-0.51336056
66	0xbe7358b0	-0.237643
67	0xbb94113a	-0.004518655
68	0xbd8e819d	-0.069583155
69	0x3d79cc26	0.060985707
70	0xbdeecaff	-0.11659812
71	0xbbb1c0a6	-0.005424577
72	0x3eda267f	0.42607495
73	0x3f8103d4	1.0079293
74	0x3f6e9b05	0.9320529
75	0x3ca43bae	0.020047989
76	0xbf319d0a	-0.6938025
77	0xbd9d6278	-0.07684797
78	0xbe4c2424	-0.19935662
79	0xbe1907e3	-0.14944415
80	0x3ce32ebf	0.027732251
81	0xbd5679e5	-0.05236234
82	0xbcbb3996	-0.022854608
83	0x3c69e5fc	0.014276024
84	0xbf56459f	-0.83699983
85	0xbe02022c	-0.12696141
86	0x3f09774b	0.5369765
87	0xbfcd0dca	-1.6019833
88	0x3eadd2d4	0.33949912
89	0x3e5c303a	0.21502772
90	0xbef3b41e	-0.47598356
91	0xbe34e9a2	-0.17667249
92	0x3e7c3c50	0.24632382
93	0x3f69048b	0.9102256
94	0x3e95796f	0.2919421
95	0x3ec558f6	0.38544434
96	0x3da971a0	0.082736254
97	0xbf7828c0	-0.9693718
98	0xbef532f6	-0.47890443
99	0x3eb2a3a5	0.34890476
100	0x3eccd1e2	0.40003878
101	0x3e1de41c	0.15419048
102	0xbf03de12	-0.5151073
103	0xbf2dbf24	-0.6786978
104	0xbeae3692	-0.3402601
105	0xbc87f5c9	-0.016596692
106	0xbe9fa8b6	-0.31183404
107	0x3d06b199	0.032884214
108	0x3ea29633	0.31755218
109	0xbe73f009	-0.23822035
110	0xbd91eec9	-0.07125623
111	0xbc573100	-0.013134241
112	0xbfa8ec4f	-1.3197116
113	0xc016c675	-2.3558629
114	0xbe8eb0a9	-0.27869156
115	0xbf946b1a	-1.1595185
116	0x3c2c5a75	0.0105196135
117	0xbd57eb83	-0.052714836
118	0xbd744804	-0.059638992
119	0x3ccbb3a5	0.024865935
120	0xbf03e9c3	-0.5152857
121	0xbe0dfd24	-0.13866097
122	0x3e4a5995	0.19760735
123	0xbe5a9e58	-0.21349466
124	0xbdf08419	-0.11743946
125	0x3ed4d7c2	0.4157086
126	0x3e5c65bc	0.21523184
127	0x3ed7b076	0.42126817
128	0x3e3cf0b4	0.18451196
129	0x3eb86cad	0.36020413
130	0xbd6733b8	-0.056445807
131	0xbe58b3ff	-0.21162413
132	0xbe2a41b7	-0.1662663
133	0x3e74c2b8	0.23902404
134	0xbeacffab	-0.3378881
135	0xbf3ba31e	-0.7329577
136	0xbded93aa	-0.1160043
137	0xbe45fa43	-0.19333749
138	0x3d027928	0.031853825
139	0x3e15a0b3	0.14612083
140	0x3f873ea9	1.0565997
141	0x40090a6a	2.1412606
142	0xc01c7c30	-2.4450798
143	0xbfbd426d	-1.4785897
144	0xbf281bac	-0.65667224
145	0xbca9ae98	-0.020713136
146	0xbf6173d8	-0.8806739
147	0x3e4170a5	0.18890627
148	0xbf226977	-0.63442177
149	0x3e8afe89	0.2714732
150	0xbed1f42a	-0.41006595
151	0xbf27214e	-0.65285194
152	0xbcf50e6e	-0.029914107
153	0xbd89ff57	-0.06738155
154	0x3ed1b0e1	0.4095526
155	0x3ee7ae41	0.45250133
156	0x3f470cfa	0.77754176
157	0x3dce8091	0.10083116
158	0xbca0be2e	-0.019621935
159	0xbf054f9b	-0.52074593
160	0xbf3bd3a9	-0.7336984
161	0xbf6cb199	-0.9245849
162	0xbf4d587f	-0.8021316
163	0x3e287db2	0.16454199
164	0x3e1addf0	0.15123725
165	0x3d8956db	0.067060195
166	0xbde91651	-0.1138121
167	0xbea02b0f	-0.3128285
168	0xbf92a5a9	-1.1456805
169	0xbecf4b43	-0.40487108
170	0x3e4c4653	0.19948702
171	0x3f2eafab	0.682368
172	0xbe69771f	-0.22799347
173	0x3e2d6a8c	0.16935176
174	0xbd12ba74	-0.035822347
175	0xbd9abc5d	-0.07555459
176	0x3eed4575	0.46342054
177	0xbea6e6e2	-0.32598025
178	0xbdedbfc3	-0.11608841
179	0xbe4a9f1a	-0.19787255
180	0xbefa52c8	-0.48891282
181	0x3ea9dc29	0.3317578
182	0x3ed1bb63	0.40963277
183	0x3ee7fb7c	0.45309055
184	0x3f3aa493	0.7290737
185	0x3f10f043	0.5661661
186	0x3dadc4f3	0.08484831
187	0xbea82836	-0.3284318
188	0xbf7f5284	-0.99735284
189	0xbf7b2637	-0.98105186
190	0xbe86bafe	-0.2631454
191	0xbf1f28be	-0.6217154
192	0x3e7c7c55	0.24656804
193	0x3c7709f7	0.015078059
194	0xbdd7ffe0	-0.10546851
195	0x3dc83d18	0.09777278
196	0x3f83f391	1.0308706
197	0xbf625230	-0.8840666
198	0x3f3988c7	0.7247433
199	0xc01ad691	-2.419346
200	0x3ed90b54	0.42391455
201	0xbe75f731	-0.24020077
202	0x3f2de847	0.6793255
203	0x3d869e03	0.06573107
204	0x3e29210b	0.16516511
205	0x3e08d32a	0.13361803
206	0x3ea68e83	0.32530603
207	0xbd3de735	-0.046363074
208	0x3eb73ae8	0.3578713
209	0x3d874064	0.066040784
210	0xbec72eaf	-0.38902804
211	0x3e63c39e	0.22242591
212	0x3f070cf6	0.5275415
213	0x3e12cd54	0.14336139
214	0xbf34bdfd	-0.706024
215	0xbf4ed678	-0.80796003
216	0xbf2622e2	-0.64896977
217	0xbf1e73ff	-0.61895746
218	0xbf2f8497	-0.6856169
219	0x3e21071b	0.15725367
220	0xbd664ada	-0.056223728
221	0xbecb6466	-0.39725035
222	0x3e980395	0.29690233
223	0x3de156f6	0.110029146
224	0x3e83f883	0.25775537
225	0xbff852b2	-1.9400237
226	0xbe88eae4	-0.26741707
227	0xbfe95389	-1.8228618
228	0x3e9d1fe1	0.30688384
229	0x3d9a175b	0.07523986
230	0x3f910534	1.1329713
231	0x3dcfa08b	0.10138043
232	0xbe2a5d9d	-0.16637273
233	0x3db3bdc6	0.08776431
234	0x3e374e0d	0.17900868
235	0x3ec13d54	0.37742102
236	0x3e1b2de2	0.15154222
237	0xbc1d8969	-0.009615281
238	0xbe82eb8c	-0.25570333
239	0x3f465f9c	0.7748964
240	0x3f86cf5f	1.0532035
241	0x3f6b1193	0.9182369
242	0x3ee3e174	0.44507945
243	0xbf083065	-0.53198844
244	0xbf872c73	-1.056044
245	0xbed83ffd	-0.4223632
246	0xbf05550e	-0.5208291
247	0xbe14099f	-0.14456795
248	0x3c029b98	0.007971667
249	0x3da55a34	0.080738455
250	0x3df8d0bc	0.12149188
251	0x3de166de	0.110059485
252	0xbf642308	-0.89115953
253	0xc019e7cc	-2.4047728
254	0x3de31fd4	0.11090055
255	0xc05a64c7	-3.412401

q1.0.bias f4 [256]
0	0xbed14f35	-0.40880743
1	0x3f0f0876	0.55872285
2	0xbf4a252f	-0.7896299
3	0x3ec7bdb8	0.3901193
4	0x3eab94c8	0.3351195
5	0xbe653f01	-0.22387315
6	0x3ee01b18	0.4377067
7	0x3e6803bc	0.22657675
8	0x3e8ba1d4	0.27271903
9	0x3f056dbb	0.5212056
10	0x3f4f3d6d	0.80953103
11	0xbeb9d8d9	-0.36298254
12	0x3e3e72ce	0.18598482
13	0x3ea7227f	0.32643506
14	0x3ee33541	0.44376567
15	0x3eef6a49	0.46760777
16	0x3db7cb4a	0.08974321
17	0x3eaad54f	0.33365867
18	0xbf9acadf	-1.2093161
19	0x3ec01fcc	0.3752426
20	0x3e9f0ec4	0.31065953
21	0x3ef6fbd0	0.48238993
22	0x3e1e45cc	0.15456313
23	0x3eab3d5c	0.3344525
24	0xbf1022d2	-0.5630313
25	0x3da2bafa	0.07945819
26	0x3f2d1bf7	0.67620796
27	0x3db9fec9	0.090817995
28	0x3d3c017d	0.045899857
29	0x3f33e4b7	0.70270866
30	0xbf5130c0	-0.8171501
31	0xbec15aec	-0.3776468
32	0x3eac0a2a	0.33601505
33	0xbede0a49	-0.43367222
34	0x3f6dbc30	0.92865276
35	0xbf23ece6	-0.64033353
36	0x3f1a8033	0.60351866
37	0x3f4eeb5b	0.80827874
38	0xbef597c2	-0.47967345
39	0xbeeb9428	-0.46011472
40	0x3f30b9bc	0.6903341
41	0xbe4acfb1	-0.1980579
42	0xbea65359	-0.32485464
43	0x3f4f2b17	0.80925125
44	0xbf2719a7	-0.6527352
45	0xbf28f067	-0.65991825
46	0xbce1fcb3	-0.027586317
47	0xbf7bfbb6	-0.98430955
48	0x3f06bfbb	0.5263631
49	0x3d88fed3	0.06689229
50	0x3e42d567	0.19026719
51	0xbe82fb0a	-0.25582153
52	0xbf250d6b	-0.644736
53	0x3ebf4a7b	0.37361512
54	0x3f1cd836	0.6126741
55	0xbf6867fc	-0.9078367
56	0xbe158737	-0.14602362
57	0xbcb22671	-0.021746846
58	0xbf684ada	-0.90739214
59	0x3edfb19f	0.43690202
60	0x3f3c8cfd	0.7365263
61	0x3de6e51e	0.112741694
62	0x3f4de270	0.8042364
63	0xbf08fc6b	-0.5351016
64	0xbf44abb6	-0.7682451
65	0x3ee40202	0.44532782
66	0xbeb76dc6	-0.35825938
67	0xbe870d28	-0.26377225
68	0xbf0a3080	-0.53980255
69	0x3ee5e5e1	0.44901946
70	0xbee48f6e	-0.44640678
71	0xbefa3244	-0.48866475
72	0xbeab237d	-0.33425513
73	0x3e78a50b	0.24281709
74	0xbf013462	-0.50470555
75	0xbdc00e44	-0.09377721
76	0xbec190ec	-0.3780588
77	0xbf133504	-0.5750277
78	0xbe3a62b6	-0.18201718
79	0x3df98eb4	0.121854216
80	0xbf026e1c	-0.50949264
81	0x3ed4e9e8	0.41584706
82	0xbe6add52	-0.2293599
83	0xbe6d0245	-0.23145397
84	0x3eb828eb	0.35968718
85	0xbf162af7	-0.5865931
86	0x3f5e3812	0.86804307
87	0xbf617c46	-0.8808025
88	0xbf16eb72	-0.5895301
89	0xbe7171e3	-0.235786
90	0x3e445315	0.19172318
91	0xbf52f0d4	-0.82398725
92	0xbe92d15b	-0.2867535
93	0xbefb6c49	-0.49106053
94	0xbc1705cc	-0.009217691
95	0x3d26f366	0.040759467
96	0xbf2ecfe8	-0.6828599
97	0xbe449146	-0.19196042
98	0xbcd182a2	-0.025574986
99	0xbea7a397	-0.32741997
100	0x3e829688	0.2550547
101	0x3f1944fa	0.59870875
102	0x3e481a42	0.19541267
103	0xbf039b91	-0.5140925
104	0xbf6c2916	-0.9225019
105	0xbd79b3d5	-0.060962517
106	0xbebabbca	-0.36471397
107	0xbf086511	-0.53279215
108	0x3d62a025	0.055328507
109	0x3dc35639	0.0953793
110	0xbf42dc85	-0.76117736
111	0xbf3343fd	-0.70025617
112	0xbe9f3e48	-0.31102204
113	0x3eea3854	0.457461
114	0xbf080b6c	-0.5314243
115	0x3ebe1e47	0.37132475
116	0xbe09bcb0	-0.13450885
117	0x3e889c5e	0.266818
118	0xbcf68102	-0.030090813
119	0x3f093492	0.5359584
120	0x3f9f14dc	1.2428241
121	0xbe88e0a1	-0.26733878
122	0x3e4bc96e	0.19901058
123	0xbf1482b5	-0.58011943
124	0xbe85b27e	-0.2611274
125	0xbede2144	-0.43384755
126	0x3f3be4bb	0.7339589
127	0xbf57e141	-0.84328085
128	0xbf22a623	-0.63534755
129	0xbdb79fe4	-0.089660436
130	0x3e8b664d	0.27226487
131	0x3ea6f71d	0.32610407
132	0xbe3215fa	-0.17391196
133	0x3e6a8aa3	0.22904448
134	0xbe47997c	-0.19492143
135	0xbf8f2522	-1.1183207
136	0x3f5281be	0.8222922
137	0xbea044a7	-0.31302378
138	0x3e274682	0.1633549
139	0xbe0b1109	-0.13580717
140	0x3e8aad1e	0.27085203
141	0x3e9db7fc	0.3080443
142	0x3f4c13d4	0.79717755
143	0x3ea148a9	0.31500748
144	0xbf01a783	-0.5064623
145	0xbc8cb1bd	-0.017174596
146	0x3ebcce07	0.36875936
147	0xbe222bd7	-0.15837036
148	0xbfb56a5c	-1.4173083
149	0x3fbac03d	1.4589916
150	0x3f5e05da	0.8672768
151	0x3d753379	0.05986354
152	0x3f2ac9de	0.66714275
153	0xbe8de9dd	-0.27717486
154	0xbe275d3e	-0.16344163
155	0xbdd7890a	-0.10524185
156	0xbd9ce410	-0.07660687
157	0xbe9d133e	-0.30678743
158	0x3ed9b00f	0.42517135
159	0x3e8bf7f9	0.27337626
160	0xbf1efa75	-0.6210092
161	0x3d39f287	0.045397308
162	0xbeac485d	-0.3364896
163	0x3da00425	0.078132905
164	0xbf140746	-0.578236
165	0xbdfec40f	-0.12439739
166	0xbe7311b6	-0.23737225
167	0xbe6fc80b	-0.23416154
168	0xbf1bff4c	-0.6093643
169	0xbe5ac23a	-0.21363154
170	0xbd217c70	-0.039425313
171	0x3f83b3de	1.0289266
172	0xbec59fa2	-0.38598353
173	0xbe67d053	-0.22638063
174	0xbedf7476	-0.4364354
175	0x3f23c879	0.6397777
176	0xbf3b9db6	-0.7328752
177	0x3e484ee2	0.19561341
178	0xbf243f74	-0.6415932
179	0x3e8b6d4b	0.2723182
180	0x3e7d6f0c	0.24749392
181	0xbd8c0f5d	-0.06838868
182	0x3f32495c	0.6964319
183	0x3f6771cc	0.90408015
184	0x3efedbeb	0.4977716
185	0x3ea5d54e	0.323893
186	0xbf2a36e9	-0.66490036
187	0xbee2f903	-0.44330606
188	0xbf0bcddb	-0.54610986
189	0x3eb8198a	0.35956985
190	0x3ed2f13d	0.41199675
191	0x3df4b38c	0.11948308
192	0xbea72c08	-0.3265078
193	0xbf1af3b0	-0.6052809
194	0x3f23ea91	0.64029795
195	0xbebf1abc	-0.37325084
196	0xbf860aef	-1.0472087
197	0x3eebf0a2	0.46082026
198	0x3f4c41c7	0.7978787
199	0x3e533456	0.20625433
200	0x3e1f08e0	0.1553073
201	0xbf60c0c1	-0.8779412
202	0xbf17b642	-0.5926248
203	0x3ecc6a48	0.39924836
204	0x3eba2250	0.36354303
205	0xbeb2ffb1	-0.34960702
206	0x3e760baa	0.24027887
207	0xbd9cf0f1	-0.076631434
208	0x3f7b2095	0.9809659
209	0xbec3d499	-0.38248137
210	0xbdf0cbeb	-0.11757644
211	0xbe8a88df	-0.2705755
212	0x3f0ecd22	0.5578176
213	0xbe19dd68	-0.15025866
214	0xbee7e777	-0.4529378
215	0x3f51426e	0.8174199
216	0x3d5cc866	0.053902052
217	0x3f1f13dd	0.62139684
218	0xbe933d37	-0.2875764
219	0xbf4a1c12	-0.7894908
220	0x3e32ee4c	0.17473716
221	0x3f22323d	0.6335791
222	0x3f4dfc85	0.8046344
223	0x3e5c1278	0.2149142
224	0x3eabff91	0.3359342
225	0xbdec1b07	-0.115285926
226	0xbea88c90	-0.3291974
227	0xbe3366c2	-0.17519668
228	0x3dad05e8	0.08448392
229	0xbe83e1a9	-0.25758103
230	0xbc2de876	-0.010614505
231	0x3e88222a	0.26588565
232	0x3e8c6626	0.27421683
233	0x3e294f53	0.16534166
234	0x3f1dc10f	0.6162271
235	0xbf08dbec	-0.53460574
236	0xbefccc06	-0.49374408
237	0x3e10bcee	0.14134571
238	0x3ba48f1f	0.005021944
239	0xbf64d7c6	-0.89391744
240	0xbef6a5aa	-0.48173267
241	0xbe53d15b	-0.20685332
242	0xbf2135ce	-0.62972724
243	0xbe94c27a	-0.29054624
244	0x3f89d9b4	1.0769563
245	0xbd91b5c5	-0.07114748
246	0xbf227ecc	-0.63474727
247	0xbe8f65a6	-0.2800724
248	0xbe8cf931	-0.27533868
249	0xbeab8915	-0.33503023
250	0xbe3db139	-0.18524636
251	0xbf0f863f	-0.5606422
252	0xbea1897b	-0.31550202
253	0xbecfb953	-0.4057108
254	0x3d88986e	0.06669699
255	0xbf1ef7c2	-0.620968

q1.2.weight f4 [256, 256]
0	0x3c536c28	0.012904204
1	0x3bfa9fd5	0.007648448
2	0xbd7915ac	-0.060811684
3	0xbc4c973a	-0.012487227
4	0xbcbc08cd	-0.022953415
5	0xbd8b7ff9	-0.06811518
6	0x3d0f6f3b	0.035018187
7	0x3c750d9e	0.01495686
8	0xbdb07ff1	-0.08618153
9	0x3cb1ab5d	0.021688158
10	0xbb6c2590	-0.0036033131
11	0xbcae238e	-0.021257188
12	0xbd488c5d	-0.048961986
13	0xbd85db59	-0.06535978
14	0xbcc97764	-0.024593063
15	0x3bd875f3	0.0066058575
16	0x3d0dc1a4	0.0346085
17	0xbd25489f	-0.04035246
18	0xbd154332	-0.036441036
19	0xbd4af9e1	-0.04955471
20	0xbdafaecd	-0.085782625
21	0x3cbea078	0.023269877
22	0xbd184f4a	-0.03718499
23	0xbb7d4db5	-0.0038651053
24	0xbca7df42	-0.0204922
25	0x3a7e8d14	0.00097103533
26	0xbc660b70	-0.014040813
27	0x3c2cf370	0.010556087
28	0xbd2ae497	-0.041721907
29	0xbda07b54	-0.07836023
30	0x3cf0b96d	0.029385293
31	0xbd24c41c	-0.040226087
32	0xbd85c862	-0.065323606
33	0xbbae0d2b	-0.0053116283
34	0x3c27a98b	0.010233293
35	0x3ca1cbe6	0.019750547
36	0xbb877ff4	-0.0041351262
37	0xbd07b8c3	-0.033135187
38	0x3d3604f0	0.044438303
39	0x3c6ce3ce	0.01445861
40	0xbcce52a2	-0.025185887
41	0xbca2438f	-0.019807605
42	0xbd0bf15b	-0.03416572
43	0xbd8defef	-0.06930529
44	0x3c26e160	0.0101855695
45	0x3c8bba29	0.017056542
46	0x37871150	1.6101316e-05
47	0x3ce95280	0.028481722
48	0x3d1da012	0.038482733
49	0xbd392230	-0.04519862
50	0xbd97f0ac	-0.074189514
51	0x3c905215	0.017617265
52	0xbbf82e63	-0.007573889
53	0xbd32e084	-0.043671146
54	0xbb8c305c	-0.004278226
55	0xbcf30a3a	-0.029667962
56	0xbd37ca2f	-0.04487055
57	0xbd88dc25	-0.06682614
58	0xbbb849ca	-0.0056240307
59	0x3c58b9b3	0.013227868
60	0x3d15134f	0.036395367
61	0xbceee467	-0.029161645
62	0xbd42c1ad	-0.047547985
63	0x3b06b3d3	0.002055396
64	0xbd905e64	-0.070492536
65	0xbd04bd35	-0.032407004
66	0x3cb71cf6	0.022352677
67	0x3d086937	0.033303466
68	0xbd79ee76	-0.06101843
69	0xbb476807	-0.0030426995
70	0xbdaa9379	-0.083289094
71	0xbd4365ce	-0.04770451
72	0xba575a3d	-0.00082150457
73	0xbd568f05	-0.052382488
74	0xbcb6c513	-0.02231077
75	0x3cb7a94c	0.022419594
76	0xbd771e27	-0.06033149
77	0x3b4f6ed2	0.0031651747
78	0x3d36f89b	0.044670682
79	0xbc165787	-0.009176142
80	0x3d299fc3	0.041412126
81	0xbd710503	-0.05884267
82	0x3be4838c	0.0069736894
83	0x3cd18840	0.025577664
84	0x3c34e429	0.011040726
85	0x3bea8708	0.0071572103
86	0x3d410d5d	0.047131885
87	0xbd8a94ad	-0.06766639
88	0xbd679c65	-0.056545634
89	0xbc167cbd	-0.009185013
90	0xbdac817d	-0.084231354
91	0x3c1ce0d5	0.0095750885
92	0xbcd4cc46	-0.025976311
93	0x3b63083a	0.0034642355
94	0xbdb173de	-0.08664678
95	0xb901c397	-0.00012375262
96	0x3bdbd033	0.006708169
97	0x3cb6d493	0.02231816
98	0xbd888a17	-0.066669635
99	0x3d2b83ea	0.04187385
100	0x3b842268	0.004032422
101	0xbd1aaaaf	-0.037760433
102	0x3c8642e6	0.016389322
103	0xbd6bf61b	-0.05760775
104	0xbd2ce6b3	-0.0422122
105	0x3cfe9846	0.031078469
106	0x3cb5f5f7	0.022212012
107	0x3c26e8cb	0.010187338
108	0xbd92a6cc	-0.0716072
109	0xbdc4d499	-0.09610862
110	0xbc615437	-0.013752989
111	0xbcd3f024	-0.025871344
112	0xbd765305	-0.060137767
113	0x3cb547de	0.022128996
114	0xbb13c6be	-0.002254888
115	0xbd4d9f3f	-0.050200697
116	0xbd08c5c5	-0.033391733
117	0x3ca35210	0.019936591
118	0xbd53d7bc	-0.051719412
119	0xbd8b9eab	-0.06817373
120	0x3c2f9c4e	0.010718418
121	0xbc360de4	-0.01111171
122	0xbd6e6c85	-0.05820896
123	0xbdbe90d5	-0.09304968
124	0x3d032882	0.032021053
125	0xbd28f8d2	-0.04125292
126	0xbdb0e3d3	-0.08637204
127	0xbd177278	-0.0369744
128	0xbd7c5bd1	-0.061611
129	0xbcdd0b50	-0.026982933
130	0xbd140d48	-0.03614548
131	0xbced04c4	-0.028932936
132	0x3c8d9571	0.017283173
133	0xbc88abe4	-0.016683526
134	0xbb8a9fb1	-0.0042304625
135	0xbb877adc	-0.004134519
136	0xbd8f2ac1	-0.069905765
137	0x3bf6bcca	0.0075298296
138	0x3ade1789	0.001694427
139	0xbd6d99a5	-0.058007855
140	0x3d0ffbbe	0.03515219
141	0xbb487685	-0.0030588221
142	0xbce7c83f	-0.028293727
143	0x3c0f33d8	0.008740388
144	0xbd894745	-0.06703047
145	0xbcb5a90a	-0.02217533
146	0x3d4c2a5c	0.049845085
147	0xbcfb740a	-0.03069498
148	0xbd6ac2f1	-0.057314817
149	0xbb682afd	-0.0035426014
150	0xba13df11	-0.00056408445
151	0x3d0a9193	0.033830237
152	0xbd0d6035	-0.03451558
153	0xbcd39652	-0.025828514
154	0xbd0f3b5e	-0.034968726
155	0xbd3bce5a	-0.04585109
156	0xbbf2ff24	-0.007415669
157	0xbca99615	-0.020701448
158	0xbc5a4b6c	-0.013323646
159	0x3bbcf4d4	0.0057664905
160	0xbcd428a2	-0.025898281
161	0xbd22360b	-0.03960232
162	0xbc98a39a	-0.018632699
163	0xbd621f76	-0.055205785
164	0x3cf7197d	0.030163521
165	0x3c867c65	0.016416738
166	0xbd1f135a	-0.038836814
167	0xbad24b96	-0.0016044255
168	0xbd8095b4	-0.062785536
169	0xbd338ad1	-0.043833558
170	0xbcfdfbd2	-0.031003866
171	0x3ca3921b	0.01996713
172	0xbd9c3f28	-0.076292336
173	0xbd257cfe	-0.040402405
174	0xbd718c45	-0.058971662
175	0xbd102355	-0.035189945
176	0xbd1c7257	-0.03819498
177	0xbd9648df	-0.07338118
178	0x3c44b42a	0.012005845
179	0x3c1fa534	0.009743977
180	0x3ce36802	0.027759556
181	0xbc80e446	-0.01573385
182	0xbc4c6bb3	-0.012476849
183	0xbd95641c	-0.07294485
184	0x3cc52084	0.024063356
185	0xbbb3ea0a	-0.005490546
186	0xbd621a32	-0.055200763
187	0x3cacf32a	0.021112043
188	0xbd59f232	-0.05320949
189	0x3c59ff9e	0.013305573
190	0xbd3f4841	-0.046699766
191	0xbacad817	-0.0015475777
192	0xbd4fbb99	-0.050716016
193	0xbd43815f	-0.0477308
194	0x3cc2697a	0.023731936
195	0xbba2c983	-0.0049678697
196	0x3d4852aa	0.04890696
197	0x3b769998	0.003762817
198	0xbd3901d4	-0.04516776
199	0xbd950846	-0.07276969
200	0xbd22603e	-0.039642565
201	0xbc607831	-0.013700531
202	0xbd8be2b5	-0.0683035
203	0xbd238add	-0.039927352
204	0x3d4048ea	0.046944536
205	0xbc834b14	-0.016027011
206	0xbd787df6	-0.060667
207	0xbd9ab872	-0.075547114
208	0xbd7071fb	-0.05870245
209	0x3a3ca2cb	0.0007195889
210	0xbcdfed01	-0.027334692
211	0xbdc7a5ae	-0.09748398
212	0xbd025e6f	-0.03182834
213	0xbd6711fb	-0.056413632
214	0xbd6700c9	-0.056397233
215	0x3c7b9e27	0.015357531
216	0x3c2627d9	0.010141336
217	0xbd855e05	-0.065120734
218	0xbd866f81	-0.065642364
219	0xbcf6f9b2	-0.03014836
220	0x3c436a56	0.011927208
221	0xbd8a48c3	-0.067521594
222	0x3a0585c4	0.000509348
223	0xbc143f19	-0.009048247
224	0xbd3b3058	-0.0457004
225	0xbd62f564	-0.055409804
226	0xbcdc587c	-0.026897661
227	0x3d1b2e73	0.037886094
228	0xbd4f2110	-0.05056864
229	0xbd8ca57b	-0.068675004
230	0x3d2ef659	0.042715404
231	0xbc34fc93	-0.0110465465
232	0x3c4773e5	0.0121736275
233	0xbdcfafac	-0.101409286
234	0xbd211242	-0.039324053
235	0xbd61d189	-0.05513147
236	0xbdb258aa	-0.087083176
237	0xbc6aa768	-0.014322139
238	0xbcbf577b	-0.023357144
239	0xbd665252	-0.05623085
240	0xbd1a8197	-0.037721243
241	0xbcca7440	-0.024713635
242	0xbd86b4a9	-0.06577427
243	0xbdb376ee	-0.087629184
244	0xbc5db713	-0.013532418
245	0x3cb67c83	0.022276169
246	0xbd8e1291	-0.06937135
247	0xbce5c84c	-0.02804961
248	0xbd4e0264	-0.05029525
249	0x3cb18959	0.021671938
250	0x3d161b10	0.036646903
251	0xbca1e69d	-0.019763285
252	0xbdc17f4f	-0.0944811
253	0x3c0240c4	0.007950012
254	0xbcb45e77	-0.0220177
255	0xbce8d2f0	-0.028420895

q1.2.bias f4 [256]
0	0xbcbf26d6	-0.023333948
1	0x3d524172	0.051331945
2	0x3ef442f3	0.47707328
3	0x3ee72feb	0.45153746
4	0x3e403828	0.18771422
5	0x3db67b5c	0.08910248
6	0x3e4d8b07	0.20072566
7	0x3d5c35b7	0.053762164
8	0xbd0733c8	-0.033008367
9	0x3cf83b58	0.030301735
10	0x3de54806	0.11195378
11	0xbd13f932	-0.036126323
12	0x3de509b1	0.11183489
13	0x3d50b3d3	0.050952744
14	0xbda1285a	-0.078690246
15	0x3c499f9c	0.01230612
16	0xbde9d3b9	-0.11417336
17	0x3c0e6a3b	0.0086923195
18	0xbd99ae6a	-0.0750397
19	0x3e30ca3c	0.17264646
20	0xbdc65907	-0.09684949
21	0x3d050e25	0.032484192
22	0xbd845bbb	-0.06462809
23	0x3d557208	0.0521107
24	0xbda81fd4	-0.08209196
25	0xbc48e750	-0.01226218
26	0xbd2ec4d0	-0.042668164
27	0xbd07071e	-0.03296577
28	0xbd551702	-0.052023895
29	0xbdf76ac9	-0.120809145
30	0x3c8afbf3	0.016965842
31	0xbe86c8c1	-0.26325038
32	0xbdc2b288	-0.095067084
33	0x3d3e9cf4	0.0465364
34	0xbe2cab6d	-0.16862269
35	0x3d42ac9c	0.047527894
36	0xbd551536	-0.05202218
37	0xbd9edd88	-0.077570975
38	0x3c8060f7	0.015671236
39	0xbdac9db9	-0.08428521
40	0xbb40b9ba	-0.0029407577
41	0x3d9a8049	0.07544
42	0x3bdf9761	0.0068234657
43	0xbd83e51d	-0.06440184
44	0xbd9786e6	-0.07398777
45	0xbd8c313c	-0.06845328
46	0xbd631c39	-0.055446837
47	0xbdc421b6	-0.09576742
48	0xbd5f2a48	-0.054483682
49	0xbd5d56aa	-0.054037727
50	0xbd72b350	-0.059253037
51	0xbae2ca45	-0.0017302713
52	0x3c9985e0	0.018740594
53	0xbc15e9c6	-0.009149974
54	0x3c55725e	0.013027756
55	0xbd27433f	-0.040835615
56	0x3a2802a7	0.00064090866
57	0xbdc4c917	-0.09608667
58	0x3d1eb2d1	0.03874475
59	0xbdd511f1	-0.10403813
60	0xbedafb32	-0.42769772
61	0x3e33b05e	0.17547747
62	0x3cc92ca4	0.02455742
63	0xbd25e3b1	-0.040500347
64	0x3c07db75	0.008292069
65	0xbd9f93a2	-0.077918306
66	0xbda3d7eb	-0.080001675
67	0x3c1fddec	0.0097575
68	0x3d74d658	0.059774727
69	0xbc055c76	-0.00813972
70	0xbdc21024	-0.09475735
71	0x3d9d4c46	0.07680564
72	0x3b6121df	0.0034352464
73	0xbd1e686b	-0.0386738
74	0xbca42657	-0.020037813
75	0xbda24f79	-0.079253145
76	0xbd87e5c4	-0.06635621
77	0x3c2fff79	0.010742062
78	0xbd0f2849	-0.03495053
79	0x3d884fb9	0.06655831
80	0x3d96a70c	0.073560804
81	0x3c523284	0.012829427
82	0xbcb63bf8	-0.022245392
83	0x3d254456	0.040348373
84	0x3db9f8f4	0.09080687
85	0xbd8e7fac	-0.06957945
86	0xbeb75351	-0.35805753
87	0xbd29f0c5	-0.04148938
88	0xbd8efd57	-0.069819145
89	0x3e0a47cf	0.13503955
90	0x3c5cfd0f	0.013488068
91	0xbd21f5ec	-0.03954117
92	0x3cb76065	0.022384832
93	0x3e035cf1	0.12828423
94	0xbd8c53a6	-0.06851892
95	0xbcff1cd0	-0.031141669
96	0x3e30cc65	0.1726547
97	0x3bcbde27	0.006221551
98	0x3d5f00e6	0.054444216
99	0xbdb3208b	-0.087464415
100	0x3c4c6cae	0.012477083
101	0xbd1fb0d4	-0.038986996
102	0xbdb44b1d	-0.08803389
103	0xbd9f26b6	-0.077710554
104	0x3f968114	1.1758142
105	0x3d7da5dc	0.061925754
106	0xbce8f4c5	-0.028437028
107	0xbd4cac4e	-0.04996901
108	0x3c9778eb	0.018490275
109	0xbd728a97	-0.0592142
110	0x3dc740b3	0.09729137
111	0x3df50f78	0.11965841
112	0xbe055058	-0.1301893
113	0x3c902572	0.01759598
114	0x3dc9d6c4	0.098554164
115	0x3c2b1585	0.010442142
116	0xbc897f68	-0.016784385
117	0xbda2bb03	-0.07945826
118	0xbd9d7d59	-0.07689924
119	0xbe920ff2	-0.2852779
120	0x3e081aa0	0.13291407
121	0xbd67e0b5	-0.05661078
122	0xbdbe75cf	-0.09299814
123	0xbe01443f	-0.1262369
124	0xbe7e7c3b	-0.24852078
125	0x3fbb43d7	1.4630078
126	0x3d4e89be	0.05042433
127	0x3c8fefd2	0.01757041
128	0xbd55e690	-0.052221835
129	0xbab4c8a6	-0.0013792708
130	0x3b8eae25	0.0043542557
131	0x3db48599	0.08814544
132	0xbb64c878	-0.0034909528
133	0x3f5a404e	0.8525437
134	0x3dfdee7c	0.12399003
135	0x3f7b1604	0.9808047
136	0xbd9dc983	-0.07704451
137	0x3c7c2f8a	0.015392194
138	0x3c6a1a0f	0.014288439
139	0xbc340683	-0.010987881
140	0xbdacddc3	-0.08440735
141	0xbb451d20	-0.0030077174
142	0xbd768a4b	-0.06019048
143	0x3d2abf3d	0.041686285
144	0xbd9622fc	-0.073308915
145	0x3d5fc999	0.054635618
146	0x3d8699f5	0.06572334
147	0x3d93d645	0.07218603
148	0xbc42fa52	-0.011900501
149	0x3e148380	0.14503288
150	0xbc895bf4	-0.01676748
151	0xbd49e609	-0.049291644
152	0x3de97388	0.11398989
153	0xbbf2ce42	-0.0074098418
154	0xbd1e448c	-0.03863959
155	0xbd683aa3	-0.056696545
156	0xbc9cac28	-0.01912506
157	0xbc86d83d	-0.016460532
158	0xbd1f99f0	-0.038965166
159	0xbd95b7ab	-0.073104225
160	0x3d813ae0	0.06310058
161	0x3dbcb467	0.092140965
162	0xbd97a0d5	-0.07403723
163	0x3caecf9e	0.021339234
164	0xbdab227b	-0.08356186
165	0xbd40faf7	-0.04711434
166	0x3db6375c	0.08897278
167	0x3d4e9d61	0.050443057
168	0xbdaaed81	-0.083460815
169	0xbd554717	-0.05206975
170	0x3b9e87a4	0.004837947
171	0x3e508036	0.20361409
172	0xbd5c2515	-0.0537463
173	0xbd56eb32	-0.052470393
174	0x3c0c0cf4	0.00854801
175	0x3f7414ab	0.95344037
176	0xbcc15700	-0.023601055
177	0xbe4ef0cc	-0.20209044
178	0xbdc2fffa	-0.0952148
179	0xbcebee3a	-0.028800119
180	0xbd073c1b	-0.033016305
181	0x3d40dd78	0.04708621
182	0xbe2ba6d6	-0.16762862
183	0x3d2dd5de	0.042440288
184	0xbca20f8c	-0.019782804
185	0xbe94daa7	-0.29073068
186	0xbe5da209	-0.21643843
187	0x3e53e905	0.20694359
188	0xbda20d91	-0.07912744
189	0xbc5a6360	-0.013329357
190	0xbd28caf9	-0.041209195
191	0xbd59ed58	-0.053204864
192	0xbe27f984	-0.16403776
193	0x38aa864d	8.131247e-05
194	0xbc773c9f	-0.015090137
195	0xbd2dc807	-0.04242709
196	0xbd0c0e49	-0.03419331
197	0x3da69d3e	0.0813546
198	0xbdb35bc3	-0.087577365
199	0x3d4d857e	0.050176136
200	0xbd646cdb	-0.055767875
201	0x3edf7c69	0.43649605
202	0x3cca7be5	0.02471728
203	0xbd0b581c	-0.034019575
204	0xbe2cfc06	-0.16893014
205	0x3baadeb6	0.0052145375
206	0x3c7f1db3	0.015571046
207	0xbc0ad66d	-0.008473975
208	0x3d8220bb	0.06353899
209	0x3ebf0c32	0.37313992
210	0xbc525406	-0.012837416
211	0xbe1043c4	-0.1408835
212	0x3d695331	0.056964103
213	0x3b87fba1	0.0041498696
214	0x3cb13ae3	0.021634525
215	0xbc31d219	-0.010853314
216	0xbbd4e4de	-0.0064970097
217	0xbd39837b	-0.045291405
218	0xbd30bfbf	-0.043151613
219	0xbd8a9fe9	-0.06768782
220	0xbe7484ab	-0.23878734
221	0xbd5e9ace	-0.054346852
222	0xbc52f801	-0.012876512
223	0xbeb154af	-0.3463492
224	0xbc2858d6	-0.010275086
225	0x3c681342	0.014164748
226	0x3e5637f9	0.2091979
227	0xbd11e317	-0.03561696
228	0xbc1cca8a	-0.009569773
229	0x3d13ed30	0.03611487
230	0xbce1c21a	-0.027558375
231	0xbd57c59e	-0.052678697
232	0xbcae918c	-0.021309637
233	0x3b81b4e6	0.0039583324
234	0xbcb89dd0	-0.022536188
235	0xbd148b6e	-0.036265783
236	0xbd9d22a1	-0.076726206
237	0x3e0355c3	0.12825684
238	0x3d161127	0.03663745
239	0xbdbc4e18	-0.09194583
240	0x3e0d5724	0.13802773
241	0xbda416cc	-0.08012161
242	0xbda980f9	-0.08276553
243	0x3dace177	0.084414415
244	0xbd09177b	-0.03346966
245	0xbe7352e1	-0.23762085
246	0x3d9784b5	0.07398359
247	0xbd8fe892	-0.07026781
248	0x3dd7ae4d	0.10531292
249	0xbca4dda6	-0.020125221
250	0xbcad71a1	-0.021172347
251	0x3d84f434	0.064918905
252	0x3d41dd30	0.04733008
253	0xbdade55b	-0.08491012
254	0x3dd08110	0.10180867
255	0xbd938ded	-0.072048046

q1.4.weight f4 [1, 256]
0	0xbc7098b6	-0.014684847
1	0x3e2c3afa	0.16819373
2	0xc0056d82	-2.0848088
3	0xbf49b07b	-0.7878491
4	0xbf008bc3	-0.5021326
5	0x3e4424fb	0.19154732
6	0xbef4d889	-0.47821453
7	0x3d1c315a	0.038133003
8	0x3c4a2953	0.012338954
9	0x3eaa6df6	0.3328702
10	0x3e16b4f4	0.14717466
11	0xbc4e7597	-0.012601278
12	0x3eccdb8e	0.40011257
13	0x3f17b848	0.59265566
14	0x3c0bd935	0.008535673
15	0xbc9ef33a	-0.019403089
16	0x3e147a62	0.1449981
17	0xbcc14913	-0.023594415
18	0x3f0416fe	0.51597583
19	0x3eb23385	0.3480493
20	0xbcb7b1d1	-0.022423657
21	0xbf19c878	-0.60071516
22	0xbc886533	-0.016649818
23	0xc021b2de	-2.5265422
24	0xbb85b614	-0.0040805433
25	0x3ec3d825	0.38250843
26	0xbbbd39c6	-0.0057747094
27	0xbbdf9555	-0.0068232217
28	0x3ede5307	0.4342272
29	0x3ebdf605	0.3710176
30	0x3e80766b	0.25090346
31	0x40000149	2.0000784
32	0x3b268c9e	0.0025413404
33	0x3e830212	0.25587517
34	0xbfed9311	-1.8560506
35	0x3e3d664c	0.18496054
36	0x3c8a1795	0.016856948
37	0xbd8c2fc2	-0.068450466
38	0x3c9c4e28	0.019080237
39	0x3dd26e30	0.10274923
40	0x3c755c4e	0.01497562
41	0x3dc7dccf	0.09758913
42	0xba81e4ab	-0.0009910067
43	0x3e39ff86	0.1816388
44	0x3fc6096e	1.5471628
45	0xbcb6b186	-0.022301447
46	0x3e3e8b63	0.1860786
47	0x3b8415fc	0.004030941
48	0x3d448be7	0.047984984
49	0x3b118078	0.0022201817
50	0x3f0c53c3	0.5481531
51	0x3c4995ce	0.012303783
52	0xbc95c905	-0.01828433
53	0x3c87d1ed	0.016579593
54	0x3b97a670	0.004627995
55	0xbcd85a58	-0.026410267
56	0x3e4314a1	0.19050838
57	0xbc70167b	-0.014653797
58	0xbfa3ca54	-1.2796121
59	0xbcbcb262	-0.023034278
60	0xc061791f	-3.5230176
61	0x3f3182c7	0.69340175
62	0x3e7ba963	0.24576335
63	0x3eb5c086	0.35498446
64	0xbd2bd834	-0.041954234
65	0xbccc948c	-0.024973176
66	0xbc4e7ea6	-0.0126034375
67	0x3cc44d8d	0.02396276
68	0xbf433b0c	-0.76261973
69	0x3be3d834	0.0069532637
70	0x3e35b669	0.17745365
71	0x3e910b1b	0.28328785
72	0xbc2c21e9	-0.010506132
73	0xbcc86a53	-0.024464762
74	0xbc2f0067	-0.010681248
75	0x3cb62bdc	0.02223771
76	0xbc9fba47	-0.019498004
77	0xbd9da799	-0.07697982
78	0xbb2fadab	-0.0026806395
79	0x3d887924	0.06663731
80	0x3e3a2e2c	0.18181676
81	0x3e84127a	0.25795346
82	0xbc33f0d6	-0.010982713
83	0x3e884bd2	0.26620346
84	0xbfc1a8cf	-1.5129641
85	0x3b592228	0.003313193
86	0x3ff6fa78	1.9295187
87	0xbcabb97d	-0.020962471
88	0x3c22f9a3	0.009947213
89	0x3e2a8d42	0.16655448
90	0x3c1c5314	0.009541292
91	0x3c8c6db0	0.017142147
92	0x3cb85e3a	0.022505868
93	0x3e074ebe	0.13213632
94	0xbbe288d2	-0.006913283
95	0xbac26bb1	-0.001483312
96	0xbee12eba	-0.43980962
97	0xbb07b458	-0.0020706858
98	0x3eba27ec	0.36358583
99	0xb7ef0add	-2.8496079e-05
100	0xbc47631e	-0.0121696275
101	0x3ebb74a3	0.36612424
102	0x3c59edc3	0.013301316
103	0xbb69964a	-0.0035642558
104	0xc0176767	-2.3656862
105	0x3eb3a927	0.3508999
106	0xbc539478	-0.012913816
107	0x3f561fb3	0.8364212
108	0xbfa7ed52	-1.31193
109	0x3c39bc38	0.011336379
110	0x3e68bd1a	0.22728387
111	0x3f86e01a	1.053714
112	0x3eebfeaa	0.4609273
113	0x3caed9f2	0.021344159
114	0x3e17c6c8	0.14821923
115	0x3c410f6a	0.01178346
116	0x3eef9274	0.46791422
117	0x3c63334a	0.013867209
118	0xbc7e6fc6	-0.015529579
119	0x3f54beab	0.83103436
120	0x3da376ef	0.07981669
121	0xbcaaf522	-0.020868842
122	0xbb359ed4	-0.0027713077
123	0x3e354ce1	0.17705108
124	0x3f7d56b3	0.9896042
125	0xc0065096	-2.0986686
126	0x3e058262	0.13038018
127	0xbc34a166	-0.0110248085
128	0xbc00bf0f	-0.007858052
129	0xba71f787	-0.0009230305
130	0xbcc70e25	-0.024298737
131	0x3e08edc7	0.13371955
132	0x3e469581	0.19392969
133	0xbf2435bf	-0.6414451
134	0x3e46587b	0.1936969
135	0xbf21bc8e	-0.63178337
136	0xbc25cb56	-0.01011928
137	0x3cb9cbfb	0.022680273
138	0xbecdb85e	-0.40179724
139	0x3ec10e10	0.3770604
140	0x3cb745b2	0.0223721
141	0x3c2d1793	0.010564703
142	0xbce53089	-0.027977245
143	0x3e86f25f	0.2635679
144	0xbd430e86	-0.047621273
145	0x3ebc8a5c	0.3682431
146	0xbf97b0a4	-1.1850781
147	0x3e075ff6	0.132202
148	0xbcbfdbdd	-0.023420269
149	0x3d982457	0.07428806
150	0x3c522052	0.012825089
151	0x3c62024a	0.013794491
152	0x3dfcb019	0.123382755
153	0x3b6aeead	0.0035847828
154	0xbbff6bfe	-0.007794856
155	0x3e8c2ad4	0.27376425
156	0x3c403507	0.011731393
157	0xbcd92574	-0.026507117
158	0xbccd4fb6	-0.025062423
159	0x3ca5aa48	0.020222798
160	0x3d579b57	0.052638378
161	0x3dcee902	0.101030365
162	0x3c5cb29e	0.01347032
163	0x3db0a2f3	0.0862483
164	0x3e55b46a	0.20869604
165	0x3ab950ab	0.0014138421
166	0xbfbb55ee	-1.4635599
167	0x3f1f33a8	0.62188196
168	0xbc8a7cbf	-0.016905187
169	0x3cfc980d	0.030834222
170	0x3cb136ee	0.021632638
171	0xbfe37779	-1.7770835
172	0x3f2f08b4	0.68372655
173	0x3ba9f9fb	0.0051872707
174	0x3ae436d8	0.0017411364
175	0xbf22b3d7	-0.63555664
176	0x3f03e4a0	0.5152073
177	0xbffa94cf	-1.9576663
178	0x3ca8d39d	0.020608718
179	0xbca5e261	-0.020249547
180	0x3f132569	0.5747896
181	0x3bc5cff0	0.006036751
182	0x3eedba1e	0.4643106
183	0x3f4eb88b	0.8075034
184	0x3e23e3ab	0.16004817
185	0x404ee4f7	3.232725
186	0xc02cec6e	-2.7019305
187	0x3e1fb275	0.1559542
188	0x3fbf4b56	1.4944866
189	0x3ccf25b6	0.025286537
190	0x3cabaed0	0.02095738
191	0xbb8d3987	-0.0043098363
192	0xbfc964cf	-1.5733889
193	0x3c90bffa	0.017669667
194	0xbc67de3f	-0.014152109
195	0x3ebc826f	0.36818263
196	0xbca9f6cd	-0.020747567
197	0x3e51b4f3	0.20479183
198	0x3ce0b800	0.027431488
199	0x3e66b106	0.22528467
200	0xbcc459ab	-0.023968538
201	0xc0118575	-2.2737706
202	0xbc257924	-0.010099683
203	0xbca69f83	-0.020339733
204	0x3ef6312b	0.48084387
205	0xbc878cd6	-0.016546648
206	0xbc7ae628	-0.015313663
207	0xbbf7c92f	-0.0075618248
208	0x3e27e8b7	0.16397367
209	0xc0063ec1	-2.0975802
210	0x3c27b87e	0.010236857
211	0x3e3e32f1	0.1857412
212	0x3f95da98	1.1707335
213	0x3e1e0bd4	0.154342
214	0x3c479222	0.012180837
215	0x3c9041bf	0.017609475
216	0xbc9fd8f5	-0.019512633
217	0xbd00c37c	-0.03143643
218	0xbd05e7d0	-0.032691777
219	0xbc1060a6	-0.008812105
220	0xc01ba5e8	-2.432001
221	0xbb070970	-0.002060499
222	0x3dec5732	0.11540069
223	0x3f3565af	0.7085828
224	0xbb371624	-0.002793678
225	0x3dc87378	0.09787649
226	0xbfae2814	-1.3605981
227	0x3b04d198	0.002026653
228	0xbc7797ea	-0.015111903
229	0x3ea2b74c	0.3178047
230	0xbc1e89fa	-0.009676451
231	0xbc0d2b0b	-0.008616219
232	0x3be30332	0.006927871
233	0x3c523849	0.012830802
234	0xbcf55f70	-0.029952735
235	0x3eb76a16	0.35823125
236	0xbb50c044	-0.003185288
237	0x3db6b848	0.089218676
238	0x3f0c37eb	0.54772824
239	0x3c8e4d11	0.017370733
240	0xbecfe1bd	-0.40601912
241	0xbcb305e1	-0.02185339
242	0xbb2680c3	-0.0025406338
243	0xba2acb6a	-0.00065152964
244	0xbb171bb1	-0.0023057277
245	0x40287f18	2.6327572
246	0x3e9aa673	0.30205116
247	0x3bb8cb9b	0.005639506
248	0x3f7ab8f5	0.9793847
249	0x3e9753d2	0.29556137
250	0x3b2f137e	0.00267145
251	0x3e0fdfcb	0.14050214
252	0x3e9b02bd	0.30275527
253	0x3e982945	0.29718986
254	0x3eca2b7d	0.39486304
255	0x3f12077b	0.57042664

q2.0.weight f4 [256, 28]
0	0x3d8beef0	0.06832683
1	0xc009a212	-2.150517
2	0xbf86e587	-1.0538796
3	0x3eca2787	0.39483282
4	0xbec48abf	-0.38387105
5	0x3e0c82e3	0.13721804
6	0xbf11b02d	-0.5690945
7	0x3e8ec6c5	0.27886024
8	0x3cd06047	0.025436534
9	0xbeb40366	-0.35158843
10	0xbeab2744	-0.33428395
11	0xbf85929a	-1.0435364
12	0xbb3f7556	-0.0029214225
13	0xbebf9553	-0.37418613
14	0x3de6edf5	0.112758555
15	0xbd6c4460	-0.057682395
16	0xbd64ca57	-0.05585703
17	0xbe252458	-0.16127145
18	0xbcc51cd8	-0.024061605
19	0x3cce9b3d	0.025220508
20	0x3dd73a35	0.10509149
21	0x3ef9be31	0.48777917
22	0xbdc707d2	-0.097182885
23	0xbef0dcea	-0.47043544
24	0x3d792db8	0.060834616
25	0x3ea59d0f	0.3234639
26	0x3d4e2767	0.050330546
27	0x3e0c579d	0.13705297
28	0xbf032728	-0.5123162
29	0x3f56bb9c	0.8388002
30	0xbdc9c754	-0.09852472
31	0xbf0e1e67	-0.5551514
32	0xbecdc502	-0.40189368
33	0x3ee2ed70	0.44321775
34	0xbf4488d5	-0.7677129
35	0x3eb57d01	0.35446933
36	0x3ea08e64	0.31358635
37	0xbe8b4e7c	-0.27208316
38	0xbe2ee82f	-0.17080759
39	0x3e9e0121	0.30860236
40	0x3e871ba1	0.26388267
41	0x3d9022f4	0.07037917
42	0xbdad50e8	-0.08462697
43	0x3f726aec	0.946944
44	0x3f91b45e	1.1383169
45	0x3f4203d4	0.7578709
46	0x3ee1b5dc	0.4408406
47	0xbe1810c5	-0.14850147
48	0xbf2c0d78	-0.6720805
49	0xbf32a7f0	-0.697875
50	0xbeb8dd09	-0.36106136
51	0xbeb22a18	-0.3479774
52	0xbe228dc9	-0.15874399
53	0x3e9e1051	0.30871823
54	0x3d4db356	0.050219856
55	0x3ecf4d17	0.40488502
56	0x3ee0b44c	0.43887556
57	0xbf8365c3	-1.026543
58	0xbee6bd74	-0.45066416
59	0x40383582	2.8782659
60	0x3ec93522	0.3929835
61	0xbd28e499	-0.041233633
62	0xbe9ee6fb	-0.310356
63	0x3e0418fc	0.12900156
64	0x3f17c04d	0.592778
65	0xbf708df0	-0.9396658
66	0xbe31a425	-0.17347772
67	0xbe31e5aa	-0.17372766
68	0xbdecc136	-0.115602896
69	0xbe9ee730	-0.31035757
70	0xbf8fca37	-1.1233586
71	0x3f069af5	0.52580196
72	0x3eb5880b	0.35455355
73	0x3e8f8453	0.28030643
74	0x3df1f538	0.1181435
75	0xbe8ce99a	-0.27521974
76	0xbf63f928	-0.8905206
77	0xbede527f	-0.43422315
78	0xbe09821c	-0.13428539
79	0x3cbf9f70	0.023391455
80	0xbe0d2192	-0.13782337
81	0x3dbc679d	0.0919945
82	0x3e78e3b3	0.2430561
83	0xbe64861c	-0.22316784
84	0xbfa402be	-1.2813337
85	0x3f7a97b0	0.97887707
86	0x401cf8b5	2.4526799
87	0x400999ff	2.1500242
88	0xbf5663b5	-0.8374589
89	0x3ddc7ba6	0.107657716
90	0xbeadfb22	-0.33980662
91	0xbc148a16	-0.009066125
92	0xbe1656a9	-0.14681496
93	0xbee3a047	-0.4445822
94	0x3d9c460e	0.07630549
95	0xbe60757f	-0.21919821
96	0xbd87b750	-0.06626761
97	0xbe07f167	-0.13275681
98	0x3c8357d6	0.016033094
99	0x3f214db0	0.63009167
100	0x3f2e15b1	0.6800185
101	0x3f069630	0.5257292
102	0x3eaffe83	0.34373865
103	0x3e9636fd	0.29338828
104	0x3e787c0b	0.24266069
105	0x3de7a65f	0.1131103
106	0x3df8fe3f	0.121578686
107	0xbed8e314	-0.42360747
108	0xbcd0dd9a	-0.025496293
109	0x3d90004e	0.07031308
110	0xbccbdfc0	-0.024886966
111	0xbd9c438e	-0.076300725
112	0xbf6145a4	-0.8799689
113	0xbfbf832e	-1.4961908
114	0x3f96dd02	1.1786196
115	0xbe4b0907	-0.19827662
116	0xbdcef52e	-0.10105358
117	0x3d8b54c2	0.06803276
118	0x3da2f231	0.079563506
119	0xbdba6538	-0.09101337
120	0x3cc58fb9	0.024116384
121	0xbf7e3d04	-0.9931185
122	0xbe691ee2	-0.22765687
123	0xbe6cf7ff	-0.23141478
124	0xbdfa8a0d	-0.12233362
125	0x39e9c315	0.0004458657
126	0x3ebbc821	0.36676124
127	0x3e8e68eb	0.2781442
128	0x3ef995b7	0.48747036
129	0xbe1d789c	-0.1537804
130	0xbf45f944	-0.77333474
131	0xbf7581d4	-0.95901227
132	0xbf16c57e	-0.588951
133	0xbf4755ec	-0.7786548
134	0xbf224913	-0.6339275
135	0x3dd69993	0.10478511
136	0x3da4eaa5	0.080525674
137	0xbd4b3724	-0.049613133
138	0x3c4de2a9	0.012566247
139	0xbdb85b88	-0.09001833
140	0xbf28d2e9	-0.65946823
141	0xbfcb7218	-1.5894194
142	0x3edbdea9	0.42943314
143	0x3f427f1b	0.759752
144	0xbfa420d4	-1.2822518
145	0x3f6a1a00	0.9144592
146	0xbf3bb1e9	-0.73318344
147	0x3e544327	0.20728742
148	0x3f024d20	0.50898933
149	0x3edf3abc	0.43599498
150	0x3f26c886	0.65149724
151	0x3f8ef9cf	1.1169986
152	0x3e176eda	0.1478838
153	0xbf807cb4	-1.0038056
154	0xbd6bea0e	-0.05759626
155	0xbf40412a	-0.7509943
156	0xbe2aab65	-0.16666944
157	0x3e7225c5	0.2364722
158	0x3d992b4c	0.07478961
159	0x3d5b18c1	0.053490404
160	0xbed06cb3	-0.4070793
161	0xbf1b1b0f	-0.60588163
162	0xbf15a9b5	-0.5846208
163	0xbf3b2b26	-0.73112714
164	0xbee2be55	-0.44285837
165	0xbd9c5d0c	-0.07634935
166	0xbea655d7	-0.32487366
167	0x3f063697	0.5242705
168	0x3e7cbb5c	0.24680847
169	0xbfc6525e	-1.5493886
170	0x3f991518	1.1959562
171	0xc03a730b	-2.9132717
172	0xbe2a942f	-0.1665809
173	0xbed77f40	-0.42089272
174	0x3f0a25dc	0.5396402
175	0x3ec9dd94	0.39426863
176	0xbf3b5247	-0.7317242
177	0x3f00dbf5	0.5033563
178	0x3d00d026	0.031448506
179	0xbf0d1a47	-0.5511822
180	0x3d89efce	0.06735192
181	0x3e108315	0.14112504
182	0x3f5f9ca8	0.87348413
183	0x3f84237f	1.0323333
184	0x3f37b9cc	0.7176788
185	0x3e9e0870	0.30865812
186	0xbf46e4ff	-0.7769317
187	0xbf51f0fa	-0.82008326
188	0xbf47b2d5	-0.7800725
189	0xbfb069cb	-1.3782285
190	0xbf2b8cd4	-0.6701176
191	0xbe04c94c	-0.12967414
192	0x3d9133c7	0.07089954
193	0xbf0e9257	-0.55692047
194	0xbe32571a	-0.17416039
195	0x3f07fe0f	0.5312204
196	0xc03de679	-2.967192
197	0xc04e9ca4	-3.2283106
198	0x4004632c	2.068553
199	0x3ebb2832	0.36554104
200	0xbd3b618f	-0.045747336
201	0x3d78f390	0.060779154
202	0xbd166bc6	-0.036723875
203	0xbd0447a6	-0.03229489
204	0xbe7640de	-0.24048182
205	0x3eb25c93	0.34836254
206	0x3da54bca	0.08071096
207	0xbe1f5d4f	-0.15562938
208	0x3df92499	0.121651836
209	0xbed01966	-0.40644377
210	0xbda76d08	-0.08175093
211	0xbf3d7a73	-0.7401497
212	0xbf1894df	-0.5960216
213	0xbf6936db	-0.9109933
214	0xbf2e20af	-0.6801862
215	0xbebdc064	-0.37060845
216	0xbf17fa60	-0.59366417
217	0x3e4ca56f	0.19984983
218	0xbdaa9009	-0.08328254
219	0x3dd997e8	0.10624677
220	0xbd64c822	-0.055854924
221	0x3d4a5f20	0.049407125
222	0xbbd9cfed	-0.006647101
223	0xbdd7dfe2	-0.10540749
224	0xbf44fff2	-0.7695304
225	0xc0f44ba8	-7.6342354
226	0xbe5cc142	-0.21558097
227	0xbda069b4	-0.07832661
228	0xbedd0403	-0.43167123
229	0xbe76247a	-0.24037352
230	0x3d731807	0.059349086
231	0xbda9a583	-0.08283522
232	0xbe603810	-0.21896386
233	0xbed23a4f	-0.4106011
234	0xbe4a7442	-0.19770911
235	0xbd156d96	-0.036481462
236	0xbdd96f19	-0.10616893
237	0xbc3faafe	-0.011698483
238	0x3debfb92	0.115225926
239	0x3e26e154	0.16296893
240	0x3f03ec29	0.51532227
241	0x3f8e8876	1.1135395
242	0x3f7f29ac	0.9967296
243	0x3d9ed710	0.07755864
244	0xbf234791	-0.63781077
245	0xbe441c61	-0.1915145
246	0xbe9686ca	-0.2939971
247	0xbe9d08ed	-0.30670872
248	0x3dde3de2	0.10851647
249	0xbde37cf9	-0.11107821
250	0xbd6c6fb5	-0.05772372
251	0x3d66d3cc	0.05635433
252	0x3e97b0a5	0.29626957
253	0xbfbf3fed	-1.4941384
254	0xc01f0e88	-2.485262
255	0xc02fc72b	-2.7465312

q2.0.bias f4 [256]
0	0x3e9de100	0.30835724
1	0xbe2007a0	-0.15627909
2	0xbe8d09dc	-0.27546585
3	0xbfa85e46	-1.315377
4	0x3ea188ec	0.31549776
5	0xbe06fede	-0.13183162
6	0xbe8cbbed	-0.27487126
7	0xbf311dbf	-0.69186014
8	0xbf55eb03	-0.83561724
9	0xbedcc5a3	-0.43119535
10	0x3eee2182	0.4650994
11	0xbdffe413	-0.124946736
12	0xbf043a8c	-0.51651835
13	0xbeb56b3f	-0.35433385
14	0x3f33bcae	0.7020978
15	0xbf7949bc	-0.97378135
16	0x3ea2120f	0.31654403
17	0xbd16df60	-0.03683412
18	0xbea9eb8e	-0.33187526
19	0x3f312e02	0.6921083
20	0xbe97cbd2	-0.2964769
21	0xbe7f1d43	-0.24913506
22	0x3f616869	0.8804994
23	0xbea06cde	-0.3133306
24	0x3f37c891	0.71790415
25	0xbf59e2c5	-0.8511165
26	0xbf42c664	-0.7608397
27	0xbefc5ad8	-0.49288058
28	0x3ee63e0e	0.4496922
29	0x3f4c61f1	0.79836947
30	0xbf6f1350	-0.93388844
31	0xbedb2469	-0.42801216
32	0x3e7b055c	0.24513763
33	0x3fa249cb	1.267877
34	0x3ebd0c0b	0.3692325
35	0xbf3b2dc5	-0.73116714
36	0x3f15d0ea	0.585219
37	0xbe34e7da	-0.1766657
38	0xbecdbf6d	-0.4018511
39	0x3f436c1a	0.76336825
40	0xbea846cc	-0.32866514
41	0xbed4de01	-0.41575626
42	0x3e7bf4ce	0.24605104
43	0x3e8466f5	0.258598
44	0xbec5f6c6	-0.38664836
45	0x3f4a72d8	0.7908149
46	0x3f1e4108	0.6181798
47	0xbef28bd4	-0.47372305
48	0xbec80f6b	-0.39074263
49	0xbe3abfcd	-0.18237229
50	0x3ea43aae	0.3207602
51	0xbdd584fa	-0.10425754
52	0x3cda0592	0.026613984
53	0x3eb013f0	0.3439021
54	0xbea08678	-0.31352592
55	0x3eafb8f4	0.34320796
56	0xbecdfb0e	-0.40230602
57	0xbf71ff42	-0.9453012
58	0x3f6797cb	0.9046599
59	0x3ec7db69	0.39034584
60	0x3f9f3db1	1.2440702
61	0x3d476a27	0.04868522
62	0xbef6d9d4	-0.48213065
63	0x39f2f379	0.00046339238
64	0x3edf749e	0.4364366
65	0xbf92251c	-1.1417575
66	0x3cf02691	0.029315265
67	0x3dd62891	0.10456956
68	0x3f131910	0.5746012
69	0xbe802886	-0.25030917
70	0x3e0822f4	0.13294584
71	0xbee67ad1	-0.45015576
72	0x3ebca241	0.3684254
73	0x3f58dce1	0.84712034
74	0xbdc74591	-0.097300656
75	0xbf341e5a	-0.7035881
76	0x3e498c1f	0.19682358
77	0x3f1b4877	0.6065745
78	0xbd86a649	-0.06574685
79	0x3ef982bf	0.48732564
80	0xbf0faa6e	-0.5611943
81	0xbedd5e04	-0.4323579
82	0xbf13f82e	-0.5780057
83	0xbd69ab46	-0.057048105
84	0x3f16ebf1	0.5895377
85	0x3d57ecc4	0.05271603
86	0xbf60216c	-0.87551
87	0xbebf0695	-0.3730971
88	0x3f65a45a	0.89703906
89	0x3dcfc108	0.1014424
90	0x3ec373ef	0.38174388
91	0xbf45bc47	-0.77240413
92	0xbf539514	-0.8264935
93	0x3e778c25	0.24174555
94	0x3ec48cd9	0.38388708
95	0x3cb54c53	0.02213112
96	0xbf41b2a6	-0.7566322
97	0x3e6f844e	0.23390314
98	0xbf3ad015	-0.7297376
99	0xbee90687	-0.45512792
100	0x3d89420f	0.06702053
101	0xbe833a25	-0.25630298
102	0xbeddecb8	-0.43344665
103	0x3ecbcf12	0.3980642
104	0xbf23dc07	-0.6400761
105	0xbe13fa8c	-0.14451045
106	0xbf32bcd7	-0.69819397
107	0xbe07b0d1	-0.13251044
108	0x3df363c6	0.11884265
109	0xbd9d912a	-0.076937035
110	0xbe9c9156	-0.30579633
111	0x3e27dcc9	0.16392817
112	0xbf92e3dc	-1.1475787
113	0xbf4756ae	-0.7786664
114	0xbea11cf1	-0.31467393
115	0xbdb5acb5	-0.08870832
116	0xbf71000b	-0.9414069
117	0xbea974fa	-0.3309706
118	0xbf8454d7	-1.0338391
119	0x3dceed33	0.10103836
120	0xbe9a5983	-0.30146417
121	0xbf475f57	-0.7787985
122	0xbf22354b	-0.6336257
123	0xbf9158d8	-1.1355238
124	0xbf8c9b1a	-1.0984833
125	0xbf8b96fb	-1.090545
126	0x3f83fb77	1.0311116
127	0x3e54a7a6	0.20767078
128	0xbf83559f	-1.0260504
129	0xbf333ff0	-0.70019436
130	0x3d7f1e64	0.062284842
131	0xbe9be896	-0.30450886
132	0x3f03052d	0.5117977
133	0x3e9ba382	0.30398184
134	0x3eb5181d	0.3536996
135	0xbe993214	-0.2992102
136	0xbec3b2be	-0.38222307
137	0x3e143ae5	0.14475591
138	0x3d05bf18	0.032652944
139	0x3ea46fe0	0.32116604
140	0x3eebadfa	0.4603117
141	0xbebf128f	-0.37318847
142	0xbe3a9d05	-0.1822396
143	0xbf76be89	-0.96384484
144	0x3e70bc69	0.23509373
145	0xbf082875	-0.5318673
146	0x3f0c33a4	0.547663
147	0x3f7575b7	0.95882744
148	0xbf44bae5	-0.7684768
149	0x3d0d57cf	0.03450757
150	0x3f047a35	0.51748973
151	0x3f3882e8	0.7207475
152	0xbf280a31	-0.6564055
153	0xbf4471c7	-0.7673611
154	0xbf99f08d	-1.2026535
155	0xbf981ade	-1.1883199
156	0xbd7da6a2	-0.06192649
157	0xbee2ac09	-0.44271877
158	0x3e852d10	0.26010942
159	0xbe45cb91	-0.19315936
160	0xbe6c2af6	-0.23063263
161	0x3d334885	0.043770332
162	0x3f2bb54d	0.6707352
163	0x3e4b6c94	0.19865638
164	0xbe5ced90	-0.21574998
165	0xbeb7b23a	-0.35878164
166	0x3ee18274	0.4404484
167	0x3f3d73ba	0.7400471
168	0x3e981f6a	0.29711467
169	0xbf73ede6	-0.9528488
170	0xbe485850	-0.19564939
171	0xbf8701c4	-1.0547414
172	0x3f75a085	0.9594806
173	0x3e9e8901	0.309639
174	0x3edfdf82	0.4372521
175	0x3ed9dadc	0.4254979
176	0xbf7e4270	-0.99320126
177	0xbf278c2d	-0.65448266
178	0xbf35d4de	-0.71027935
179	0x3e3560fd	0.1771278
180	0xbedd6df1	-0.4324794
181	0xbf18ab28	-0.59636164
182	0xbee53feb	-0.44775328
183	0xbe09719e	-0.13422248
184	0xbe746b94	-0.23869163
185	0xbf8b8e05	-1.0902716
186	0x3e9fa366	0.3117935
187	0xbee9add7	-0.45640442
188	0xbe4bd27c	-0.19904512
189	0x3f541598	0.8284545
190	0x3d9a7821	0.07542444
191	0x3f2560f2	0.6460105
192	0x3ed22412	0.41043144
193	0xbe9cd16a	-0.3062852
194	0xbf443d63	-0.7665617
195	0x3d4ad029	0.049514923
196	0x3ece64e1	0.4031134
197	0xbe4fc2a7	-0.20289098
198	0x3f4bef53	0.79662055
199	0x3f0db4c5	0.5535396
200	0x3f189ab4	0.5961106
201	0x3efa339b	0.48867497
202	0xbe82f594	-0.25577986
203	0xbcd90250	-0.02649036
204	0xbebeff82	-0.37304312
205	0xbf2275af	-0.6346082
206	0xbd59785c	-0.0530933
207	0xbe9d43a3	-0.30715665
208	0x3f3bcf64	0.7336333
209	0x3f12cdb8	0.5734515
210	0x3f46a9d2	0.77602875
211	0xbe8becaa	-0.27328998
212	0xbf37c328	-0.7178216
213	0xbee131ed	-0.43983403
214	0x3f5d8584	0.86531854
215	0xbe8af11c	-0.27137077
216	0xbf81315b	-1.0093187
217	0x3eb74129	0.357919
218	0xbf1c6865	-0.61096793
219	0xbe7a87a1	-0.24465801
220	0xbd7db050	-0.061935723
221	0xbeaeffd9	-0.3417957
222	0xbbff674e	-0.0077942973
223	0xbe4834e9	-0.19551434
224	0xbef1d9a0	-0.47236347
225	0xbf5dc3bd	-0.866268
226	0x3e0b93e0	0.13630629
227	0xbf460e72	-0.7736579
228	0x3ec10258	0.376971
229	0xbe9a1072	-0.30090672
230	0x3f2c297b	0.67250794
231	0xbf598202	-0.84964
232	0x3e377c6c	0.17918557
233	0xbd174e2c	-0.036939785
234	0x3f2c8392	0.6738826
235	0x3f9f10c1	1.2426988
236	0x3ead261b	0.33818135
237	0xbf8a82ad	-1.0821129
238	0xbecad46b	-0.39615187
239	0x3eab460b	0.33451876
240	0x3f21dbc3	0.63225955
241	0xbec4d5cc	-0.38444364
242	0x3dcdba93	0.10045352
243	0xbe7a3050	-0.24432492
244	0xbedf2442	-0.4358235
245	0xbe49825c	-0.19678634
246	0xbf5b7da2	-0.85738575
247	0xbf4576ad	-0.7713421
248	0xbeb03164	-0.34412682
249	0xbf8399cf	-1.0281314
250	0xbb91773f	-0.004439264
251	0xbef320f2	-0.47486073
252	0x3f135e01	0.57565314
253	0x3f42c897	0.76087326
254	0x3c9443e5	0.01809878
255	0x3f01e0af	0.50733465
