best_models/sac/hardcore/sac_actor_step_1000000.pth (torch, 300895 bytes, 8 tensors)

net.0.weight f4 [256, 24]
0.8921198 2.3311572 -3.171704 -2.2527618 -0.17260054 1.0334287 0.5096992 0.3455651
-0.20067315 1.0186186 0.058050953 -0.31667766 -0.10848298 -0.012714573 -0.34157056 0.10457526
-0.13354927 0.044481125 0.3352476 0.56013215 0.18246424 -0.21741427 -0.30279076 -0.22500171
-0.92269987 -1.1960927 0.18603715 -1.4463992 -0.97830945 -0.15945844 0.18447925 0.01664455
0.19509402 -0.87584746 -0.20006312 -0.8097014 -0.06806848 0.08983481 0.45549548 -0.0065172855
-0.6778989 -0.95737666 -0.8388457 -1.1792022 -0.7103956 -0.55700433 0.27443048 0.53005683
-1.3810023 -4.531292 2.93794 0.47710496 -0.014647675 -0.2635077 -0.31129456 -0.14009354
0.0993521 -0.7485391 0.13516289 -0.34293666 -0.1401209 0.27005544 -0.34816992 -0.12653686
-0.16325861 0.034307696 0.029924477 0.34451643 0.5060758 0.4364155 -0.19223556 -0.8510915
-0.39987728 0.18431985 1.749303 -0.9236137 -0.8268782 -0.504457 0.23738548 -0.8624823
-0.0521352 0.16890833 -0.023055218 0.32300425 0.09971123 0.46314216 -0.4020227 -0.14817671
0.20796622 -0.21359535 0.4237928 0.22870743 -0.05771084 -0.24541774 -0.7618803 -0.71500546
1.6786149 5.330892 -1.8175344 -0.59501034 1.7101597 0.20897417 0.27817246 0.15257834
0.023864916 -0.068391345 0.0955858 0.13665147 0.007849016 -0.09451443 -0.2910289 -0.13236037
-0.33077526 -0.49827176 -0.5553737 -0.5759147 0.33241546 0.38522503 0.35542664 0.05166274
-0.8814564 -0.7412793 -0.93508077 0.14862227 0.037575655 0.38496554 -0.9792366 -1.1804965
-0.30716386 -0.33349562 0.5946987 -0.7154646 -0.46025822 -0.9796268 -0.2787403 -0.58630866
-0.7413529 -0.95666426 -0.93207496 -0.7411178 -0.7619351 -0.30822623 0.34698078 -0.4314952
-0.43111688 -1.110808 0.7176027 -1.5934519 -0.50041115 -0.5517274 -0.72388315 -0.1604857
-1.0551653 0.6045154 1.2617109 -0.25789064 0.43103108 0.8010445 -0.71297365 -0.59654516
-0.74917954 -0.7589294 -0.8249234 -0.56863326 -0.3629162 -0.69891363 -0.293706 -0.08049252
0.036805023 -1.1053842 0.18610397 -0.52988285 -0.49953288 0.45684206 -0.9714398 0.29929388
0.6502743 -0.23948663 0.111863054 -0.06458282 0.5326747 -1.8456674 -0.62696725 -0.40515348
-0.038758833 -0.61482346 -0.7884593 -0.56400645 -0.59408593 -0.13527295 -0.013626014 0.049407255
0.08498281 2.615282 -2.3632863 -0.5112513 -0.44404703 0.56042993 -0.914154 -0.12569697
-0.90312785 0.27852663 -0.35173094 0.0800207 -0.17125045 0.08777356 -0.35956222 -0.12900528
-0.4685807 -0.23509572 0.29289082 0.32183304 0.6527618 0.26723456 0.17201105 0.08596068
0.13586333 -1.9728152 2.1210935 -0.5649258 -0.44071484 0.12950087 -0.38416755 -0.40285048
0.71536887 0.21743932 -0.68168753 -0.26695678 0.04103298 0.9829074 -0.35697803 -0.33460966
-0.34857437 0.07168343 0.22448112 -0.6869196 -0.9465251 -1.3141316 -0.556064 0.09836144
-0.25714138 -0.010255815 -0.9729967 -0.55929023 0.92053723 -0.37923184 -0.7802881 -0.13958187
-0.11497602 0.004783351 -0.2874402 0.33872992 0.03474248 0.1425565 -0.17882077 -1.0792837
00000000: f761 643f ae31 1540 33fd 4ac0 402d 10c0
00000010: 32be 30be 6447 843f a67b 023f e9ed b03e
00000020: 437d 4dbe 1862 823f d6c6 6d3d 9323 a2be
00000030: 532c debd c950 50bc 56e2 aebe 8e2b d63d
00000040: 24c1 08be d731 363d 93a5 ab3e d264 0f3f
00000050: e8d7 3a3e d9a1 5ebe 6407 9bbe d966 66be
00000060: 0f36 6cbf 9119 99bf 8680 3e3e 9c23 b9bf
00000070: 7d72 7abf 1349 23be 21e8 3c3e 275a 883c
00000080: bac6 473e 8a37 60bf 59dd 4cbe 9748 4fbf
00000090: 7d67 8bbd 50fb b73d b436 e93e f48e d5bb
000000a0: c88a 2dbf a316 75bf 97be 56bf 19f0 96bf
000000b0: 7cdc 35bf d697 0ebf 2782 8c3e ceb1 073f
000000c0: afc4 b0bf 5800 91c0 3507 3c40 1a47 f43e
000000d0: cdfc 6fbc 7bea 86be 0062 9fbe ae74 0fbe
000000e0: 1d79 cb3d 42a0 3fbf 2468 0a3e 6595 afbe
000000f0: da7b 0fbe b544 8a3e 5443 b2be e192 01be
00000100: 442d 27be 3a86 0c3d 2d24 f53c 7564 b03e
00000110: 2f8e 013f da71 df3e 66d9 44be 22e1 59bf
00000120: b7bc ccbe 58be 3c3e 29e9 df3f f371 6cbf
00000130: 4aae 53bf 1824 01bf 2e15 733e a4cb 5cbf
00000140: b88b 55bd 4ef6 2c3e 4cde bcbc d060 a53e
00000150: 6735 cc3d f820 ed3e ebd5 cdbe a3bb 17be
00000160: 19f5 543e bdb8 5abe 5ffb d83e 4832 6a3e
00000170: 3462 6cbd ca4e 7bbe 960a 43bf 990a 37bf
00000180: dadc d63f ab96 aa40 f8a4 e8bf 9952 18bf
00000190: 83e6 da3f 53fd 553e 9f6c 8e3e 7f3d 1c3e
000001a0: 5b80 c33c c310 8cbd 7dc2 c33d 5dee 0b3e
000001b0: 2999 003c c890 c1bd bd01 95be 7a89 07be
000001c0: 605b a9be 7a1d ffbe f92c 0ebf 256f 13bf
000001d0: 5c32 aa3e 373c c53e 7bfa b53e 4f9c 533d
000001e0: 20a7 61bf 7bc4 3dbf 7461 6fbf 7030 183e
000001f0: eee8 193d 341a c53e 40af 7abf 821a 97bf
00000200: 9544 9dbe f0bf aabe 2d3e 183f b028 37bf
00000210: f7a6 ebbe d2c8 7abf 0cb7 8ebe 5318 16bf
00000220: 4ec9 3dbf f3e7 74bf 779c 6ebf e5b9 3dbf
00000230: 2e0e 43bf d4cf 9dbe 77a7 b13e f0ec dcbe
00000240: 5abb dcbe f52e 8ebf d0b4 373f 3bf6 cbbf
00000250: f21a 00bf 023e 0dbf 6850 39bf 5d56 24be
00000260: a80f 87bf 85c1 1a3f be7f a13f 3e0a 84be
00000270: 1bb0 dc3e 4111 4d3f 7185 36bf 2fb7 18bf
00000280: 3bca 3fbf 3249 42bf 2e2e 53bf f391 11bf
00000290: 27d0 b9be 01ec 32bf a260 96be 43d9 a4bd
000002a0: ddc0 163d 3b7d 8dbf 0a92 3e3e 67a6 07bf
000002b0: c6c2 ffbe 34e7 e93e 47b0 78bf 0c3d 993e
000002c0: 6078 263f fc3b 75be 7518 e53d ff43 84bd
000002d0: 5e5d 083f d43e ecbf ed80 20bf 4770 cfbe
000002e0: 95c1 1ebd 1265 1dbf 78d8 49bf ba62 10bf
000002f0: 0416 18bf fe84 0abe a53f 5fbc 435f 4a3d
00000300: 780b ae3d c860 2740 1540 17c0 5de1 02bf
00000310: 225a e3be 5678 0f3f ff05 6abf b5b6 00be
00000320: 6333 67bf 0b9b 8e3e 1416 b4be e5e1 a33d
00000330: 475c 2fbe a0c2 b33d 8a18 b8be f619 04be
00000340: cfe9 efbe efbc 70be c9f5 953e 4dc7 a43e
00000350: 661b 273f f8d2 883e aa23 303e 270c b03d
00000360: c21f 0b3e 3585 fcbf ffbf 0740 fa9e 10bf
00000370: 60a5 e1be e09b 043e 9cb1 c4be 6b42 cebe
00000380: 6a22 373f 6aa8 5e3e 1383 2ebf 8fae 88be
00000390: 3312 283d d29f 7b3f d3c5 b6be f551 abbe
000003a0: 5778 b2be c3ce 923d 61de 653e f7d9 2fbf
000003b0: 784f 72bf 7735 a8bf 365a 0ebf b971 c93d
000003c0: 09a8 83be 0208 28bc 5016 79bf a52d 0fbf
000003d0: 54a8 6b3f ad2a c2be f6c0 47bf 8dee 0ebe
000003e0: 8c78 ebbd a8bd 9c3b 5d2b 93be 026e ad3e
000003f0: 214e 0e3d 55fa 113e cb1c 37be f825 8abf

net.0.bias f4 [256]
-0.27121353 0.7026003 -0.8714907 0.030595733 -0.49620098 -0.53662145 0.045587253 -0.028293964
-0.8285254 -0.54788846 0.5294334 0.031729136 0.21891743 -0.48678502 -0.84716874 0.025731912
0.1502114 0.37684134 -0.92582726 -0.05272239 0.11409494 -0.2745639 -0.07695026 -0.6199296
-0.20294414 -0.868627 0.7306701 -0.34553728 -0.8362768 -0.3753737 -0.51618934 0.09434864
0.13927442 -0.45417953 -0.1395132 -0.54878783 -0.8726457 0.11709595 -0.97179896 -0.40263298
-0.01741766 -0.7037274 -0.3934554 -0.19272938 -0.8597619 -0.23286703 -0.046941184 -0.4767439
0.2836927 0.19873844 -0.22733298 -0.13166581 -0.3712519 -0.4747992 0.20115155 -0.0639585
-0.24666822 -0.37748006 -0.45583808 0.37248462 0.04996041 -0.017836548 -0.21642424 -0.6878921
0.47933593 0.036971327 -0.061559822 0.012239511 -0.4033907 -0.1527559 -0.6136664 -0.8298436
-0.51999927 -0.13340513 -0.30127805 -0.08067236 -0.048073407 0.2201495 -0.22349672 -0.34130192
-0.1572869 -0.25781938 -0.6453723 -0.4187174 -0.17680435 -0.53450793 -0.3068481 -0.45176128
-0.44237518 -0.44273618 -0.10530289 -0.06836576 -0.24595094 -0.5633687 -0.57522106 -0.2812137
-0.1961532 -0.49703938 0.28297538 -0.030551737 0.3262016 -0.2736506 -0.5356772 -0.06214428
-0.41732445 0.5211774 -0.14527915 -0.42153767 0.08423157 -0.3552716 -0.7492124 -0.19219027
-0.4847409 -0.22446759 -0.1684079 0.40229896 0.25424406 -0.2519736 -0.7493714 0.29569843
-0.47305202 0.13459226 0.24320453 0.42457932 -0.2743823 -0.19864744 0.26158538 -0.18898949
-0.47992945 -0.8080724 -0.79523087 0.047399357 0.1196402 0.03216896 0.72018605 -0.33601514
-0.2507867 -0.3747283 0.49991107 -0.047739524 -0.110860646 -0.534335 0.061344717 -0.373629
0.49781805 -0.28031412 0.08057028 -0.34898862 -0.20738196 -0.16176686 -0.515734 0.3059913
0.39718068 -0.09060163 0.058717515 -0.34956518 -0.06738991 -0.8567435 -0.52212375 0.7761389
-0.93493766 -0.3487427 -0.0720795 -0.35906008 -0.8237063 0.25761288 -0.14152507 -0.095538236
-0.044840243 0.005465718 -1.0868165 -0.25669393 -0.45994958 -0.2302919 -0.43409583 -1.3159139
-0.247026 0.29197094 0.32978228 0.1666966 -0.24810816 -0.005296787 -0.013747007 0.06877851
0.31087178 -0.50227994 -0.22634557 -0.41545758 -0.35394964 -0.013504845 0.6835739 -0.14774248
-0.69260776 -0.52303284 0.7328526 -0.032037925 -0.74607396 0.2869378 -0.037442047 -0.34051272
-0.17113192 -0.43534458 0.018250687 -0.44225016 0.5551216 -0.1514064 -0.3798332 0.23317415
-0.4850874 -0.24241753 -0.8041702 -0.020692851 -0.22965355 0.08370559 0.040458236 -0.7447874
-0.14173898 -0.18003641 0.1275647 -0.62442344 -0.13570967 -0.3834789 0.48008528 -0.2870195
0.006435778 -0.784159 -0.0052526454 0.2579885 -0.21878405 -0.3395946 0.0988066 0.8359434
-0.5406161 -0.61922306 0.08971113 0.5071443 -0.57851833 -0.5923206 -0.15496394 0.05929414
0.058481466 -0.2464945 0.5458143 -0.22756276 -0.5296963 0.27617836 0.15775321 -0.4282561
-0.7067296 -0.09015961 -0.15199527 -0.6442614 0.21992153 0.07238494 0.12802817 0.110061824
00000000: 80dc 8abe 9ddd 333f 041a 5fbf e7a3 fa3c
00000010: 0e0e febe 0660 09bf b3b9 3a3d bec8 e7bc
00000020: 3e1a 54bf 6b42 0cbf f388 073f 69f6 013d
00000030: e42b 603e e33b f9be 0de0 58bf bbcb d23c
00000040: 04d1 193e 59f1 c03e 0403 6dbf 6ff3 57bd
00000050: 9caa e93d a493 8cbe 1998 9dbd b5b3 1ebf
00000060: 97d0 4fbe 575e 5ebf 320d 3b3f 43ea b0be
00000070: 3d16 56bf fb30 c0be fc24 04bf dc39 c13d
00000080: f49d 0e3e 388a e8be 8cdc 0ebe 5c7d 0cbf
00000090: b565 5fbf 00d0 ef3d d1c7 78bf e925 cebe
000000a0: 7baf 8ebc 7b27 34bf fc72 c9be da5a 45be
000000b0: 5b19 5cbf b274 6ebe 6645 40bd c717 f4be
000000c0: 2b40 913e 1782 4b3e fac9 68be 67d3 06be
000000d0: bb14 bebe e118 f3be acfa 4d3e adfc 82bd
000000e0: 9896 7cbe 1145 c1be 9c63 e9be 4eb6 be3e
000000f0: 49a3 4c3d f41d 92bc 519e 5dbe b219 30bf
00000100: 856b f53e 3f6f 173d 2726 7cbd 3b88 483c
00000110: 3a89 cebe 0b6c 1cbe 3e19 1dbf a170 54bf
00000120: ac1e 05bf 5b9b 08be 1e41 9abe 8d37 a5bd
00000130: 9fe8 44bd df6e 613e 53dc 64be 20bf aebe
00000140: d10f 21be e700 84be 1e37 25bf 2162 d6be
00000150: 330c 35be 83d5 08bf 321b 9dbe 414d e7be
00000160: 007f e2be 51ae e2be 0ba9 d7bd 5903 8cbd
00000170: 90da 7bbe ee38 10bf b041 13bf 3efb 8fbe
00000180: 62dc 48be f27b febe 26e2 903e a347 fabc
00000190: e503 a73e ee1b 8cbe 2422 09bf 008b 7ebd
000001a0: 8dab d5be e26b 053f 0fc4 14be c9d3 d7be
000001b0: 9a81 ac3d 29e6 b5be 62cc 3fbf 87cd 44be
000001c0: f62f f8be d5da 65be 1f73 2cbe 21fa cd3e
000001d0: 472c 823e af02 81be ced6 3fbf c965 973e
000001e0: e033 f2be 8ed2 093e 9c0a 793e 7662 d93e
000001f0: d67b 8cbe 3c6a 4bbe 85ee 853e 7686 41be
00000200: 50b9 f5be d5dd 4ebf 4094 4bbf d425 423d
00000210: ec05 f53d 99c3 033d 1d5e 383f 2d0a acbe
00000220: 1d67 80be 63dc bfbe 58f4 ff3e 858a 43bd
00000230: e80a e3bd 2eca 08bf 9944 7b3d 4d4c bfbe
00000240: 02e2 fe3e 5585 8fbe 0802 a53d a3ae b2be
00000250: f05b 54be 36a6 25be 2507 04bf e4aa 9c3e
00000260: 445b cb3e 598d b9bd c781 703d 35fa b2be
00000270: b903 8abd 8b53 5bbf e7a9 05bf 0ab1 463f
00000280: 1358 6fbf 678e b2be 6b9e 93bd b9d6 b7be
00000290: 6bde 52bf d6e5 833e f3eb 10be 8da9 c3bd
000002a0: 67aa 37bd c419 b33b ce1c 8bbf 636d 83be
000002b0: 837e ebbe a4d1 6bbe cf41 debe de6f a8bf
000002c0: 62f4 7cbe 377d 953e 39d9 a83e 83b2 2a3e
000002d0: 1110 7ebe ab90 adbb 203b 61bc bfdb 8c3d
000002e0: 962a 9f3e 6b95 00bf 22c7 67be dbb6 d4be
000002f0: e338 b5be 6d43 5dbc b3fe 2e3f ce49 17be
00000300: be4e 31bf 7be5 05bf 3a9c 3b3f 333a 03bd
00000310: b4fe 3ebf 83e9 923e d55c 19bd af57 aebe
00000320: 353d 2fbe 7ce5 debe 7782 953c 9d6e e2be
00000330: 731c 0e3f 480a 1bbe 7f79 c2be 34c5 6e3e
00000340: 605d f8be 4d3c 78be 19de 4dbf 0e84 a9bc
00000350: 4d2a 6bbe d66d ab3d 89b7 253d 63aa 3ebf
00000360: 0624 11be 775b 38be 52a0 023e 37da 1fbf
00000370: 7af7 0abe 5957 c4be bdcd f53e 38f4 92be
00000380: 38e3 d23b a5be 48bf 621e acbb 1217 843e
00000390: ed08 60be 58df adbe 1d5b ca3d 6300 563f
000003a0: d165 0abf 6785 1ebf 78ba b73d 35d4 013f
000003b0: c719 14bf 53a2 17bf deae 1ebe 6ade 723d
000003c0: 438a 6f3d 0e69 7cbe 7cba 0b3f 3606 69be
000003d0: 2d9a 07bf 4067 8d3e 0f8a 213e 6244 dbbe
000003e0: 3bec 34bf 9aa5 b8bd a6a4 1bbe 51ee 24bf
000003f0: 1c33 613e 8e3e 943d d119 033e 1868 e13d

net.2.weight f4 [256, 256]
-0.014268825 -0.09465645 -0.29030332 0.0007698903 -2.3441792 1.1066097 -1.0448796 -0.21302411
0.45396823 -0.4611458 -1.0277828 -0.8845001 -0.09760791 -0.7955328 -0.29951233 -0.92963904
-0.37355158 0.0017105816 -0.37110358 -0.4509283 -0.6777715 -0.09244788 0.0656127 0.48261333
-0.4716371 -0.17287053 -0.107326105 -0.43149313 -2.5780501 0.5526713 -1.3633865 0.47375718
-0.15391213 -0.93890244 0.4804245 0.49854368 -0.2829083 -1.4528836 -0.08369423 0.4259649
0.08629119 -0.6002799 0.22057575 -0.3073902 -0.110844694 0.06937366 0.45331547 -1.781757
0.78164107 0.1315673 0.03702359 -0.691599 0.4798048 0.14171855 -0.35374522 -0.76294655
-0.05307941 -0.88110495 0.7580378 -0.14081743 -0.35414088 1.5908867 0.52309585 -0.58090055
-0.005337832 0.46652043 -0.95936817 -0.066408515 -0.99845684 -0.044803403 0.32394904 -1.5328592
-0.67356175 0.1446814 -0.3548905 -1.532726 0.40118766 0.91102535 -0.1318865 -1.4651966
0.35227394 -0.1924951 0.18399878 -0.8597778 -0.056494012 -0.7733439 -1.5775009 0.84232396
0.7269662 -0.038339753 -1.2239435 -1.4910344 -0.5290976 -1.6133363 -0.31504032 -0.042808846
-0.29781047 0.36596954 -0.103428654 0.010831609 -0.77336115 0.6479788 -1.9881243 -0.45446247
-0.10126971 0.109201774 0.45019123 -0.6058384 0.5718644 -0.01324482 -0.6418174 0.061617672
0.3323859 -2.0298436 0.40985644 0.19748259 -0.45902824 0.024395691 -0.21097039 0.55117446
0.38382804 0.017371003 -1.8779095 0.16853537 -0.01303771 0.64734924 -1.2218779 -0.6570576
-1.728755 -0.41197953 -0.49654952 -0.18086427 -0.2994737 0.78215766 0.34471947 -0.94529676
-0.18543145 -1.4112545 -0.3573208 0.547744 -0.27258876 -0.39110276 -0.6017147 -0.32974574
-1.3767195 -0.20525488 -0.18391441 1.0801818 0.4477846 0.122813515 -1.6323203 -0.37308604
-0.23374611 0.73933446 0.34657848 -0.932171 0.8698849 -0.79668015 -1.0382576 0.6808468
0.45688105 -1.2588272 0.67097884 -0.69918513 -1.7968754 -0.55306107 -0.31440014 -0.35725206
-0.8730677 -1.0299531 -0.2169865 -1.1562289 -0.63565636 -0.056077078 -0.10673018 -1.9780014
-1.7338563 0.3740408 -0.60486686 0.72836334 -0.6133215 -0.71963245 -1.0873884 -1.1253798
0.7908143 -0.03464297 0.48525363 -0.7534516 -0.5475421 -0.5372148 -0.3447218 0.26023653
-1.3258225 0.025386447 -0.5341413 -0.5913376 -0.071512334 -1.302228 0.052740723 -0.25774765
0.40205306 0.5235513 -0.567105 -0.60342664 -0.36056975 0.2975055 0.1976004 -1.5937207
-0.096317634 -0.15792184 -0.2525514 -0.5043769 -0.9064699 0.35601702 -0.0046896394 -0.58856624
-0.24290948 -0.12168792 -1.0206325 -0.12709218 0.35966787 -0.47100094 -0.33160636 -0.19295643
0.3973291 0.6311968 -0.67161584 0.3062588 0.030404167 -1.445812 0.42060786 0.825588
0.31083494 0.054516908 0.22767699 -0.4205435 0.24046138 1.2923411 -0.46509984 0.050730024
-1.1400082 0.07521991 -0.4946036 0.34448853 -0.06885506 -0.86432755 -0.23658596 -1.8367703
-0.47683734 -0.2107974 -0.39133793 -0.02462239 -1.2239006 -0.8460914 -0.3573006 0.5778888
00000000: cac7 69bc 3edb c1bd a3a2 94be 77d2 493a
00000010: 0807 16c0 63a5 8d3f 9dbe 85bf fe22 5abe
00000020: 866e e83e 4d1b ecbe 638e 83bf 996e 62bf
00000030: a8e6 c7bd 0aa8 4bbf ae59 99be d3fc 6dbf
00000040: 2742 bfbe 9835 e03a 4a01 bebe 13e0 e6be
00000050: 6f82 2dbf 5055 bdbd f45f 863d 1819 f73e
00000060: 6b7a f1be f904 31be cacd dbbd abec dcbe
00000070: c6fe 24c0 de7b 0d3f 7383 aebf 4d90 f23e
00000080: 249b 1dbe e95b 70bf 33fa f53e 1e41 ff3e
00000090: 5bd9 90be 17f8 b9bf e167 abbd 1218 da3e
000000a0: 6fb9 b03d f2ab 19bf 9cde 613e 4062 9dbe
000000b0: 8b02 e3bd c713 8e3d f718 e83e 9d10 e4bf
000000c0: a119 483f 94b9 063e 0ca6 173d a20c 31bf
000000d0: faa8 f53e ab1e 113e 181e b5be 7750 43bf
000000e0: cc69 59bd 1890 61bf c40e 423f 7232 10be
000000f0: f451 b5be 2da2 cb3f 9ce9 053f e6b5 14bf
00000100: fbe8 aebb c4db ee3e 2799 75bf 3001 88bd
00000110: de9a 7fbf c683 37bd a6dc a53e bb34 c4bf
00000120: 8b6e 2cbf 5c27 143e 35b4 b5be 5e30 c4bf
00000130: 7868 cd3e f538 693f 410d 07be 908b bbbf
00000140: 405d b43e 6f1d 45be 2d6a 3c3e 661a 5cbf
00000150: 4466 67bd def9 45bf 8deb c9bf 8ba2 573f
00000160: 751a 3a3f 250a 1dbd 2eaa 9cbf 37da bebf
00000170: f172 07bf ce81 cebf f74c a1be 5458 2fbd
00000180: 9d7a 98be 5c60 bb3e 67d2 d3bd 1077 313c
00000190: fffa 45bf f0e1 253f db7a febf 4eaf e8be
000001a0: 7e66 cfbd 2ea5 df3d 777f e63e 3a18 1bbf
000001b0: b565 123f cd00 59bc 254e 24bf d062 7c3d
000001c0: 7c2e aa3e f5e8 01c0 b4d8 d13e e038 4a3e
000001d0: c005 ebbe 79d9 c73c 9f08 58be c519 0d3f
000001e0: 1c85 c43e a24d 8e3c 575f f0bf 8994 2c3e
000001f0: 1f9c 55bc aeb8 253f 7f66 9cbf ed34 28bf
00000200: d847 ddbf fbee d2be bd3b febe 7c34 39be
00000210: 9e54 99be 7c3b 483f 127f b03e f8fe 71bf
00000220: bee1 3dbe fda3 b4bf c0f2 b6be f338 0c3f
00000230: c190 8bbe 9f3e c8be f909 1abf 6fd4 a8be
00000240: 5838 b0bf 562e 52be 0f54 3cbe 6643 8a3f
00000250: 0644 e53e a785 fb3d dfef d0bf 2205 bfbe
00000260: 245b 6fbe 0645 3d3f bc72 b13e c2a2 6ebf
00000270: c7b0 5e3f 3bf3 4bbf a0e5 84bf fa4b 2e3f
00000280: 50ec e93e 4021 a1bf 45c5 2b3f ccfd 32bf
00000290: 0300 e6bf 6995 0dbf 0ef9 a0be bee9 b6be
000002a0: 5d81 5fbf 81d5 83bf b631 5ebe 4fff 93bf
000002b0: 60ba 22bf 14b1 65bd 5a95 dabd 262f fdbf
000002c0: 01ef ddbf 4782 bf3e 8ed8 1abf 0576 3a3f
000002d0: a302 1dbf d539 38bf 8b2f 8bbf 720c 90bf
000002e0: ce72 4a3f c9e5 0dbd 2a73 f83e 34e2 40bf
000002f0: b82b 0cbf e986 09bf 607f b0be b93d 853e
00000300: 8db4 a9bf 3df7 cf3c 7cbd 08bf e761 17bf
00000310: 0f75 92bd 68af a6bf a806 583d 80f7 83be
00000320: e6d9 cd3e 7507 063f cb2d 11bf 2b7a 1abf
00000330: 999c b8be a452 983e c257 4a3e 0aff cbbf
00000340: 2e42 c5bd 43b6 21be 6b4e 81be d81e 01bf
00000350: 690e 68bf dd47 b63e 8cab 99bb 47ac 16bf
00000360: 43bd 78be 8437 f9bd 16a4 82bf 7424 02be
00000370: 6326 b83e 0927 f1be 4fc8 a9be 5f96 45be
00000380: b86e cb3e 1d96 213f 04ef 2bbf f4cd 9c3e
00000390: 2912 f93c 5e10 b9bf ea59 d73e bc59 533f
000003a0: c225 9f3e 1f4d 5f3d 2824 693e 7a51 d7be
000003b0: 823b 763e 6f6b a53f 9121 eebe 49ca 4f3d
000003c0: caeb 91bf e50c 9a3d af3c fdbe cd60 b03e
000003d0: e203 8dbd 9244 5dbf 9743 72be 4a1b ebbf
000003e0: 0624 f4be 46db 57be 725d c8be e5b4 c9bc
000003f0: c6a8 9cbf 7299 58bf 1bf0 b6be 85f0 133f

net.2.bias f4 [256]
0.00034529914 0.6744254 -0.48520672 0.0642739 -0.13638735 -0.113399275 0.31673124 -0.29625246
-0.57605654 -0.075636916 -0.09247777 -0.674069 -0.09903125 -0.9965446 -1.1987045 -0.6592525
0.85089594 -0.61554074 -0.08965568 -1.2480748 -0.04842607 0.8257128 -0.35016903 -0.046974696
-0.069268435 -0.7610249 0.011045156 -0.82608217 -0.7203511 -0.1493079 -0.12002969 -0.7540394
-1.01199 -0.58736694 -0.31427833 -0.8184441 -0.039461255 -0.06217669 -0.30086797 0.033999123
-0.088443205 -0.13728186 0.41032454 -0.17378463 -1.0197597 1.5207793 -0.7078023 -0.054729097
0.24588625 -0.49563336 0.09597015 0.5854915 0.06887257 -0.15071672 -0.09216467 -0.07347405
-0.20380487 -0.6734331 -0.78921086 -0.11710067 0.1765434 -0.26952773 0.53989637 -0.10035073
0.31330442 0.056661937 -0.14185478 0.17644863 -0.27888665 -0.0848362 -0.043985706 -0.40953818
0.03684484 0.12710632 -0.3929825 -0.6875619 0.37352064 -0.65918154 -0.3964784 -0.15057366
-1.2205746 0.32595292 -0.09988815 0.8835748 -0.019319355 -0.39032835 -0.19010869 0.055296093
-1.0347456 -0.6924757 -0.09938574 -0.66492766 -0.07096617 -0.18082555 0.5791246 0.12615363
1.0076241 0.43872175 -0.33387417 0.15542227 -0.1024197 0.67280906 -0.14426032 -0.44980806
-0.12643455 -0.1214304 -0.094863795 0.95222825 -0.09693586 -0.17197517 -0.09905521 -0.4687223
0.7205626 -0.10674703 -1.2261007 0.57251525 0.018769091 0.41880795 -0.24385029 0.3806266
-0.044387557 -0.050192095 1.0212244 -0.2246224 -0.2635871 0.23184922 -0.9498445 0.19148345
-0.13876402 -0.43012658 -0.12347633 0.26268208 0.7735167 0.07398179 -0.1343917 -0.03959525
-0.047499422 -0.17823198 -0.21222292 -0.11878866 -0.7193741 -0.34085888 -0.1455004 -0.8462867
0.2673108 0.055942915 0.76259106 -1.0683056 0.032478996 -1.125189 -0.067260474 -0.12610152
-0.22528519 -0.13054766 -0.032954834 -0.07502623 -0.08213621 -0.496508 -0.5199533 -0.21156916
-0.25183162 0.7668888 -0.112964794 -0.39453185 0.10273618 0.413279 0.07606258 -0.518911
0.15644778 -0.28104347 -0.1631496 -0.051703583 0.17640072 -0.6872872 -0.13960537 -0.102777354
-0.23630205 -0.6966023 -0.21914896 -0.30628595 -0.5840502 0.7205218 -0.019934444 -0.25745893
0.2181387 0.1823356 -0.19119553 -0.11660668 -0.0147319855 -0.75301564 0.18869163 1.2430689
-0.7318754 -0.10438514 -0.56289953 -0.2751174 -0.3239745 0.25838894 -0.15561934 0.11125376
0.10376957 -0.078048 1.0173563 -0.2228301 -0.22071111 -0.33131856 1.3164232 -0.1258163
0.27579954 -0.026122915 -0.10299041 0.021178387 1.2196292 0.12722953 -0.4597039 0.15522346
-0.17228262 -0.47144666 -0.060687393 -0.39575464 -0.1611177 -0.07330518 -0.5836193 0.1598207
-0.20708208 -0.52995974 0.2683166 -0.08008558 0.06862503 0.05529984 0.41412792 0.65713644
0.2676932 0.3259109 -0.66648066 -0.56817126 -0.06766907 -0.36282074 0.09116307 0.1863198
-0.10832908 0.6129817 -0.572366 -0.81933385 -0.049937718 -0.06926452 -0.31674966 0.042019352
-0.7519366 -0.06994773 0.3037322 0.08751864 0.1647875 -0.0890881 -0.102739826 -0.03900207
00000000: 4409 b539 25a7 2c3f 046d f8be 09a2 833d
00000010: 20a9 0bbe e13d e8bd 992a a23e 67ae 97be
00000020: 7178 13bf 87e7 9abd fc64 bdbd c98f 2cbf
00000030: e5d0 cabd 8c1d 7fbf 266f 99bf c6c4 28bf
00000040: 51d4 593f 1494 1dbf 669d b7bd eac0 9fbf
00000050: 6a5a 46bd ea61 533f 5b49 b3be 8a68 40bd
00000060: 9cdc 8dbd 87d2 42bf bef6 343c 1f7a 53bf
00000070: ee68 38bf 2ce4 18be 20d2 f5bd ba08 41bf
00000080: e388 81bf ae5d 16bf 17e9 a0be 8d85 51bf
00000090: 20a2 21bd fcac 7ebd 5e0b 9abe aa42 0b3d
000000a0: b621 b5bd 9e93 0cbe 0f16 d23e 99f4 31be
000000b0: 7c87 82bf e5a8 c23f 8832 35bf 9e2b 60bd
000000c0: 9bc9 7b3e a8c3 fdbe ff8b c43d c5e2 153f
000000d0: 100d 8d3d 7c55 1abe d5c0 bcbd 9079 96bd
000000e0: 39b2 50be 1d66 2cbf b909 4abf 7ad2 efbd
000000f0: cbc7 343e 8aff 89be a636 0a3f af84 cdbd
00000100: 7069 a03e 5916 683d 6142 11be f3ae 343e
00000110: 3bca 8ebe 9abe adbd 5b2a 34bd fdae d1be
00000120: 9dea 163d 2928 023e 0135 c9be 0f04 30bf
00000130: 193e bf3e 1fc0 28bf 38ff cabe fb2f 1abe
00000140: ca3b 9cbf 4de3 a63e 2992 ccbd f531 623f
00000150: a043 9ebc 1ed9 c7be daab 42be 287e 623d
00000160: 8b72 84bf 1646 31bf c08a cbbd b338 2abf
00000170: b656 91bd 552a 39be 8341 143f 6b2e 013e
00000180: d4f9 803f 23a0 e03e 8ef1 aabe 0427 1f3e
00000190: 6bc1 d1bd 373d 2c3f fab8 13be 3e4d e6be
000001a0: 0f78 01be 80b0 f8bd f347 c2bd 3bc5 733f
000001b0: 4f86 c6bd 421a 30be 75dd cabd 5ffc efbe
000001c0: ca76 383f 309e dabd def0 9cbf 5c90 123f
000001d0: a3c1 993c ff6d d63e e4b3 79be 7de1 c23e
000001e0: bacf 35bd 3a96 4dbd 7bb7 823f 6a03 66be
000001f0: e3f4 86be e269 6d3e 0229 73bf 3d14 443e
00000200: 2818 0ebe 8d39 dcbe 28e1 fcbd 447e 863e
00000210: 3105 463f c483 973d fa9d 09be a12e 22bd
00000220: c18e 42bd 7282 36be f750 59be 7847 f3bd
00000230: e728 38bf 0e85 aebe 0ffe 14be 3fa6 58bf
00000240: f6dc 883e 6624 653d 2b39 433f 3dbe 88bf
00000250: b208 053d 3106 90bf dcbf 89bd c220 01be
00000260: 29b1 66be 49ae 05be a6fb 06bd 5aa7 99bd
00000270: 0737 a8bd 4c36 febe a91b 05bf 96a5 58be
00000280: 13f0 80be d352 443f 165a e7bd 1400 cabe
00000290: 5967 d23d 4e99 d33e b3c6 9b3d 5ad7 04bf
000002a0: d933 203e eee4 8fbe b010 27be 23c7 53bd
000002b0: 64a2 343e 0ef2 2fbf b6f4 0ebe ef7c d2bd
000002c0: 2af9 71be 8754 32bf 9668 60be 83d1 9cbe
000002d0: 5084 15bf 1e74 383f 8f4d a3bc a8d1 83be
000002e0: c05f 5f3e 2fb6 3a3e c3c8 43be 7ccf eebd
000002f0: 6d5e 71bc a2c5 40bf 6138 413e e21c 9f3f
00000300: 305c 3bbf e0c7 d5bd 2f1a 10bf 30dc 8cbe
00000310: fcdf a5be 8e4b 843e ad5a 1fbe 03d9 e33d
00000320: 2485 d43d a1d7 9fbd bb38 823f 932d 64be
00000330: 1802 62be 96a2 a9be 8e80 a83f fdd5 00be
00000340: 9935 8d3e b9ff d5bc a3ec d2bd 4c7e ad3c
00000350: cf1c 9c3f 7548 023e 4f5e ebbe e6f2 1e3e
00000360: db6a 30be 7561 f1be 5893 78bd 5aa0 cabe
00000370: 0afc 24be 0721 96bd 1368 15bf 0aa8 233e
00000380: 530d 54be 71ab 07bf cb60 893e e903 a4bd
00000390: 488b 8c3d 1682 623d 9308 d43e 183a 283f
000003a0: 150f 893e cbdd a63e 7a9e 2abf ac73 11bf
000003b0: 1596 8abd a4c3 b9be b4b3 ba3d 9eca 3e3e
000003c0: a3db ddbd 5eec 1c3f 9486 12bf ddbf 51bf
000003d0: 7e8b 4cbd 8fda 8dbd 032d a2be 7c1c 2c3d
000003e0: eb7e 40bf c140 8fbd c982 9b3e f93c b33d
000003f0: 0ebe 283e d273 b6bd 4269 d2bd a2c0 1fbd

mean.weight f4 [4, 256]
0.090385534 0.23429263 0.46172598 0.28743923 0.019966776 0.016353859 -0.08981908 -1.655404
0.040552963 -0.39813668 0.03511538 -0.20297304 -0.01579959 -0.12324527 -0.9211388 -0.51765555
-0.3340769 -0.2851759 -0.066090085 -1.4018744 0.02974038 0.5003674 0.29589528 -0.03440747
-0.11163969 0.5442554 -0.13503209 -0.37523994 -0.31882426 0.06751839 -0.019430172 -0.06922982
-1.6066937 0.006003074 -0.047845937 -0.053363677 -0.018614735 -0.07027215 -0.32511538 0.14423995
0.057569217 -0.048469115 0.28831944 -0.16710839 -0.17795028 -0.79016376 1.6643416 0.030248186
0.34368435 0.30154535 0.4595359 0.14029458 0.058171384 0.08904921 -0.97696406 0.0026380643
-0.21893214 -0.09210331 -0.028473077 0.027419157 0.09931691 0.057997327 0.14602026 -0.06567867
0.086177565 0.14682281 -0.90410566 0.064441755 0.49578875 0.28068906 0.25919122 0.20930988
-0.2551333 -0.39432853 0.18579069 -0.06567655 -0.06853622 -0.08961439 -0.11863786 0.0705333
-0.32104835 0.57807386 0.04209357 -1.2745543 -0.5685338 -0.0675588 0.18110831 -0.9861127
-0.03918598 0.15171424 0.20733204 0.12552698 -0.28825352 0.060830243 -0.34011143 0.14462516
-0.56083 0.29133457 -0.017155854 -0.37498918 -0.062543996 0.15473092 0.018797714 -0.9585411
0.33290344 0.075184315 0.026913404 -0.07475613 0.09793943 -0.016527738 -0.02925003 0.050619457
-0.3946914 0.040613003 -0.1329338 0.34055233 0.115233846 -0.1906195 -0.52786463 -0.03219765
-0.008718092 0.29019395 0.12770374 0.0818524 -1.0535644 0.6335084 -0.6456779 0.029030843
-0.009208789 0.14696816 -0.018722849 -0.41412473 -0.62077916 -0.08635069 -0.10824971 -0.053593036
0.045630947 -0.5804697 -0.16649224 -0.3551279 0.18418767 0.10111825 -0.015997507 -0.644385
0.7908934 0.5812807 -0.9750328 0.029575637 -0.18933925 -0.22655457 0.0554921 -0.028980661
0.18759462 0.0049195485 1.5999242 0.007828162 -0.0073068584 0.6282467 -0.5401897 0.112014964
0.50974745 -0.048608296 -0.014877142 -0.7952545 -0.4453905 -0.734569 1.5538573 0.25728005
-0.013280251 -0.41028288 -0.3163224 -0.039683472 -0.19088747 0.27203745 -0.07324727 0.018847799
-0.5259326 -0.5637923 0.0007798651 0.32385457 -0.061063137 -0.43251336 -0.034314174 0.064928316
-1.0230052 -0.1262346 -0.041855548 -0.01777945 -0.07072145 0.102804236 0.3635866 -0.049940974
-0.044648036 0.037124544 -0.11510696 -0.19739848 -0.6094229 0.03852121 0.5619867 0.973699
-0.019116992 0.0033790967 0.38209578 -0.801034 0.09746149 -0.3775827 -1.1173028 0.6765364
0.39593497 -0.041635286 -0.031920973 0.37784937 0.16976912 0.16208331 0.055150766 -0.07069074
-0.013127834 0.14077106 0.21742441 -0.20139912 -0.07959623 0.30625382 -0.48862544 1.6100001
-0.46192822 0.2678358 0.047790308 0.018789802 0.16548593 -0.23592295 0.12941995 0.06716483
0.10348743 0.4371698 0.23284405 -0.5282291 0.015385674 0.013502183 1.0564162 -0.033141285
0.01721896 -0.39455286 0.4225092 -0.08564227 0.049047917 0.25534332 0.17677665 -0.45715904
-0.36722776 0.06631285 0.3236035 -0.037325934 -0.148447 -0.00210293 -0.08283561 0.025710149
00000000: 0d1c b93d 68ea 6f3e 5967 ec3e 3c2b 933e
00000010: 5d91 a33c 87f8 853c 11f3 b7bd 47e4 d3bf
00000020: dd1a 263d 92d8 cbbe 25d5 0f3d 2ad8 4fbe
00000030: 246e 81bc 0468 fcbd c1cf 6bbf 1385 04bf
00000040: 210c abbe 9302 92be 3d5a 87bd 9f70 b3bf
00000050: 19a2 f33c 1418 003f 967f 973e d9ee 0cbd
00000060: 5aa3 e4bd 5254 0b3f da45 0abe 731f c0be
00000070: ef3c a3be 1547 8a3d 062c 9fbc 5dc8 8dbd
00000080: 24a8 cdbf 6fb5 c43b 1afa 43bd df93 5abd
00000090: ee7d 98bc d8ea 8fbd 8675 a6be a3b3 133e
000000a0: b3cd 6b3d 8d87 46bd 9b9e 933e 761e 2bbe
000000b0: 9938 36be 2c48 4abf 2509 d53f 0bcb f73c
000000c0: 65f7 af3e 2764 9a3e 4a48 eb3e 62a9 0f3e
000000d0: 1e45 6e3d 6f5f b63d 511a 7abf 60e3 2c3b
000000e0: bf2f 60be a9a0 bcbd 5f40 e9bc 249e e03c
000000f0: aa66 cb3d 9b8e 6d3d 5686 153e 8a82 86bd
00000100: dd7d b03d b858 163e 7873 67bf 0afa 833d
00000110: 06d8 fd3e 7ab6 8f3e b6b4 843e 5455 563e
00000120: d5a0 82be 6ee5 c9be ea3f 3e3e 6d81 86bd
00000130: b85c 8cbd c087 b7bd 68f8 f2bd c373 903d
00000140: 7360 a4be a6fc 133f 4f6a 2c3d 9824 a3bf
00000150: 6e8b 11bf 455c 8abd 7574 393e e271 7cbf
00000160: 7a81 20bd fa5a 1b3e da4e 543e 258a 003e
00000170: f795 93be 2229 793d 1623 aebe 9e18 143e
00000180: 8e92 0fbf ce29 953e 6f8a 8cbc 95fe bfbe
00000190: 1117 80bd c871 1e3e aafd 993c f362 75bf
000001a0: 5272 aa3e 3cfa 993d 8079 dc3c be19 99bd
000001b0: 7894 c83d 2e65 87bc c29d efbc 5956 4f3d
000001c0: fe14 cabe d259 263d cc1f 08be e05c ae3e
000001d0: b9ff eb3d c231 43be 2322 07bf afe1 03bd
000001e0: 54d6 0ebc 4d94 943e c5c4 023e 3ba2 a73d
000001f0: 33db 86bf 9b2d 223f 264b 25bf 17d2 ed3c
00000200: 76e0 16bc d27e 163e a960 99bc 2808 d4be
00000210: 62eb 1ebf a1d8 b0bd 06b2 ddbd 5f84 5bbd
00000220: 84e7 3a3d aa99 14bf f17c 2abe 53d3 b5be
00000230: b19b 3c3e 1617 cf3d 340d 83bc 6af6 24bf
00000240: fd77 4a3f d0ce 143f c09b 79bf 9b48 f23c
00000250: 26e2 41be ecfd 67be af4b 633d da68 edbc
00000260: ce18 403e 2a34 a13b 51ca cc3f b141 003c
00000270: 5f6e efbb c7d4 203f df49 0abf 1a68 e53d
00000280: cf7e 023f 7e19 47bd 42bf 73bc cd95 4bbf
00000290: 390a e4be b70c 3cbf cce4 c63f 36ba 833e
000002a0: 6995 59bc 9910 d2be 02f5 a1be 238b 22bd
000002b0: 0178 43be 7e48 8b3e aa02 96bd b366 9a3c
000002c0: 85a3 06bf b154 10bf dc6f 4c3a 44d0 a53e
000002d0: 571d 7abd 6472 ddbe 058d 0cbd 23f9 843d
000002e0: d6f1 82bf a543 01be b970 2bbd 36a6 91bc
000002f0: 68d6 90bd 078b d23d 0628 ba3e e88e 4cbd
00000300: dce0 36bd e80f 183d 33bd ebbd d422 4abe
00000310: 2403 1cbf 6bc8 1d3d 5cde 0f3f 5644 793f
00000320: 3d9b 9cbc d673 5d3b 0fa2 c33e 9010 4dbf
00000330: e499 c73d 8552 c1be c703 8fbf 7d31 2d3f
00000340: fdb7 ca3e c389 2abd 91bf 02bd 7975 c13e
00000350: f5d7 2d3e 2bf9 253e c5e5 613d 4fc6 90bd
00000360: 2016 57bc 4a26 103e 81a4 5e3e 923b 4ebe
00000370: 5903 a3bd 4dcd 9c3e 1d2d fabe 7c14 ce3f
00000380: db81 ecbe c621 893e c5bf 433d 12ed 993c
00000390: 2575 293e c995 71be aa86 043e b78d 893d
000003a0: 38f1 d33d b8d4 df3e ac6e 6e3e 063a 07bf
000003b0: 3214 7c3c 4338 5d3c a538 873f 28bf 07bd
000003c0: c70e 8d3c d502 cabe 2053 d83e 3765 afbd
000003d0: 78e6 483d 5cbc 823e f004 353e c010 eabe
000003e0: 4705 bcbe 08cf 873d 5caf a53e 14e3 18bd
000003f0: 7e02 18be 50d1 09bb b7a5 a9bd 179e d23c

mean.bias f4 [4]
-0.18600586 -0.25857702 -0.07998035 -0.20559849
00000000: 5278 3ebe 3564 84be bdcc a3bd 6988 52be

log_std.weight f4 [4, 256]
-0.11530781 0.041805364 0.33134225 -0.002806788 0.104740225 0.01864589 -0.090570405 0.7096891
-0.04833638 -0.015131542 0.051982384 -0.029953482 0.019663995 0.051793553 -0.013678104 0.19880874
0.055332832 0.15492454 0.14331229 0.297604 0.060773935 0.20006546 0.110386655 -0.10382846
0.046626512 0.25651065 0.053303163 -0.10516382 -0.0109574 0.008791699 0.023418501 -0.12877513
0.7818253 0.13787676 -0.06867163 -0.047938224 0.009578859 -0.011346964 0.08924629 0.09892188
-0.20182212 -0.018888438 0.04386452 0.026927216 0.095266774 0.15727732 0.26930767 -0.11680119
-0.15867922 0.007112836 0.23677127 0.13203949 -0.0354941 -0.12887485 0.42969695 -0.023264429
-0.07692134 -0.06925247 -0.08252155 -0.016871136 -0.15553315 0.042479135 0.020134445 0.03464238
-0.029327083 0.07450547 0.14752938 -0.09549316 0.043037068 0.16324823 1.1190037 0.24976504
0.06428252 0.048265412 0.07117009 0.012832331 -0.05072625 -0.020036047 -0.09078098 -0.02603175
-0.14812517 -0.15769482 0.03811234 0.12808742 0.20414415 -0.081956044 0.017679846 0.5925375
-0.047969606 0.3734209 0.06505808 0.38297218 0.28800434 0.22479564 0.11787411 0.031257328
-0.00936455 0.2824105 0.1325708 0.2541683 0.0031817455 0.04239311 0.042576447 0.19556575
-0.15631849 0.09578962 0.0201099 0.10218537 -0.020810304 0.045910534 0.09728931 0.05823909
0.13118525 0.043949876 -0.054097418 0.14221239 0.08198233 -0.049353104 0.13495968 -0.092761986
-0.0240106 0.10602989 0.14569832 -0.1484413 0.21309723 0.03138055 -0.031136915 -0.18308695
0.03551718 -0.0003753579 0.0070081414 -0.07154167 0.2583869 0.030875834 -0.12494323 0.05508555
0.013653374 0.1576413 0.01605809 0.055978127 0.05398349 -0.11484626 -0.014879816 0.3394029
-0.06291333 -0.103560865 0.15502015 -0.004898901 -0.03184411 -0.024387421 0.010896604 -0.002376003
-0.18385509 0.028762024 1.0052234 -0.010521542 -0.06008316 0.19560494 0.10691655 0.08621726
0.038885955 -0.172218 0.01691355 0.25682992 0.12603492 0.400916 -0.09861514 0.12949304
0.06216533 0.3316271 -0.0060071293 -0.0064571383 0.03728792 0.3655915 0.07931998 0.0033609192
0.29648644 0.3067496 0.03801451 0.0116280485 0.011931591 0.00010079866 -0.05828727 0.018410312
0.3170957 -0.069069006 0.04219199 0.080328554 -0.042922456 -0.06661015 0.06474261 -0.24787436
0.07265384 0.043649007 -0.2517053 0.2233322 0.5028549 0.017154988 0.0828402 -0.109676175
0.010568372 0.054978248 0.188975 0.57809037 -0.03561757 -0.23340501 0.22751135 0.06914603
-0.0051387227 -0.046957564 -0.04238267 0.1572284 -0.01159161 -0.04873917 0.16186292 -0.0056417114
-0.03301456 0.086438574 -0.00089127186 0.26871696 0.010243223 0.22655945 0.47067907 1.5125792
0.4229961 -0.06738998 0.045649603 0.02130846 0.04565015 0.05727246 0.028846247 0.16673642
0.031563044 -0.18243295 0.20168649 0.117597036 0.055924583 -0.14226998 0.24013236 0.044352256
-0.014429958 0.14442429 0.13252401 0.1336013 0.0017089233 -0.13343678 -0.031242546 0.13096465
0.24154633 -0.05203155 0.056782555 -0.025454288 -0.058745224 -0.04059913 0.0634113 0.07092447
00000000: 8026 ecbd 1a3c 2b3d b1a5 a93e 17f2 37bb
00000010: 0b82 d63d 44bf 983c fa7c b9bd 2fae 353f
00000020: 5efc 45bd 4aea 77bc 7beb 543d 0161 f5bc
00000030: 6316 a13c 7a25 543d 201a 60bc 8594 4b3e
00000040: aea4 623d 8aa4 1e3e 75c0 123e 8d5f 983e
00000050: 17ee 783d f6dd 4c3e 6612 e23d 04a4 d4bd
00000060: 71fb 3e3d 5d55 833e 6b54 5a3d 2160 d7bd
00000070: ab86 33bc 0f0b 103c 28d8 bf3c a1dd 03be
00000080: b425 483f 912f 0d3e b6a3 8cbd df5a 44bd
00000090: a6f0 1c3c 9ee8 39bc c2c6 b63d 8e97 ca3d
000000a0: 75aa 4ebe edbb 9abc 48ab 333d 7796 dc3c
000000b0: 3a1b c33d 4e0d 213e b2e2 893e 7635 efbd
000000c0: ce7c 22be cb12 e93b 2b74 723e 5c35 073e
000000d0: 4362 11bd c5f7 03be 3d01 dc3e 0b95 bebc
000000e0: ef88 9dbd 3dd4 8dbd 0f01 a9bd 5635 8abc
000000f0: 1544 1fbe 9afe 2d3d fef0 a43c 2be5 0d3d
00000100: 5a3f f0bc 5396 983d f111 173e eb91 c3bd
00000110: a347 303d 8b2a 273e 833b 8f3f 68c2 7f3e
00000120: 8ea6 833d f4b1 453d a0c1 913d b23e 523c
00000130: 54c6 4fbd a322 a4bc 61eb b9bd 8940 d5bc
00000140: 20ae 17be c07a 21be af1b 1c3d 5929 033e
00000150: 2a0b 513e 92d8 a7bd 53d5 903c 8ab0 173f
00000160: c77b 44bd 0631 bf3e 2c3d 853d ee14 c43e
00000170: 4e75 933e d430 663e fb67 f13d af07 003d
00000180: c56d 19bc 1c98 903e a4c0 073e 5922 823e
00000190: d584 503b 66a4 2d3d a464 2e3d 6342 483e
000001a0: f411 20be 592d c43d 84bd a43c 9046 d13d
000001b0: 5f7a aabc af0c 3c3d 9e3f c73d 1d8c 6e3d
000001c0: 6d55 063e c904 343d 4195 5dbd 20a0 113e
000001d0: 5ae6 a73d 7b26 4abd df32 0a3e fff9 bdbd
000001e0: e1b1 c4bc 3326 d93d f131 153e ff00 18be
000001f0: 2936 5a3e e488 003d d812 ffbc 257b 3bbe
00000200: 767a 113d afcb c4b9 8da4 e53b 7084 92bd
00000210: 4a4b 843e 51ef fc3c 3ce2 ffbd 63a1 613d
00000220: 67b2 5f3c b96c 213e 418c 833c 5249 653d
00000230: cb1d 5d3d 8434 ebbd 79ca 73bc 38c6 ad3e
00000240: b4d8 80bd b817 d4bd 9abd 1e3e f686 a0bb
00000250: f86e 02bd 21c8 c7bc ab87 323c b7b6 1bbb
00000260: 8244 3cbe 569e eb3c 29ab 803f 8c62 2cbc
00000270: c219 76bd a94c 483e 10f7 da3d ad92 b03d
00000280: e146 1f3d ea59 30be 498e 8a3c 367f 833e
00000290: 4c0f 013e dd44 cd3e bcf6 c9bd d399 043e
000002a0: 13a1 7e3d 07cb a93e 74d7 c4bb 6796 d3bb
000002b0: 38bb 183d cf2e bb3e 8472 a23d de42 5c3b
000002c0: 12cd 973e 490e 9d3e 1ab5 1b3d 9283 3e3c
000002d0: b87c 433c de63 d338 a2be 6ebd 39d1 963c
000002e0: 5e5a a23e 0d74 8dbd 82d1 2c3d 4c83 a43d
000002f0: 75cf 2fbd e76a 88bd c697 843d c7d2 7dbe
00000300: 89cb 943d 4dc9 323d 84df 80be 32b1 643e
00000310: 19bb 003f 9e88 8c3c 1fa8 a93d e79d e0bd
00000320: f726 2d3c df30 613d aa82 413e bbfd 133f
00000330: bbe3 11bd b901 6fbe bcf8 683e 6f9c 8d3d
00000340: bb62 a8bb 9356 40bd 7399 2dbd 7b00 213e
00000350: bcea 3dbc b9a2 47bd 65bf 253e 1bde b8bb
00000360: 463a 07bd b506 b13d 3ea4 69ba 4595 893e
00000370: 31d3 273c 33ff 673e d9fc f03e 329c c13f
00000380: f292 d83e c203 8abd 14fb 3a3d 148f ae3c
00000390: a7fb 3a3d 8796 6a3d f74e ec3c f4bc 2a3e
000003a0: 4048 013d b4cf 3abe e786 4e3e b7d6 f03d
000003b0: 2d11 653d 39af 11be 42e5 753e b6aa 353d
000003c0: a16b 6cbc f6e3 133e 60b4 073e c7ce 083e
000003d0: f3fd df3a a7a3 08be 5ef0 ffbc 991b 063e
000003e0: ec57 773e 091f 55bd d394 683d 8385 d0bc
000003f0: d59e 70bd 464b 26bd c9dd 813d d940 913d

log_std.bias f4 [4]
-2.0803964 -2.0338354 -2.034819 -2.0188367
00000000: 3725 05c0 5c2a 02c0 793a 02c0 9f34 01c0
