best_models/sac/normal/sac_actor_step_1000000.pth (torch, 300895 bytes, 8 tensors)

net.0.weight f4 [256, 24]
0	0x3f033ade	0.512617
1	0x405adb3c	3.419631
2	0xbf2555db	-0.6458413
3	0xbef760a6	-0.48315924
4	0xbed46f85	-0.41491333
5	0xbe687837	-0.22702108
6	0xbd1ec113	-0.03875835
7	0x3e0bf0b9	0.13666047
8	0xbe2324f1	-0.15932061
9	0x3f514447	0.8174481
10	0x3e624c62	0.2209945
11	0xbdbdd793	-0.09269633
12	0xbe12a73b	-0.14321606
13	0xbfc13640	-1.5094681
14	0xbce77780	-0.028255224
15	0x3d78e588	0.060765773
16	0x3e0e200a	0.1387941
17	0x3e4051e8	0.18781245
18	0xbd60ada4	-0.054853097
19	0x3cc1c5f5	0.023653964
20	0x3e5842f3	0.21119289
21	0x3eaa7c8a	0.3329814
22	0xbdaaff04	-0.083494216
23	0x3cced5df	0.025248466
24	0xbd09cdc0	-0.033643484
25	0xbeac7d6d	-0.33689442
26	0x3ec7ba69	0.39009407
27	0xbfce3678	-1.6110373
28	0x3dcc5373	0.09976854
29	0x3dc4acbd	0.0960326
30	0x3c99fef2	0.018798325
31	0xbd398102	-0.045289047
32	0x3ee0bc4a	0.43893653
33	0xbf80033a	-1.0000985
34	0xbdb8f0b6	-0.09030287
35	0xbcbb15a3	-0.022837466
36	0xbd96e683	-0.07368185
37	0x3eeec1bc	0.46632183
38	0xbea84c23	-0.32870588
39	0xbe9f4e81	-0.3111458
40	0xbec468df	-0.3836126
41	0xbef3bdb9	-0.47605684
42	0xbe9d7eb2	-0.30760723
43	0xbf00ed3e	-0.50362
44	0xbedf9b67	-0.4367325
45	0xbebd2ee1	-0.36949828
46	0xbc0ab97e	-0.008467076
47	0x3e1769a5	0.14786394
48	0x3d821f34	0.06353608
49	0x3e2b7a2b	0.16745822
50	0x3edee012	0.43530327
51	0x3fef10f6	1.8677051
52	0xbeb8103e	-0.35949892
53	0x3e535bec	0.20640534
54	0x3ec9a290	0.39381838
55	0xbe402c6c	-0.18766946
56	0xbec1b53d	-0.37833586
57	0xbec8cf24	-0.39220536
58	0x3d759c75	0.059963662
59	0xbe809208	-0.25111413
60	0xbe3f39b4	-0.18674356
61	0xbf66933c	-0.9006841
62	0x3d936d72	0.071986094
63	0x3e83daba	0.25752813
64	0x3e9e494d	0.309153
65	0x3e3437cf	0.17599414
66	0x3e546393	0.2074111
67	0x3e6ff945	0.23434933
68	0x3e8f22cc	0.27956235
69	0x3e9b55f6	0.3033902
70	0xbe2e811d	-0.1704144
71	0xbeb7f2bd	-0.35927382
72	0x3f435902	0.7630769
73	0x40b503ce	5.6567144
74	0xbf6f08d1	-0.9337283
75	0x3f851d3f	1.039955
76	0x3df97856	0.121811554
77	0x3df065d9	0.11738176
78	0xbe5e2fa4	-0.21697861
79	0xbde8c30c	-0.11365327
80	0x3d8a5c94	0.06755939
81	0xbd54f778	-0.051993817
82	0x3ce8d4ab	0.02842172
83	0x3a1e658a	0.0006042352
84	0x3e0ea8d9	0.13931598
85	0xbf8ca9f4	-1.0989366
86	0x3e826156	0.25464886
87	0x3e51af2d	0.2047698
88	0x3ec070d4	0.3758608
89	0x3e2be14a	0.1678516
90	0x3eb11274	0.3458439
91	0x3eac67c1	0.33672908
92	0x3eaf3337	0.3421876
93	0x3e81cc52	0.25351197
94	0xbe5289b2	-0.20560339
95	0xbee62b13	-0.44954738
96	0x3f04a778	0.5181804
97	0x3ff6cf5c	1.9282031
98	0xbfac03fb	-1.3438715
99	0xbfa4aaca	-1.2864621
100	0x3f1183ac	0.5684154
101	0x3ec3f6df	0.38274285
102	0xbed06b7b	-0.40707
103	0x3d357e6d	0.044310022
104	0x3e9d3492	0.3070417
105	0x3d2ca708	0.04215148
106	0xbf1fa6fb	-0.62364167
107	0xbeadf8b6	-0.33978814
108	0xbe300ac8	-0.17191613
109	0x3e3b683a	0.18301478
110	0xbe5c52c5	-0.21515949
111	0xbce24cfc	-0.0276246
112	0xbe944627	-0.28959772
113	0x3bf9b7b9	0.0076207784
114	0xbd3fdadd	-0.046839584
115	0xbeb4bb0c	-0.35298955
116	0xbe4b2811	-0.19839503
117	0xbd93b92e	-0.072130546
118	0xbdedc6fc	-0.11610219
119	0xbdc7e5da	-0.097606376
120	0x3e8056aa	0.2506612
121	0x3fbe36e8	1.4860506
122	0xbf8b872b	-1.0900625
123	0x3ffd6548	1.9796534
124	0xbe6ac220	-0.22925615
125	0x3e0a08d7	0.13479935
126	0xbe912792	-0.28350502
127	0xba86cdbe	-0.0010284705
128	0x3db83431	0.0899433
129	0xbeab4053	-0.33447513
130	0xbe16e499	-0.1473564
131	0x3ee6bf04	0.45067608
132	0xbd95dbba	-0.073173
133	0xbe82ed33	-0.25571594
134	0x3ea0ed1d	0.31430903
135	0x3e203b14	0.15647537
136	0x3e4480ce	0.1918976
137	0x3e2f19af	0.17099641
138	0x3e6b5ea9	0.22985329
139	0x3e9f159b	0.3107117
140	0x3ebf50d3	0.3736635
141	0x3eae35af	0.34025332
142	0x3e46b580	0.19405174
143	0xbe9cf409	-0.30654934
144	0xbe8e655a	-0.278117
145	0xbfa76355	-1.3077189
146	0x3eb9efaa	0.36315662
147	0xbecb4e81	-0.3970833
148	0xbd7b99cc	-0.06142597
149	0xbd71180b	-0.05886082
150	0xbeab9bb0	-0.33517218
151	0xbe85ae57	-0.26109573
152	0xbd5673a8	-0.052356392
153	0x3f0cebbd	0.5504721
154	0x3ece184c	0.40252912
155	0xbf276f28	-0.65403986
156	0x3df47f77	0.119383745
157	0xbe697e98	-0.22802198
158	0xbdb5bc3a	-0.08873792
159	0xbe03ae74	-0.12859517
160	0xbda32f63	-0.07968023
161	0xbda16a01	-0.07881547
162	0xbe579a20	-0.21054888
163	0xbe4032ce	-0.1876938
164	0xbd19d1ba	-0.037553526
165	0xbce08d1d	-0.027411038
166	0xbe230281	-0.15918924
167	0xbd835027	-0.06411772
168	0xbf012526	-0.5044731
169	0x3f372671	0.7154303
170	0x3e111a5b	0.1417021
171	0xbfeb5efd	-1.8388363
172	0x3f19a6bb	0.60020036
173	0x3dde5466	0.108559415
174	0xbe3965a6	-0.18105182
175	0x3d51d3d0	0.05122739
176	0x3c8af202	0.016961101
177	0xbec0dcc6	-0.37668437
178	0xbd2310f2	-0.039811082
179	0xbefc8e88	-0.49327493
180	0x3c2eefa3	0.010677251
181	0xbf86f783	-1.0544285
182	0xbe14035c	-0.14454406
183	0xbe7daee3	-0.24773745
184	0xbe606713	-0.2191432
185	0xbe862fa4	-0.26208222
186	0xbed02687	-0.40654394
187	0xbedf818b	-0.4365352
188	0xbf178e2c	-0.5920131
189	0xbe885573	-0.26627693
190	0x3e67f9f8	0.2265395
191	0x3e7ba2bd	0.24573798
192	0xbeab5767	-0.3346512
193	0xc000fae7	-2.0153139
194	0xbec393da	-0.3819874
195	0xbfb8bb3a	-1.4432137
196	0x3e6fc590	0.23415208
197	0xbe6b5662	-0.22982171
198	0xbd298aa0	-0.04139197
199	0x3d7f7cb3	0.06237478
200	0xbee95402	-0.45571905
201	0xbe1e3e1d	-0.15453382
202	0xbce99e55	-0.028517881
203	0xbef84157	-0.4848735
204	0x3db640ab	0.08899053
205	0x3f359b34	0.70939946
206	0xbe0074c3	-0.12544541
207	0x3db9283e	0.09040879
208	0xbcfeb437	-0.031091793
209	0xbdc4c54f	-0.09607946
210	0xbe0f7b27	-0.14011823
211	0xbe438f65	-0.1909767
212	0xbe0a12dc	-0.13483757
213	0xbe50bc5c	-0.20384353
214	0x3c2fa1fb	0.0107197715
215	0x3c1668b2	0.009180235
216	0xbeef1cc4	-0.46701634
217	0xbf9a0681	-1.2033235
218	0x3ed63739	0.41839007
219	0x3ecea567	0.40360567
220	0x3e354b39	0.17704476
221	0xbd1d3346	-0.038378976
222	0x3f3a8646	0.72861135
223	0x3df0c0b4	0.11755505
224	0x3ce9c7fd	0.028537745
225	0x3e3c0916	0.18362841
226	0x3ea280aa	0.31738788
227	0xbf025566	-0.5091156
228	0x3eb328cf	0.34992072
229	0xbfc503e7	-1.5391816
230	0xbd1d432f	-0.03839415
231	0x3de7d343	0.11319592
232	0xbd30e289	-0.04318479
233	0x3dd52493	0.104073666
234	0x3d541074	0.051773503
235	0xbe34bb77	-0.17649637
236	0x3dae04c1	0.084970005
237	0xbdb56b79	-0.088583894
238	0xbe1c2596	-0.15248713
239	0xbdc1b5a2	-0.09458472
240	0xbebe53b1	-0.37173226
241	0xbfc5eb39	-1.5462409
242	0x3e831ab0	0.25606298
243	0x3e809ce3	0.25119695
244	0x3e818627	0.25297663
245	0xbdb0f36a	-0.086401775
246	0x3eb1b78e	0.34710354
247	0xbf30a678	-0.6900401
248	0xbf781c28	-0.96917963
249	0xbdda1d02	-0.10650064
250	0xbd29d69e	-0.04146444
251	0x3ef95c85	0.487034
252	0x3ed58604	0.41703808
253	0xbe060ee5	-0.1309162
254	0xbea3c578	-0.31986594
255	0xbe824706	-0.25444812

net.0.bias f4 [256]
0	0xbe355d78	-0.17711437
1	0x3e2b46fb	0.16726296
2	0xbe5157ce	-0.20443651
3	0xbe7a8df1	-0.24468209
4	0xbe37a587	-0.17934237
5	0xbeedd38b	-0.46450457
6	0xbeb9fa14	-0.36323607
7	0x3e1a6e03	0.15081029
8	0xbe613feb	-0.21997039
9	0xbea25f2b	-0.31713232
10	0x3d92cf0b	0.071683966
11	0x3e311b3d	0.17295547
12	0x3d50394c	0.050835893
13	0xbefd0175	-0.49415174
14	0xbe3219de	-0.1739268
15	0xbd7817ab	-0.060569447
16	0x3db82345	0.08991102
17	0x3dcce4e1	0.10004593
18	0xbe477fd0	-0.1948235
19	0xbe58f022	-0.21185353
20	0x3be310e7	0.006929505
21	0xbe6feba8	-0.2342974
22	0xbeb72b91	-0.35775426
23	0xbed9d4ed	-0.42545262
24	0xbe8e4c2a	-0.27792484
25	0xbf16edef	-0.5895681
26	0x3ddcf95c	0.10789749
27	0xbe626c8d	-0.22111721
28	0xbebe5138	-0.3717134
29	0x3d43f888	0.04784444
30	0xbd8f9bd9	-0.070121475
31	0xbda5aad5	-0.08089224
32	0xbc43a37c	-0.011940833
33	0x3be3440c	0.006935602
34	0xbedd0709	-0.4316943
35	0x3d4f6779	0.05063579
36	0xbf00e044	-0.503422
37	0x3e818b37	0.25301525
38	0xbde5a566	-0.11213188
39	0x3dd665bb	0.10468622
40	0x3e23578a	0.15951362
41	0xbe88d99b	-0.2672852
42	0xbe00cf55	-0.12579091
43	0xbe89a167	-0.26880953
44	0xbe8514ca	-0.25992423
45	0xbd076f26	-0.033064984
46	0xbda8e8d1	-0.08247531
47	0xbe971760	-0.2951002
48	0x3d575aff	0.052577015
49	0xbdd3bd09	-0.1033879
50	0xbd67d42b	-0.056598824
51	0x3e407858	0.18795907
52	0xbe8cefd9	-0.2752674
53	0xbe9a0c92	-0.30087715
54	0xbdd81e59	-0.10552663
55	0xbdb1ba00	-0.08678055
56	0xbe877678	-0.26457572
57	0xbea01e54	-0.3127314
58	0xbf2ccb38	-0.6749759
59	0x3e4602ab	0.19336955
60	0xbbb8d4a8	-0.005640585
61	0xbe692e5d	-0.22771592
62	0xbe08317f	-0.13300131
63	0xbd64f463	-0.055897128
64	0x3a8e9ba6	0.0010880127
65	0xbcd021fe	-0.025406834
66	0xbe8985a1	-0.26859763
67	0xbd4fc9b9	-0.050729487
68	0xbe2f3d1a	-0.17113152
69	0xbcf95199	-0.030434417
70	0xbe117f5a	-0.14208737
71	0xbecddcba	-0.40207464
72	0xbe577ee8	-0.21044505
73	0xbe2d4d48	-0.16924012
74	0xbf2c3456	-0.6726736
75	0x3e41821a	0.18897286
76	0x3dc99351	0.098425515
77	0xbeb2c9f1	-0.34919694
78	0xbdec8726	-0.11549215
79	0xbdd30fa5	-0.10305718
80	0x3e3ae4c7	0.18251334
81	0xbea95b71	-0.33077577
82	0xbefba202	-0.4914704
83	0xbe5b6290	-0.21424317
84	0xbdab42b1	-0.0836233
85	0xbf0d1887	-0.5511555
86	0xbe5ef760	-0.21774054
87	0xbdb29130	-0.087190986
88	0xbd940dc5	-0.07229189
89	0xbe47f088	-0.19525349
90	0xbec8cd1b	-0.39218983
91	0x3c63daa2	0.013907107
92	0xbd5ddd94	-0.05416639
93	0xbe43b5ca	-0.19112316
94	0xbe0c81c3	-0.13721375
95	0x3bce1ab3	0.006289804
96	0x3dc9be83	0.0985079
97	0xbe6f3d12	-0.2336314
98	0x3e06ed48	0.13176453
99	0x3e54fc3b	0.20799343
100	0xbe048cae	-0.1294429
101	0xbe8e2668	-0.27763677
102	0xbe3d7185	-0.18500336
103	0xbd26057b	-0.04053257
104	0xbca832af	-0.02053198
105	0x3e964ef2	0.29357105
106	0x3e257f60	0.16161871
107	0xbec2da9b	-0.38057408
108	0x3cd6c6bc	0.02621781
109	0xbdd377c7	-0.1032558
110	0xbea28f7c	-0.31750095
111	0xbdfa3b8e	-0.122183904
112	0xbedbf508	-0.42960382
113	0xbe85a06d	-0.26098958
114	0xbe657c22	-0.22410634
115	0xbd0bfe94	-0.03417833
116	0x3e5bff7a	0.21484175
117	0xbea3e500	-0.3201065
118	0xbe2acbcf	-0.1667931
119	0xbc5d8ccb	-0.013522337
120	0xbea3f270	-0.32020903
121	0xbd3b667e	-0.04575204
122	0xbca28347	-0.019837989
123	0x3e1c0e22	0.15239766
124	0xbb8c0cca	-0.0042739855
125	0xbe0d08ce	-0.1377289
126	0x3e2fc26d	0.17164011
127	0xbdf99e70	-0.12188423
128	0xbe5d2f10	-0.21599984
129	0xbe060b15	-0.13090165
130	0xbefeb373	-0.49746284
131	0x3e3039e4	0.17209584
132	0xbe93c69c	-0.28862464
133	0x3eefef26	0.46862143
134	0x3df7fb29	0.12108452
135	0x3e304479	0.1721362
136	0x3c12deb4	0.008964229
137	0xbe34e90f	-0.1766703
138	0x3db65af7	0.08904069
139	0x3d8cd3db	0.06876346
140	0xbe4d79e6	-0.20066032
141	0x3bbb7d98	0.005721759
142	0xbd40b75a	-0.047049858
143	0xbcfa6334	-0.030564882
144	0x3dde43f2	0.10852803
145	0x3cc7766b	0.024348458
146	0xbe42ec6a	-0.19035497
147	0xbee7ebe8	-0.4529717
148	0x3d213ed8	0.039366573
149	0x3ea899fc	0.3292998
150	0xbe5f3414	-0.2179721
151	0x3d1466d3	0.036230873
152	0x3d809eb6	0.06280272
153	0xbe83f550	-0.25773096
154	0x3e3e7c60	0.18602133
155	0xbe920bb7	-0.28524563
156	0x3dc4dbd7	0.096122436
157	0xbe467e98	-0.19384229
158	0xbdd57912	-0.10423483
159	0x3db3429f	0.08752941
160	0xbe8f73db	-0.28018078
161	0xbe5ec06d	-0.21753092
162	0xbed970cf	-0.4246888
163	0xbed0b0f6	-0.4076001
164	0xbeb14441	-0.34622386
165	0x3e3a79a2	0.18210462
166	0xbe01bf79	-0.12670697
167	0xbd456639	-0.04819319
168	0xbe2ffd15	-0.17186387
169	0x3e1e4885	0.15457352
170	0x3d71fd0c	0.059079215
171	0xbebf26b8	-0.37334228
172	0xbee1055f	-0.4394941
173	0xbf03a559	-0.51424176
174	0xbe7074d2	-0.23482063
175	0xbecf2d8b	-0.40464434
176	0xbe456a4b	-0.19278829
177	0x3e89aff3	0.2689205
178	0xbe89b426	-0.26895255
179	0xbe465443	-0.19368081
180	0xbe7cce55	-0.24688084
181	0x3e84bbe3	0.25924596
182	0x3dc4d0d7	0.096101455
183	0x3efdab15	0.49544588
184	0x3cceed1e	0.02525955
185	0xbf477b73	-0.77922744
186	0xbda34790	-0.07972634
187	0xbf1d4667	-0.6143555
188	0xbdb345ff	-0.08753585
189	0x3e869c0d	0.26290932
190	0xbdd05bd1	-0.101737626
191	0x3dd2ac56	0.10286777
192	0xbf090089	-0.5351644
193	0xbea0695b	-0.3133038
194	0x3e579435	0.2105263
195	0xbe7f4122	-0.2492719
196	0xbe727dc9	-0.23680796
197	0x3ec410c3	0.38294038
198	0xbe028df9	-0.12749471
199	0xbe79dd92	-0.24400929
200	0xbeaadfa3	-0.33373746
201	0xbe4afd47	-0.1982318
202	0x3c1abc37	0.009444288
203	0xbee5b6db	-0.4486607
204	0x3e97638e	0.29568142
205	0x3dd3fff9	0.10351557
206	0xbdf7004e	-0.12060605
207	0x3e0ca1c1	0.13733579
208	0xbdf0cca4	-0.11757782
209	0xbd893397	-0.06699293
210	0xbe978004	-0.29589856
211	0xbe7d856a	-0.24757925
212	0xbd999263	-0.07498624
213	0x3e21978c	0.15780467
214	0xbcc0b334	-0.02352295
215	0xbea8acdb	-0.32944378
216	0xbe75740f	-0.23970054
217	0x3e1f57c6	0.15560827
218	0xbb32dc72	-0.002729204
219	0xbebc7d31	-0.36814263
220	0xbe0937eb	-0.13400237
221	0x3dc65d6d	0.09685788
222	0x3ebc0c96	0.36728352
223	0xbe478eed	-0.19488116
224	0xbdfde117	-0.12396448
225	0xbe56ae83	-0.20965008
226	0xbe081665	-0.13289793
227	0xbe4033fb	-0.18769829
228	0xbe580ffe	-0.2109985
229	0xbd511435	-0.05104466
230	0x3c877430	0.016534895
231	0x3d7426c8	0.059607297
232	0x3cf75daa	0.03019603
233	0xbde4932e	-0.11160885
234	0xbe46b2d5	-0.19404157
235	0x3e36dd97	0.17857967
236	0xbea10866	-0.3145172
237	0x3e753d93	0.2394927
238	0xbd0c3d62	-0.034238227
239	0x3d429bfd	0.047512043
240	0x3e04f308	0.12983334
241	0xbec6149f	-0.38687608
242	0x3e54956b	0.20760123
243	0xbf0971c7	-0.53689235
244	0xbd9aff56	-0.07568233
245	0xbb217639	-0.0024637117
246	0xbeaf39d9	-0.34223822
247	0xbe6c3fd2	-0.2307122
248	0xbf12e3f4	-0.5737908
249	0x3e60c9fb	0.2195205
250	0x3d3f65fc	0.04672812
251	0xbe9cd527	-0.30631372
252	0xbe6d05fb	-0.23146813
253	0x3dd530dd	0.104097106
254	0xbeec4240	-0.46144295
255	0x3c7ff9df	0.015623539

net.2.weight f4 [256, 256]
0	0x3dad1544	0.08451322
1	0xbe45ff07	-0.19335566
2	0x3f70ea0c	0.9410713
3	0xbe488e50	-0.19585538
4	0xbee8a8bb	-0.4544123
5	0x3db0e54c	0.08637485
6	0x3d9c7575	0.07639591
7	0x3e790401	0.24317934
8	0x3b337f34	0.0027389051
9	0x3e4c8ad4	0.19974834
10	0xbe497596	-0.19673762
11	0xbf9549b6	-1.166312
12	0x3ecf6fec	0.40515077
13	0xbdc05894	-0.09391895
14	0xbecbbe3e	-0.3979358
15	0xbbc12786	-0.005894604
16	0xbeb7b8ca	-0.3588317
17	0x3d2f3775	0.042777497
18	0xbef6c92c	-0.48200357
19	0xbe460158	-0.1933645
20	0x3e7b03b8	0.24513137
21	0xbe6ede01	-0.23326875
22	0x3f4f63f0	0.8101187
23	0x3d824999	0.06361694
24	0x3ef2b17c	0.47401035
25	0xbf00deee	-0.50340164
26	0xbd7a2bba	-0.061076857
27	0xbc336b0c	-0.010950815
28	0xbd1ac679	-0.037786935
29	0xbf629644	-0.8851054
30	0xbeacca50	-0.33748102
31	0x3e36bb2c	0.17844838
32	0x3c45ce5e	0.012073128
33	0x3d2b2707	0.041785266
34	0xbf3d0123	-0.7382986
35	0xbea0bfe6	-0.31396407
36	0xbe137f6b	-0.14404075
37	0x3eaffd62	0.34373003
38	0x3e9076e0	0.28215694
39	0xbdc3e4ec	-0.09565148
40	0xbf7444a1	-0.9541722
41	0xbbcd999f	-0.0062744166
42	0xbf057b68	-0.5214143
43	0xbe593720	-0.21212435
44	0x3e916c9f	0.28403184
45	0xbf3f1a7f	-0.74649805
46	0x3e290ba0	0.16508341
47	0xbf3db7d2	-0.7410861
48	0xbdc6a980	-0.09700298
49	0xbef6a758	-0.48174548
50	0xbdc3600d	-0.095398046
51	0xbf2e3a7e	-0.68058
52	0x3cceb222	0.025231425
53	0x3d81ca5a	0.063374236
54	0xbe8176a8	-0.2528584
55	0x3cf41bca	0.029798407
56	0x3d528ecf	0.051405724
57	0x3e8e1812	0.2775274
58	0x3f32374d	0.6961563
59	0xbf2590b8	-0.6467395
60	0x3e9d1a76	0.3068425
61	0x3f23ee0c	0.64035106
62	0xbe42f7f1	-0.19039895
63	0x3d6bf699	0.05760822
64	0x3e973659	0.2953365
65	0x3cb630cc	0.022240065
66	0x3d9ae76a	0.0756367
67	0xbd9c2a53	-0.0762526
68	0xbf6b01a2	-0.91799366
69	0xbe2d3c97	-0.16917644
70	0x3ed81bb7	0.42208645
71	0xbe9f7525	-0.31144062
72	0x3db04234	0.08606377
73	0xbf67f5d8	-0.906095
74	0x3e1cb45f	0.15303181
75	0xbeaf4d67	-0.3423874
76	0x3e3b6d5a	0.18303433
77	0x3d39f02a	0.045395054
78	0x3eef947f	0.4679298
79	0x3c9866de	0.018603738
80	0x3e60c99a	0.21951905
81	0x3df77adf	0.12083983
82	0xbf02002d	-0.5078152
83	0xbcadb1fc	-0.021203034
84	0x3ec0aba9	0.37630966
85	0x3e20ce64	0.15703732
86	0xbeb17246	-0.34657496
87	0xbe687ab9	-0.22703065
88	0x3e19ded4	0.15026408
89	0xbe2c21e8	-0.16809809
90	0x3d1d0191	0.038331572
91	0x3e169ec7	0.14709006
92	0x3df50b78	0.11965078
93	0xbc2ccb0a	-0.010546455
94	0x3c3760de	0.0111925285
95	0x3ec9fa89	0.39448956
96	0x3dd5426a	0.10413058
97	0x3e11228e	0.14173338
98	0xbe38319c	-0.17987674
99	0xbd1110c4	-0.03541638
100	0xbf06a7b1	-0.52599627
101	0xbf0e1761	-0.55504423
102	0x3d531064	0.051529303
103	0x3e031cb8	0.12803924
104	0x3f0fff09	0.5624853
105	0x3ea73f5e	0.32665533
106	0xbf07445f	-0.528387
107	0xbe57f98a	-0.21091285
108	0xbe92d92e	-0.2868132
109	0x3d5a71cd	0.053331185
110	0xbe3ddf62	-0.18542245
111	0x3d4218b3	0.047386836
112	0xbd96543c	-0.07340285
113	0xbe454935	-0.19266208
114	0xbd4e2454	-0.050327614
115	0xbf895173	-1.0727981
116	0xbf318cfd	-0.69355756
117	0x3e5a7cc4	0.21336657
118	0xbef096e1	-0.4699011
119	0x3e0b547b	0.13606445
120	0xbd86aefe	-0.06576346
121	0xbdb95478	-0.09049314
122	0xbf27b611	-0.65512186
123	0x3c84fca5	0.016233752
124	0xbe2775fc	-0.16353601
125	0x3f149fe2	0.5805646
126	0xbd5e1bbb	-0.054225665
127	0x3e531852	0.20614746
128	0xbfa1b9c8	-1.2634821
129	0x3dd36ce5	0.10323504
130	0x3d3067ce	0.043067746
131	0x3d0c0acc	0.034189984
132	0xbf50a9aa	-0.81508887
133	0xbec4989e	-0.38397688
134	0xbe0073f4	-0.12544233
135	0x3ddbfc01	0.10741425
136	0x3e3a1b9d	0.18174596
137	0xbeb419c2	-0.35175902
138	0xbe6b79df	-0.22995709
139	0x3d17a4a0	0.037022233
140	0xbe137e30	-0.14403605
141	0xbee673fb	-0.4501036
142	0xbe43bf2a	-0.19115892
143	0xbd1c80cf	-0.03820878
144	0x3dfc9632	0.12333335
145	0xbf154a85	-0.5831683
146	0xbd9d7cc5	-0.076898135
147	0xbee913f3	-0.45523033
148	0xbef098e9	-0.4699166
149	0xbd581bd6	-0.05276092
150	0xbc7bfe86	-0.015380507
151	0xbec3e588	-0.38261056
152	0x3f3d9425	0.74054176
153	0xbeb027c7	-0.34405348
154	0xbdbe0f7a	-0.09280296
155	0x3e48c0b4	0.1960476
156	0xbf42fd58	-0.7616782
157	0xbeddb671	-0.43303254
158	0x3da1d2ce	0.07901536
159	0x3d0d2bda	0.03446565
160	0xbaa6540c	-0.0012689843
161	0x3e7958a3	0.24350218
162	0xbd548c4f	-0.05189162
163	0x3e9e8eb2	0.30968243
164	0x3e0b9f19	0.1363491
165	0xbec70377	-0.3886983
166	0xbe256d6c	-0.16155022
167	0xbdb9d62a	-0.09074052
168	0xbe0a3648	-0.13497269
169	0x3d0f3fce	0.03497296
170	0x3f34a6f7	0.7056727
171	0x3ec18f30	0.37804556
172	0xbc25e7e6	-0.01012609
173	0x3e8bffcf	0.27343604
174	0x3c75bb74	0.014998306
175	0xbed254de	-0.41080374
176	0x3d95dec2	0.07317878
177	0x3e635282	0.22199443
178	0xbeb9a0bf	-0.36255452
179	0x3e33fbf1	0.17576577
180	0xbd95286c	-0.072831005
181	0x3efee521	0.49784186
182	0x3e69b771	0.22823884
183	0x3d98121c	0.07425329
184	0xbe8f5356	-0.27993268
185	0xbd0215a0	-0.031758904
186	0xbe2b0989	-0.16702856
187	0x3dce3e76	0.10070507
188	0xbef5fcac	-0.48044336
189	0xbf063b31	-0.5243407
190	0x3eb3b3f8	0.35098243
191	0xbf71325f	-0.94217485
192	0xbe9848ab	-0.2974294
193	0xc00b7d87	-2.1795366
194	0xbb5b084e	-0.0033421698
195	0xbe83d8fc	-0.25751483
196	0xbd0deca0	-0.03464949
197	0xbe41337d	-0.18867297
198	0xbe9d9af9	-0.30782297
199	0xbbb3b118	-0.0054837577
200	0xbf2f31d3	-0.684354
201	0x3e8ab60f	0.27092025
202	0x3ec5678c	0.38555562
203	0xbe8e2bd9	-0.27767828
204	0xbe0f8843	-0.14016823
205	0x3ee2e55d	0.44315615
206	0xbec29940	-0.38007545
207	0xbdf4bd68	-0.11950189
208	0xbed125cd	-0.40849152
209	0x3d8b3dde	0.067989096
210	0xbd18e45d	-0.03732716
211	0x3e5f9273	0.2183321
212	0xbe1ef795	-0.15524133
213	0xbed288d1	-0.41120008
214	0xbd4788c0	-0.0487144
215	0xbe43b79a	-0.19113007
216	0xbe5f7ea6	-0.21825656
217	0xbe3fda57	-0.18735634
218	0x3e6d4651	0.23171355
219	0xbf14e641	-0.5816384
220	0xbec121d7	-0.3772113
221	0xbdef66a6	-0.116895005
222	0xbdd5eeae	-0.10445915
223	0x3d40a7ba	0.047034957
224	0xbf62d9a4	-0.88613343
225	0x3e0110f0	0.12604117
226	0xbe188751	-0.14895369
227	0xbe8880f2	-0.26660877
228	0x3ded788c	0.11595258
229	0xbe5962b5	-0.2122906
230	0xbdffddab	-0.12493452
231	0xbe3ac1ad	-0.18237944
232	0xbefb8717	-0.49126503
233	0xbd94e0b4	-0.07269421
234	0x3f274568	0.6534028
235	0xbe8c3562	-0.27384478
236	0x3e7af2d7	0.24506699
237	0xbe396ecc	-0.18108672
238	0xbeba1fbb	-0.36352333
239	0x3e8fbebd	0.2807521
240	0xbf638beb	-0.8888537
241	0x3e8797bc	0.26482952
242	0xbee58c1d	-0.4483346
243	0x3e22e7cd	0.15908737
244	0x3ee931b2	0.45545727
245	0xbf675655	-0.9036611
246	0xbcdc9d0a	-0.02693035
247	0xbe58dd9a	-0.21178284
248	0xbe8f216c	-0.27955186
249	0xbe8a1679	-0.2697027
250	0xbdac7359	-0.08420438
251	0x3e9db666	0.3080322
252	0xbf3cc40c	-0.73736644
253	0xbe9d56bc	-0.30730236
254	0x3cf4cbc0	0.029882312
255	0x3d5009cb	0.05079059

net.2.bias f4 [256]
0	0xbd8a9584	-0.06766799
1	0xbd5aeff3	-0.05345149
2	0x3c1d6bcf	0.009608223
3	0x3eebde83	0.460682
4	0x3dcbd2f4	0.099523455
5	0x3e1ef06f	0.15521406
6	0xbe2b9887	-0.16757403
7	0xbec6535d	-0.38735476
8	0x3decb430	0.115578055
9	0xbec2012d	-0.37891522
10	0x3eb37ba3	0.35055265
11	0xbe27d6da	-0.16390553
12	0xbd386d22	-0.045025952
13	0xbe477651	-0.19478728
14	0xbe65349f	-0.22383355
15	0x3dd91698	0.106000125
16	0xbdf493e3	-0.1194227
17	0xbd066a99	-0.032816503
18	0x3d2ba782	0.041907795
19	0xbe6eae76	-0.23308739
20	0xbe0e7257	-0.13910805
21	0xbeb80e0a	-0.3594821
22	0xbe1a926a	-0.15094915
23	0xbeef7386	-0.46767825
24	0xbeb0f301	-0.34560397
25	0xbdc481f9	-0.09595103
26	0xbe3e9ef9	-0.18615331
27	0xbe1b443d	-0.1516275
28	0xbe008cf8	-0.12553775
29	0xbd951aed	-0.07280526
30	0xbd66fe75	-0.056395013
31	0x3bd43f8e	0.006477303
32	0xbed01b19	-0.40645674
33	0xbd0e8d7c	-0.0348029
34	0xbda4ce81	-0.080472
35	0xbe89fa24	-0.26948655
36	0xbd4cfd9f	-0.05004656
37	0x3d477722	0.0486976
38	0xbe403804	-0.18771368
39	0xbe7ad06c	-0.24493569
40	0xbf0eaa26	-0.55728376
41	0xbd8fb7d8	-0.07017487
42	0xbe926740	-0.28594398
43	0xbd56b030	-0.05241412
44	0xbeaf340d	-0.342194
45	0xbe0b95e2	-0.13631395
46	0x3edc9023	0.43078718
47	0xbbc59a34	-0.0060303453
48	0x3e9b02f4	0.3027569
49	0xbc0cf018	-0.008602165
50	0x3da22333	0.0791687
51	0x3cffc4cc	0.03122177
52	0xbe5bca1e	-0.2146382
53	0xbe876743	-0.2644597
54	0xbe8904d9	-0.2676151
55	0xbdaf081d	-0.08546469
56	0xbcc6cb9d	-0.024267012
57	0xbe08136f	-0.13288663
58	0xbed87825	-0.42279163
59	0xbdcd05d2	-0.10010876
60	0xbcda1931	-0.02662334
61	0x3deb6fe2	0.11495949
62	0xbeca641c	-0.39529502
63	0xbe12bb04	-0.14329153
64	0xbe070fb5	-0.13189586
65	0xbe9d7faf	-0.30761477
66	0xbeb15e36	-0.3464219
67	0xbe9b7cbb	-0.303686
68	0x3ecb0f38	0.39660048
69	0x3ed17aa5	0.40913883
70	0xbe800767	-0.25005648
71	0xbe2fb100	-0.17157364
72	0xbee8e2eb	-0.45485625
73	0x3e9171da	0.28407174
74	0x3e079383	0.13239865
75	0xbd5fabda	-0.05460725
76	0xbd70f34c	-0.058825776
77	0xbe1c9ea1	-0.15294887
78	0x3ebeea92	0.37288338
79	0xbd5ff47f	-0.05467653
80	0xbc207949	-0.009794542
81	0xbd99ea63	-0.07515409
82	0xbda57b64	-0.080801755
83	0xbeba56ad	-0.36394253
84	0x3c84c380	0.016206503
85	0xbe085da9	-0.13316979
86	0x3e52f2ed	0.20600481
87	0x3d0da046	0.034576677
88	0xbedbc3ea	-0.42922908
89	0xbe9ead41	-0.30991557
90	0xbdd76792	-0.10517801
91	0xbe70390d	-0.23459263
92	0xbd8abb59	-0.06774015
93	0xbeb76508	-0.35819268
94	0xbdf4b5f6	-0.11948769
95	0x3e8f9868	0.28045964
96	0xbecee5c7	-0.4040968
97	0xbe4b9539	-0.19881143
98	0xbe2e103a	-0.16998377
99	0xbdc02d5e	-0.09383653
100	0xbecfd0e8	-0.4058907
101	0xbd394e7e	-0.04524087
102	0x3e6527e0	0.22378492
103	0xbeb2eeaa	-0.3494771
104	0x3e53d958	0.20688379
105	0xbdac5363	-0.08414342
106	0xbd5e9ce9	-0.05434886
107	0xbe5532c3	-0.20820145
108	0xbdb05ddc	-0.08611652
109	0xbdc1d157	-0.094637565
110	0xbd4e93d2	-0.05043394
111	0xbd6c678f	-0.05771595
112	0x3e907889	0.2821696
113	0xbe2fa03a	-0.17150965
114	0xbecc7848	-0.39935517
115	0xbe3deae5	-0.18546636
116	0x3c21c616	0.0098738875
117	0xbd285542	-0.041096933
118	0xbe060e69	-0.13091435
119	0xbe9fc8b2	-0.31207806
120	0x3d5e2d41	0.054242376
121	0xbc24aef7	-0.0100514805
122	0xbea22646	-0.31669825
123	0xbde18647	-0.110119395
124	0xbc2b08e6	-0.010439133
125	0xbe4d034c	-0.20020789
126	0xbe79eb2f	-0.24406122
127	0xbcbe9044	-0.02326215
128	0xbe8bb89d	-0.27289286
129	0x3d56bf0d	0.052428294
130	0xbdd3b006	-0.10336308
131	0xbdfd174c	-0.12357959
132	0xbde0d61b	-0.109783374
133	0xbec08fcf	-0.37609717
134	0xbd3536ea	-0.044241823
135	0xbde5768a	-0.1120425
136	0x3e2ff003	0.17181401
137	0xbd9c2f0f	-0.07626163
138	0xbe61d9d8	-0.22055757
139	0xbdb2b645	-0.087261714
140	0xbea8250c	-0.32840765
141	0xbdddabe7	-0.108238034
142	0xbe79c8df	-0.24393032
143	0xbeba2919	-0.3635948
144	0xbbd4172c	-0.006472489
145	0xbe4c82d9	-0.1997179
146	0x3e8c59ec	0.27412355
147	0x3ddf415f	0.109011404
148	0xbd8bc08a	-0.06823833
149	0xbeaf45ca	-0.34232932
150	0x3df5213e	0.11969231
151	0xbee4eaed	-0.44710484
152	0xbe1e4656	-0.15456519
153	0xbb17816d	-0.0023117915
154	0x3e8e8941	0.2783909
155	0xbbd89983	-0.006610097
156	0x3e3a0a4b	0.18167989
157	0xbe53e6bc	-0.20693487
158	0xbd83ef8e	-0.06442176
159	0x3d9210b9	0.07132096
160	0x3c740eaf	0.014896079
161	0x3af4fc95	0.0018690998
162	0xbe32cbe1	-0.17460586
163	0xbee7163b	-0.45134148
164	0xbd94cc8b	-0.07265576
165	0xbe8c548d	-0.27408257
166	0x39ba666b	0.00035552992
167	0xbe6be33d	-0.23035903
168	0xbdb003ed	-0.08594499
169	0xbe7c84c6	-0.24660024
170	0x3e85f68b	0.2616466
171	0x3af353c9	0.0018564399
172	0x3a85edd8	0.0010217978
173	0xbe0d811c	-0.13818783
174	0xbdd53acd	-0.10411606
175	0x3c3a8f78	0.011386745
176	0xbe866ba5	-0.26254
177	0xbf02e25f	-0.51126665
178	0xbe79be32	-0.2438896
179	0xbcd13de6	-0.02554221
180	0x3e60b25a	0.21943036
181	0xbe203aa8	-0.15647376
182	0xbecdb7cb	-0.40179285
183	0xbebe0702	-0.37114722
184	0xbe8b498d	-0.27204552
185	0xbe06ece8	-0.1317631
186	0xbdb8bf5d	-0.09020875
187	0x3e2cccaa	0.16874948
188	0x3e860ee3	0.26183233
189	0x3eafe293	0.3435255
190	0xbe71ea1c	-0.23624462
191	0xbdb5e865	-0.08882216
192	0xbd86d903	-0.065843605
193	0xbef1938d	-0.47182885
194	0xbe15dda7	-0.14635335
195	0xbd7e06bf	-0.062018152
196	0x3c555102	0.013019802
197	0x3cf04827	0.02933128
198	0xbe8c8c09	-0.27450588
199	0x3e292117	0.16516529
200	0x3e34a85f	0.17642353
201	0xbd2a00ec	-0.041504785
202	0x3dc16c3a	0.09444471
203	0x3ef4969b	0.47771153
204	0xbd5ecab5	-0.054392535
205	0xbd8c3bf8	-0.06847376
206	0xbdfeb453	-0.12436738
207	0xbec38de1	-0.38194183
208	0xbbcda6d8	-0.006275993
209	0xbe69d0e8	-0.22833598
210	0xbe9bc4f7	-0.3042371
211	0xbe9e50f9	-0.30921152
212	0xbebd11ae	-0.3692755
213	0xbd85ccc5	-0.06533197
214	0x3e38e492	0.18055943
215	0xbe361f64	-0.17785412
216	0xbc88b1fc	-0.016686432
217	0x3e9fafec	0.31188905
218	0xbc8a0647	-0.016848696
219	0x3cea1fe9	0.02857967
220	0xbecd55ab	-0.40104422
221	0xbe4d63d7	-0.20057617
222	0xbcae31ff	-0.021264074
223	0x3e195415	0.14973481
224	0xbec3eeb0	-0.38268042
225	0x3d8160ce	0.06317292
226	0xbd16e298	-0.03683719
227	0xbe3c319f	-0.18378304
228	0xbe493436	-0.19648823
229	0xbda59bae	-0.08086334
230	0xbe9a6fca	-0.30163413
231	0x3ed8d1be	0.4234752
232	0xbe84de2f	-0.25950763
233	0xbd9d9ac2	-0.07695533
234	0x3ca311dd	0.019905979
235	0x3f025373	0.50908583
236	0xbd9eddec	-0.07757172
237	0xbd688d2c	-0.056775257
238	0xbc07bffc	-0.008285519
239	0xbefcb09b	-0.4935349
240	0xbc896470	-0.016771525
241	0xbdddfe10	-0.10839474
242	0xbd475b59	-0.0486711
243	0x3bc99dd0	0.006152846
244	0xbd77ed61	-0.060529117
245	0x3dc7bb9f	0.09752583
246	0xbee05118	-0.4381187
247	0xbf0295af	-0.5100965
248	0x3ed9892c	0.42487466
249	0x3d869cb4	0.065728575
250	0xbaf3702c	-0.0018572859
251	0xbe854fca	-0.26037437
252	0xbb0142a2	-0.0019723554
253	0xbda8fc33	-0.08251228
254	0xbe8b5fe0	-0.27221584
255	0xbee98363	-0.45608053

mean.weight f4 [4, 256]
0	0xbe3d6549	-0.18495668
1	0xbd0ac18b	-0.033875983
2	0xbee037c0	-0.43792534
3	0xbdd70556	-0.104990646
4	0xbaa66e16	-0.0012697603
5	0x3e3bb48a	0.18330589
6	0x3e4dc07b	0.20092957
7	0xbf1572f7	-0.5837855
8	0xbe46bc0c	-0.19407672
9	0x3d48691c	0.048928365
10	0x3e2fe94d	0.17178841
11	0x3f29b5f7	0.6629328
12	0xbf903b7d	-1.1268154
13	0xbf61a906	-0.88148534
14	0x3e925cb3	0.2858635
15	0x3e429011	0.1900027
16	0xbe0a109e	-0.13482901
17	0xbf35f06c	-0.7106998
18	0xbec37cac	-0.38181055
19	0xbdc27872	-0.09495629
20	0x3e9c9379	0.30581263
21	0x3f87dd33	1.061438
22	0xbe3d5a0a	-0.18491378
23	0xbee1f9a1	-0.44135764
24	0x3eea4dcb	0.45762476
25	0x3c377392	0.011196988
26	0x3eb0acf2	0.34506947
27	0xbe90cda2	-0.28281885
28	0xbd3eb55a	-0.04655967
29	0x3d0de40e	0.034641318
30	0xbd5f3ae6	-0.05449953
31	0xbe57b131	-0.21063687
32	0xbd06f4ab	-0.032948177
33	0x3d011ebc	0.03152345
34	0x3b80e582	0.0039336095
35	0x3f120b70	0.570487
36	0xbfb598c2	-1.4187243
37	0xbe9585e3	-0.2920371
38	0xbf81068f	-1.0080127
39	0x3edac142	0.4272557
40	0xbeea3b7c	-0.45748508
41	0x3c3705f3	0.011170852
42	0x3f0269c5	0.5094264
43	0x3d2ccee4	0.042189494
44	0x3edeaf78	0.43493247
45	0xbfb47c87	-1.4100503
46	0x3eb58a80	0.3545723
47	0xbc5e95fe	-0.013585566
48	0xbec9f450	-0.39444208
49	0x3fbd0dfa	1.476989
50	0x3ea23cf9	0.31687143
51	0xbc75de0e	-0.015006555
52	0x3e165e5c	0.14684433
53	0x3e8e0824	0.27740586
54	0xbf5e306a	-0.86792624
55	0x3f36e49d	0.71442586
56	0xbc8b3e4a	-0.016997475
57	0xbd87bf6d	-0.066283084
58	0xbfb02a95	-1.3762995
59	0xbcc23f92	-0.023711953
60	0x3bb7a2ef	0.00560414
61	0xbe67b5eb	-0.2262799
62	0xbf1550c2	-0.5832635
63	0xbfbf080a	-1.4924328
64	0x3f2b25f5	0.6685479
65	0xbe5a64c9	-0.21327509
66	0xbe8b09ee	-0.27156013
67	0x3ebc4183	0.3676873
68	0x3c5ac467	0.01335249
69	0x3f91ad78	1.1381063
70	0xbe35eff5	-0.17767318
71	0xbde47610	-0.11155331
72	0x3e04dc1f	0.12974595
73	0xbf93211d	-1.149448
74	0xbf8c61e3	-1.0967373
75	0x3e7f13d2	0.24909905
76	0x3ea66c77	0.32504627
77	0x3f17aa5c	0.5924432
78	0x3f0c5f00	0.5483246
79	0xbf020905	-0.5079501
80	0x3f2006d9	0.6251045
81	0xbe47c48c	-0.1950857
82	0xbd03af8c	-0.032149836
83	0xbe98bc98	-0.29831386
84	0x3ea8d34e	0.32973713
85	0xbe8a5651	-0.2701898
86	0x3d14492b	0.03620259
87	0xbdfbd941	-0.12297297
88	0xbf04c920	-0.5186939
89	0xbea5d077	-0.3238561
90	0xbc323207	-0.010876185
91	0xbee3cb63	-0.4449111
92	0xbde35d22	-0.11101748
93	0x3d8388b7	0.06422561
94	0xbbfdbd60	-0.0077435225
95	0x3eb24215	0.34816042
96	0xbd953d11	-0.07287038
97	0xbf011d20	-0.50435066
98	0xbf6b2f7c	-0.9186933
99	0xbb0e423c	-0.002170696
100	0x3f36c009	0.7138677
101	0xbd677d67	-0.056516077
102	0xbecfdafb	-0.40596756
103	0x3e85f61b	0.26164326
104	0x3d8d58a5	0.06901673
105	0x3d23ddaf	0.040006336
106	0x3d78186f	0.060570177
107	0xbe25e4e0	-0.1620059
108	0xbe5fc941	-0.21854116
109	0xbd1b24bf	-0.03787684
110	0x3cf946b4	0.030429222
111	0xbf6026a7	-0.8755898
112	0xbecb414b	-0.39698252
113	0xbdc9ed39	-0.098597
114	0x3e8bbf62	0.2729445
115	0x3e996d93	0.2996641
116	0x3d2e82f4	0.042605355
117	0x3d102be7	0.03519812
118	0xbf1aa89c	-0.6041353
119	0x3eb95986	0.36201113
120	0x3eea9645	0.45817772
121	0xbcfb16b1	-0.030650469
122	0xbe32e2bf	-0.1746931
123	0x3dcd0069	0.10009844
124	0xbc9dce11	-0.0192633
125	0x3ed99069	0.4249299
126	0xbe85a6a4	-0.261037
127	0xbe8dd127	-0.27698633
128	0x3ed36232	0.41285855
129	0xbd21973b	-0.039450865
130	0x3f080562	0.53133214
131	0xbf476a2f	-0.778964
132	0xc01693c9	-2.35277
133	0x3ec24ef4	0.3795086
134	0x3e46eafa	0.19425574
135	0xbe7baf65	-0.24578626
136	0x3f82842f	1.0196589
137	0x3f185edd	0.5951975
138	0x3ebfb860	0.37445354
139	0xbe693c04	-0.227768
140	0x3e297d24	0.16551644
141	0xbbacf74b	-0.005278503
142	0xbe9c8f53	-0.30578098
143	0x3de9c19d	0.11413882
144	0xbcf5b22f	-0.029992191
145	0x3dc44a50	0.095844865
146	0xbe7ad77b	-0.24496262
147	0x3f555ce3	0.8334486
148	0xbe108e30	-0.1411674
149	0x3f6bb369	0.92070633
150	0x3e8a8007	0.27050802
151	0xbf51bd57	-0.81929535
152	0x3e29f546	0.1659747
153	0xbef2c574	-0.4741627
154	0xbf0c2c5e	-0.547552
155	0x3ef15380	0.47134018
156	0x407c1735	3.9389164
157	0x3e0c0058	0.13672006
158	0xbfb29912	-1.3952963
159	0xbef0ce5e	-0.47032446
160	0x3c8beac0	0.017079711
161	0xbc9a5253	-0.018838083
162	0xbf15cb0a	-0.5851294
163	0x3f04ee9f	0.51926607
164	0x3c60e099	0.013725423
165	0x3ebadfe8	0.36498952
166	0x3d906102	0.07049753
167	0x3f624186	0.8838123
168	0x3efb9bb3	0.49142227
169	0x3eb7a915	0.35871187
170	0x3e4a24c5	0.19740589
171	0xbc2adcdf	-0.010428636
172	0x3efcfb68	0.49410558
173	0x3c31268e	0.010812415
174	0x3c6fddad	0.014640254
175	0x3f2b8caa	0.6701151
176	0x3db245f0	0.08704746
177	0x3e1f0326	0.15528545
178	0xbeb99da6	-0.3625309
179	0x3e080847	0.13284408
180	0xbea58ff2	-0.32336384
181	0xbf270244	-0.6523783
182	0x3ea5f420	0.32412815
183	0x3f681599	0.90657955
184	0x3e0e6b64	0.13908154
185	0xbe4c97a1	-0.19979717
186	0xbd5366c0	-0.051611662
187	0x3e7f0ec2	0.24907973
188	0x3f6ee8dc	0.93324065
189	0x3fb75613	1.4323143
190	0x3cce9fe5	0.025222728
191	0x3f9becbc	1.2181621
192	0xbdd3eb0d	-0.10347567
193	0x3e505b74	0.20347387
194	0x3e1c6f38	0.15276802
195	0x3f090197	0.5351805
196	0x3cf5c89a	0.03000288
197	0xbdef4462	-0.11682965
198	0xbe5991a2	-0.21246961
199	0x3df09437	0.1174702
200	0x3fb782af	1.4336756
201	0x3b538ada	0.0032278807
202	0xbf24c624	-0.6436484
203	0x3e6b3c4b	0.22972219
204	0xbd5df440	-0.054188013
205	0x3d1f4f85	0.038894195
206	0xbe19cb89	-0.15019049
207	0xbe0b97a2	-0.13632062
208	0xbf29054f	-0.66023725
209	0x3dfd3c4c	0.12365016
210	0x3f0826ec	0.5318439
211	0x3e41979c	0.1890549
212	0x3e483f3e	0.19555375
213	0x3f720423	0.9453756
214	0x3ec7146e	0.38882774
215	0xbe70b894	-0.23507911
216	0xbd443970	-0.04790634
217	0x3e3cd182	0.18439296
218	0xbe81d456	-0.25357312
219	0x3c9c10e5	0.019051025
220	0x3d926150	0.07147467
221	0x3e36d8a0	0.17856073
222	0x3dd2e854	0.10298219
223	0xbfb55b7b	-1.4168543
224	0xbd6c1610	-0.057638228
225	0x3ec1cf3c	0.3785342
226	0x3e00afa8	0.12567008
227	0x3f8ead97	1.1146725
228	0xbe2b9d8d	-0.1675932
229	0xbda4d86b	-0.08049091
230	0xbf6b8ef3	-0.92015
231	0xbf3032f5	-0.68827754
232	0xbce38c8c	-0.027776979
233	0xbf4baa74	-0.79556966
234	0xc028b3a8	-2.6359653
235	0x3f80658d	1.0030991
236	0xbdd399f1	-0.10332096
237	0x3f376aec	0.71647525
238	0xbf087206	-0.53298986
239	0x3ed84e1b	0.4224709
240	0xbd97545f	-0.073891394
241	0xbe542514	-0.20717269
242	0x3ea5d0a7	0.32385752
243	0x3c83a99e	0.01607209
244	0x3de69583	0.11258986
245	0x3f46d068	0.7766175
246	0xbe655f08	-0.22399533
247	0xbec8195f	-0.39081857
248	0xbd5f5c3a	-0.054531313
249	0x3e1c4ac6	0.15262899
250	0xbfb61d3b	-1.422767
251	0x3f45e166	0.77297056
252	0xbfa05167	-1.2524842
253	0xbe860081	-0.2617226
254	0x3eb628c6	0.35577983
255	0x3f237d7e	0.6386336

mean.bias f4 [4]
0	0xbe0b0190	-0.13574815
1	0x3d22253c	0.03958629
2	0x3e47099e	0.19437262
3	0x3d3662cc	0.044527814

log_std.weight f4 [4, 256]
0	0xbe78970c	-0.2427637
1	0xbce8d5a3	-0.028422182
2	0xbea8b000	-0.32946777
3	0xbea55598	-0.32291865
4	0xbc0ac339	-0.008469396
5	0xbde1266e	-0.10993658
6	0xbd1ad56f	-0.037801202
7	0x3dd4b3b9	0.10385842
8	0xbe8dc791	-0.2769132
9	0xbe26de77	-0.16295801
10	0x3e3fa43e	0.18714997
11	0x3e8d3e27	0.2758648
12	0x3f7fcd66	0.9992279
13	0x3e9b2220	0.30299473
14	0x3e8ba59a	0.2727478
15	0x3e7a09fd	0.24417873
16	0xbd8476fd	-0.06468008
17	0xbea159a0	-0.3151369
18	0x3de04462	0.10950543
19	0xbdc55335	-0.09635011
20	0xbdcb5c46	-0.09929709
21	0x3f14f8c0	0.5819206
22	0x3e47a5b0	0.19496799
23	0xbb110e78	-0.0022133868
24	0x3f807041	1.0034257
25	0xbe156c5d	-0.14592119
26	0x3e3f0613	0.18654661
27	0xbe3290e0	-0.17438078
28	0x3d03d18b	0.032182258
29	0xbd3a8342	-0.045535333
30	0x3c28968e	0.010289801
31	0x3e5b34c8	0.21406853
32	0x3d4d2d68	0.05009213
33	0x3d1489d2	0.03626425
34	0x3d28bb8c	0.041194484
35	0x3e8f2ef1	0.279655
36	0x3e5e71f6	0.2172316
37	0x3ea5e5c3	0.32401857
38	0x3c4b81e7	0.012421108
39	0x3d6db460	0.058033347
40	0xbe42b188	-0.19013035
41	0x3d03ee44	0.03220965
42	0x3eaf5c5f	0.3425016
43	0x3cd485d0	0.025942713
44	0x3f1be368	0.6089387
45	0x3ebdcaa7	0.37068674
46	0x3e1aa25a	0.15100995
47	0x3c5002b8	0.012695961
48	0x3df7f1a4	0.12106636
49	0xbe727903	-0.23678975
50	0x3d9b3c1d	0.07579825
51	0xbd9bccbe	-0.07607411
52	0x3dab351b	0.083597384
53	0x3eebd2f2	0.46059376
54	0x3f223b03	0.63371295
55	0x3edebb89	0.43502453
56	0x3d32e143	0.043671858
57	0x3ce057e4	0.02738566
58	0x3ead62c5	0.33864418
59	0x3d3f4fe4	0.04670705
60	0xbc3bf276	-0.011471381
61	0x3c81971a	0.015819121
62	0x3e1ccfa2	0.1531358
63	0x3f53fe5c	0.82809997
64	0x3e7d7f3b	0.24755566
65	0x3e29527e	0.16535375
66	0x3d59c7e1	0.053169135
67	0x3d45fa59	0.048334453
68	0xbdbb6ebb	-0.091519795
69	0x3eb6518f	0.356091
70	0x3e9a02f7	0.30080387
71	0x3d7f7e5a	0.062376358
72	0x3e05ae5b	0.13054793
73	0x3e625893	0.22104101
74	0xbeaefbeb	-0.34176573
75	0x3cda52c7	0.0266508
76	0x3e4c336e	0.19941494
77	0x3f141d8e	0.57857597
78	0x3e186d32	0.14885405
79	0x3d879e21	0.066219576
80	0x3e0b63b0	0.13612247
81	0xbd5f7f7e	-0.054564945
82	0x3d46318b	0.04838709
83	0xbd94afe1	-0.07260109
84	0xbddff4a0	-0.109353304
85	0xbc54a64a	-0.0129790995
86	0x3d98afc2	0.07455398
87	0xbd86f12d	-0.065889694
88	0x3ea958f1	0.3307567
89	0xbe5f3c2d	-0.21800299
90	0x3be407e1	0.006958947
91	0xbe6cf274	-0.23139364
92	0x3cb65ecb	0.022261998
93	0x3d3d1ced	0.046170164
94	0x3eb38996	0.35065907
95	0x3e2d0759	0.16897334
96	0x3f19d3d5	0.60088855
97	0xbe2fbca3	-0.17161803
98	0x3e67059b	0.22560732
99	0x3d018634	0.031622127
100	0x3e9d5105	0.30725875
101	0xb8a091a2	-7.656521e-05
102	0x3e54ed14	0.20793563
103	0x3d8ef445	0.069801845
104	0x3cf36853	0.029712832
105	0x3d226119	0.03964338
106	0x3be7c19d	0.007072641
107	0x3c117beb	0.008879642
108	0xbe8a7cc1	-0.27048305
109	0x3cbc0f21	0.022956433
110	0x3d2c049b	0.04199658
111	0xbd566297	-0.052340116
112	0x3e3b66b1	0.18300892
113	0xbc7747a0	-0.01509276
114	0x3e6bfb33	0.23045044
115	0x3d5c4968	0.053780943
116	0xb92d0589	-0.00016500628
117	0x3c329d26	0.010901725
118	0x3db76f93	0.08956828
119	0x3e3a5042	0.18194678
120	0x3e2e9a76	0.1705111
121	0x3d126223	0.03573812
122	0x3f1d639c	0.61480117
123	0xbdf63338	-0.12021488
124	0x3cd30cc5	0.025762925
125	0x3e9f692f	0.31134936
126	0x3e0b436f	0.13599943
127	0x3e33e81d	0.17569013
128	0xbe7ecfe7	-0.24883996
129	0xbd4a0729	-0.049323235
130	0xbeaa0f14	-0.3321463
131	0x3e109229	0.14118256
132	0x3f1ea819	0.61975247
133	0x3f2d327e	0.6765517
134	0x3e0cb88c	0.13742274
135	0x3cb6b3d8	0.022302553
136	0x3edafad0	0.4276948
137	0x3f05c12d	0.5224789
138	0x3dbbd586	0.09171586
139	0x3e96f5f4	0.29484522
140	0x3e8a00b8	0.26953673
141	0xbd87d56e	-0.06632505
142	0xbdc2ac52	-0.09505524
143	0xbe71652e	-0.23573753
144	0xbad0a184	-0.0015917276
145	0xbde9c129	-0.114137955
146	0xbda32983	-0.07966902
147	0x3d205a5f	0.039148685
148	0xbe26521b	-0.16242258
149	0x3e2e156e	0.17000362
150	0x3e95e205	0.29274002
151	0x3eab17eb	0.33416685
152	0x3dac5ac4	0.0841575
153	0x3eab5389	0.3346217
154	0x3ea45790	0.32098055
155	0x3cef1379	0.02918409
156	0x3f2ab5c4	0.666836
157	0x3d32cac7	0.043650415
158	0x3d9da362	0.076971784
159	0x3ea23f71	0.31689027
160	0xbd2f597b	-0.042809945
161	0x3d066c40	0.03281808
162	0x3e9a8bd6	0.3018481
163	0x3eb94bfa	0.36190778
164	0xbd3ec849	-0.046577726
165	0x3c30d6ec	0.010793429
166	0xbbf5fa10	-0.0075066164
167	0x3f1b3b84	0.6063769
168	0x3ecb640c	0.39724767
169	0xbd995d78	-0.07488531
170	0xbe26150b	-0.16218965
171	0x3d150e24	0.03639044
172	0x3e90fd01	0.28318027
173	0x3d1946db	0.03742109
174	0x3d09f8c8	0.033684522
175	0x3eecb28e	0.46229976
176	0x3e343ffa	0.1760253
177	0x3dbb0b41	0.09133006
178	0x3e554534	0.2082718
179	0x3e122d9a	0.14275208
180	0x3e657e24	0.224114
181	0x3e47fe93	0.19530706
182	0x3db31089	0.08743388
183	0x3edc2c16	0.43002385
184	0xbdd7a28d	-0.10529051
185	0xbe44e15c	-0.19226593
186	0xbcc8049f	-0.024416266
187	0x3e7a0fe8	0.2442013
188	0x3ee3133b	0.4435061
189	0x3e937753	0.28801975
190	0x3f05ee45	0.52316695
191	0x3f1a9b64	0.6039336
192	0xbcf59232	-0.029976938
193	0x3d920691	0.07130159
194	0xbcc6131a	-0.02417903
195	0x3f1bd732	0.60875237
196	0x3c8b67c1	0.017017247
197	0xbd5704e2	-0.05249489
198	0xbd72d2d0	-0.059283078
199	0xbc94f3fd	-0.018182749
200	0x3ef42a6b	0.47688612
201	0x3c978baa	0.018499214
202	0x3e9d75e1	0.30753997
203	0x3d896c06	0.06710057
204	0x3c83c982	0.016087297
205	0x3b957cf4	0.0045620147
206	0x3c3c8e16	0.011508485
207	0xbdda3e69	-0.10656435
208	0x3eeb227a	0.4592474
209	0xbd026b05	-0.031840343
210	0x3e9f5423	0.3111888
211	0xbd8cf0b6	-0.068818495
212	0x3e51d869	0.2049271
213	0x3e721b7a	0.23643294
214	0x3d8735c9	0.066020556
215	0x3e3a06f5	0.18166716
216	0x3d231d94	0.03982313
217	0xbc160bae	-0.009158058
218	0x3cfdb228	0.03096874
219	0xbe2acd67	-0.16679917
220	0x3c38b7ad	0.0112742605
221	0x3c02588d	0.007955682
222	0xbd108f33	-0.035292815
223	0xbdf69e31	-0.12041891
224	0x3e3b0b5d	0.18266053
225	0x3e222b62	0.15836862
226	0x3df1c3ab	0.11804899
227	0x3ee3dc9a	0.44504243
228	0x3e39d191	0.1814635
229	0xbb5ef12e	-0.0034018266
230	0xbe8b4979	-0.27204493
231	0x3ee86523	0.4538966
232	0xbe20b687	-0.15694629
233	0x3f2359d8	0.63808966
234	0x3f142476	0.57868135
235	0xbf06e464	-0.52692246
236	0x3c7a59b3	0.015280175
237	0x3ef28e84	0.47374356
238	0xbd9b9ee3	-0.075986646
239	0x3e33d32b	0.17561023
240	0xbdf84ddf	-0.12124228
241	0x3ed2ef73	0.4119831
242	0x3f452b7c	0.77019477
243	0x3bbfeb7f	0.0058569307
244	0xbddf66df	-0.10908293
245	0x3d180249	0.037111554
246	0x3c1cb3d6	0.009564361
247	0x3d3025f0	0.04300493
248	0xbc0659aa	-0.0082000885
249	0xbe018159	-0.12646998
250	0x3edec64b	0.4351066
251	0x3f258062	0.6464902
252	0x3dba6b82	0.09102537
253	0xbdc1600a	-0.09442146
254	0x3e23a41a	0.15980569
255	0x3eb311cc	0.34974515

log_std.bias f4 [4]
0	0xbfe7b392	-1.8101676
1	0xc00a0cf2	-2.15704
2	0xc001c821	-2.02784
3	0xc005dd94	-2.091649
