best_models/sac/normal/sac_critic_step_1000000.pth (torch, 592863 bytes, 10 tensors)

q1.0.weight f4 [256, 28]
-0.5291361 -0.18591315 -0.3311303 1.2577126 -0.19296987 -0.076320566 -0.16218434 -0.025844343
0.0051371586 -0.052273784 -0.11718517 -0.16545394 -0.015977774 0.09619557 -0.006797614 0.26877123
-0.0941966 -0.06630198 0.075705215 0.059599165 0.1849948 0.26531887 -0.05993933 -0.013600946
-0.07427951 -0.016583761 0.058020998 -0.008786526 0.27028537 0.555811 -0.26866812 0.49406996
0.01806571 0.21471556 -0.05198114 -0.016100625 -0.052142683 0.06669444 0.1305695 0.09292162
-0.016387207 -0.3085412 0.037898555 0.024336379 0.003003052 -0.19569707 -0.024504615 -0.16328292
-0.19244324 0.14429317 0.050275814 0.3955699 -0.0312887 0.12794429 0.091275364 0.15980063
1.5109664 1.0890661 -0.5433463 -0.4528012 0.92040265 -0.035271473 0.5887758 -0.093614936
-0.08995942 -0.03547761 -0.046882488 -0.046527762 -0.029915176 0.034339085 0.11910346 0.13197868
0.11031118 0.22090776 0.37823835 0.3078109 0.21564746 0.04780211 0.10184956 -0.33953565
-0.027942115 -0.07673199 -0.006518959 -0.0030452558 0.7306419 0.9906396 -0.38408312 0.4796875
-0.01064058 0.14252509 0.12082176 -0.022098474 -0.04340792 0.12685074 -0.1760343 -0.058008276
-0.15808159 0.109768026 -0.09239762 -0.042153537 0.08681483 0.25445122 -0.061107125 -0.0423194
0.19022314 0.35958928 -0.12829982 0.1719786 -0.06404064 0.03167984 -0.088243805 -0.031090902
-0.026237894 -0.15509252 -0.16414902 -0.26322788 0.25374976 -0.0008454204 -0.008983706 0.0069253426
0.0047867987 0.15328576 0.15325229 0.056916524 0.03079188 0.03982939 0.06350024 -0.1150827
0.08211591 0.111184716 -0.2172205 -0.15017252 0.056478996 0.33034486 -0.34066018 0.022997495
-0.13147609 -0.05308472 -0.029556936 0.12445836 0.46151838 0.56649435 -0.2034671 0.9063469
0.005578239 0.0904246 0.032731052 -0.007938594 0.05313622 0.4174063 -0.34477082 -0.17513959
-0.15345709 -0.047262747 0.08312952 -0.120104976 0.13625781 -0.14883572 0.063693784 0.013395623
0.021918349 0.15216874 -0.056377992 0.20484352 -0.1552042 -0.009530576 0.08625931 0.041614585
-0.20757557 -2.268328 0.03387623 0.6901235 -0.18497324 -0.07767257 0.011690077 -0.0113129085
-0.28011045 -0.13011178 -0.07074647 -0.036895912 -0.0023420418 0.06262959 0.10435426 0.06127844
0.19430265 0.25643945 0.16881509 0.31125346 0.1307679 -0.30823517 0.16278665 -0.22669275
-0.07960863 -0.09639729 0.053259805 0.002338602 0.7280664 1.9512599 -0.06726909 0.26817283
0.04154413 -0.07465058 -0.06397054 0.119368605 0.10768662 -0.039603453 0.16481192 0.0055459533
-0.029952135 -0.06710303 0.062578656 0.009854421 0.100933835 0.077711046 -0.11918911 -0.015936404
0.057967637 0.22583896 -0.30074334 0.26539707 -0.033278923 -0.039885398 -0.041386638 0.12310676
0.02161382 0.3386286 -0.5160915 0.13757668 0.01629615 -0.106103025 -0.24239236 0.3271065
0.20742792 -0.121132664 0.07782634 -0.0474234 0.07800224 0.109423384 0.027340414 0.14237261
0.12810086 -0.21679394 0.04305029 -0.102155395 -0.21117136 0.20960103 -0.084175475 0.1643649
-0.31720626 -0.41266432 0.09422733 0.23915428 0.35361323 0.6290482 0.6167504 -0.66858464
00000000: 7775 07bf 0460 3ebe e989 a9be bafc a03f
00000010: e599 45be f54d 9cbd a713 26be 84b7 d3bc
00000020: 9c55 a83b 091d 56bd c7fe efbd c26c 29be
00000030: d2e3 82bc 2f02 c53d 85be debb 629c 893e
00000040: 26ea c0bd 55c9 87bd 560b 9b3d 411e 743d
00000050: 476f 3d3e e0d7 873e f182 75bd 81d6 5ebc
00000060: db1f 98bd abda 87bc 6da7 6d3d 5cf5 0fbc
00000070: d862 8a3e a149 0e3f de8e 89be bdf6 fc3e
00000080: 8afe 933c 65de 5b3e 2dea 54bd 75e5 83bc
00000090: 9193 55bd 1897 883d 03b4 053e b14d be3d
000000a0: 773e 86bc 1df9 9dbe 843b 1b3d 165d c73c
000000b0: dace 443b d064 48be e7bd c8bc a333 27be
000000c0: d70f 45be 97c1 133e 03ee 4d3d 2388 ca3e
000000d0: 9428 00bd d403 033e 94ee ba3d c7a2 233e
000000e0: 5967 c13f 8566 8b3f be18 0bbf 8fd5 e7be
000000f0: 829f 6b3f d278 10bd 03ba 163f 30b9 bfbd
00000100: a53c b8bd f850 11bd da07 40bd e593 3ebd
00000110: ac10 f5bc 24a7 0c3d 84ec f33d 6b25 073e
00000120: d4ea e13d a535 623e 75a8 c13e 6499 9d3e
00000130: b0d2 5c3e 25cc 433d 8196 d03d 9ed7 adbe
00000140: dde6 e4bc a925 9dbd fe9c d5bb ea92 47bb
00000150: 590b 3b3f 8f9a 7d3f 8ba6 c4be 9a99 f53e
00000160: d455 2ebc 19f2 113e 6671 f73d dc07 b5bc
00000170: 81cc 31bd 29e5 013e 5642 34be 169a 6dbd
00000180: 24e0 21be 0fce e03d f73a bdbd 30a9 2cbd
00000190: f9cb b13d 6e47 823e 774b 7abd 1b57 2dbd
000001a0: dbc9 423e 161c b83e 0761 03be 281b 303e
000001b0: bd27 83bd b8c2 013d 2bb9 b4bd 59b2 febc
000001c0: daf0 d6bc 93d0 1ebe ae16 28be cec5 86be
000001d0: 7deb 813e 349f 5dba 6530 13bc fced e23b
000001e0: 94da 9c3b f1f6 1c3e 2bee 1c3e 4d21 693d
000001f0: 413f fc3c 2424 233d 6a0c 823d 7bb0 ebbd
00000200: 632c a83d d0b4 e33d 0d6f 5ebe d3c6 19be
00000210: 8556 673d f622 a93e 036b aebe 3e65 bc3c
00000220: aba1 06be 5d6f 59bd 6321 f2bc 06e4 fe3d
00000230: 234c ec3e c605 113f ae59 50be 5a06 683f
00000240: a9c9 b63b 8830 b93d ff10 063d e010 02bc
00000250: 5da5 593d 47b6 d53e cd85 b0be cb57 33be
00000260: db23 1dbe 9596 41bd cf3f aa3d 99f9 f5bd
00000270: 2b87 0b3e 6468 18be e371 823d 5179 5b3c
00000280: 1c8e b33c 1fd2 1b3e 9cec 66bd 80c2 513e
00000290: daed 1ebe 2226 1cbc b9a8 b03d 0e74 2a3d
000002a0: b18e 54be 492c 11c0 cdc1 0a3d efab 303f
000002b0: a069 3dbe cc12 9fbd bd87 3f3c c759 39bc
000002c0: a36a 8fbe 063c 05be 86e3 90bd 2b20 17bd
000002d0: f17c 19bb f143 803d b0b7 d53d 1aff 7a3d
000002e0: 46f7 463e 084c 833e dddd 2c3e 9d5c 9f3e
000002f0: 05e8 053e 00d1 9dbe 8bb1 263e 2522 68be
00000300: d909 a3bd f16b c5bd f426 5a3d 3b43 193b
00000310: 8f62 3a3f e2c2 f93f 60c4 89bd f34d 893e
00000320: 2d2a 2a3d 67e2 98bd fd02 83bd 8777 f43d
00000330: cd8a dc3d 3b37 22bd 75c4 283e d4ba b53b
00000340: 2e5e f5bc 506d 89bd 3d29 803d 7074 213c
00000350: 66b6 ce3d f826 9f3d 6c19 f4bd 108d 82bc
00000360: 796f 6d3d 5442 673e 08fb 99be 20e2 873e
00000370: 7b4f 08bd df5e 23bd 0985 29bd 661f fc3d
00000380: 770f b13c ba60 ad3e 931e 04bf e7e0 0c3e
00000390: 817f 853c 8b4c d9bd b435 78be 817a a73e
000003a0: fc67 543e 6714 f8bd 6b63 9f3d 0a3f 42bd
000003b0: a3bf 9f3d 5e19 e03d 01f9 df3c 20ca 113e
000003c0: df2c 033e 3bff 5dbe 8055 303d d936 d1bd
000003d0: 4e3d 58be a7a1 563e 3164 acbd 464f 283e
000003e0: dc68 a2be bd48 d3be 42fa c03d dce4 743e
000003f0: cb0c b53e 4e09 213f 5be3 1d3f 5d28 2bbf

q1.0.bias f4 [256]
0.28315714 0.2791467 -0.37094122 0.21252783 0.39240575 0.110013634 -0.07418501 0.21151896
-0.014604192 0.28493327 0.014499177 -0.051078334 -0.098500535 0.26286492 0.098271996 -0.5015134
0.022788579 0.47912693 -0.35789868 0.25998107 -0.079900876 0.02601846 0.08191454 0.3746554
0.06801972 0.16868676 0.73636127 0.12420521 0.13123511 -0.053165108 -0.0907141 -0.07046856
0.036771495 -0.4211821 0.06325155 -0.31895122 0.28007004 -0.065125 0.0053279456 -0.24932078
-0.16944954 0.15710348 0.025733555 0.42591742 0.14884539 -0.62897956 -0.17682837 0.014883939
0.03222425 -0.12847342 0.27885377 -0.38481268 0.046945263 0.036704775 0.20355447 -0.17398418
-0.19178794 -0.0074190404 -0.47637808 -0.09699712 0.5390113 -0.4962549 0.40635663 0.07477752
-0.35314927 0.0844224 0.103599586 0.3156867 -0.4783637 0.34790406 -0.4915147 -0.007605844
-0.37644613 0.22416018 -0.095065705 -0.2568787 -0.004763291 -0.07002695 0.32204065 0.20853582
0.39260152 0.16659068 -0.15687597 -0.6153167 0.19252247 -0.27797565 0.18698224 -0.28147754
-0.44072407 -0.13672107 0.02592412 -0.29201493 0.22712584 -0.23723437 0.36913192 0.1530783
-0.41470125 -0.2672435 -0.16470051 0.03138744 0.12464611 0.24470145 0.44683543 -0.28309646
-0.12703486 -0.08339773 0.1260754 -0.483084 -0.17618346 -0.19622286 -0.3498622 -0.28909022
0.15881059 0.1715374 0.35586172 0.405046 -0.4070647 -0.15430681 0.024503794 -0.6525644
0.294882 -0.24710949 -0.29404998 -0.52656746 -0.045450654 0.20754959 0.2669635 -0.23561537
-0.3575809 0.19628705 0.06542463 -0.08562789 -0.32522693 0.036326513 -0.074611485 -0.07754457
0.1453117 -0.65860504 0.042922568 -0.30617023 0.20774327 0.24633336 -0.019835643 0.28926244
-0.08558664 -0.27992746 0.07771494 0.07957913 0.2583675 0.4217497 0.40035832 0.1030798
0.22741118 0.41417235 -0.027903005 -0.19050878 -0.3705094 -0.29421234 0.2511136 0.22536837
-0.002692255 -0.31426948 -0.32911557 -0.12591986 -0.24186051 0.27246696 -0.31034178 -0.45286053
-0.29131833 -0.21324378 -0.12053969 -0.0033512875 -0.08253385 -0.15042154 -0.36830392 0.19245782
-0.07807589 0.13175957 -0.39812198 0.07622252 0.20675325 -0.04082509 -0.08348718 -0.007901129
0.45951614 0.093852125 -0.38258034 -0.2311875 -0.2761413 -0.24725938 -0.01452625 0.17493778
-0.21482365 0.22242467 0.11239402 0.11595985 -0.28729853 -0.057528634 0.14321451 0.013192911
0.4619666 -0.35849676 -0.040988967 0.47149253 0.057807095 -0.15437646 0.22482371 -0.119657256
0.057407424 -0.17413166 -0.523064 -0.4505215 0.18161434 -0.22446239 -0.29069605 0.25778618
-0.19535983 -0.38042283 -0.040051933 -0.06407604 -0.11092321 0.38080278 0.25716007 0.118714966
0.28229317 -0.24043061 0.19620621 0.13102582 -0.23459864 -0.12400398 -0.1785189 0.22300053
0.23142709 -0.14160612 0.3058897 -0.28992426 -0.163165 -0.061107837 -0.16144809 -0.2733623
-0.035751212 0.073900655 -0.22470431 -0.44334537 0.48359585 -0.34486604 -0.450733 -0.05654057
-0.14864174 -0.20005235 -0.3538944 -0.23196584 -0.14388087 0.18429296 -0.312375 0.050738238
00000000: f9f9 903e 51ec 8e3e 02ec bdbe e5a0 593e
00000010: 68e9 c83e d44e e13d 4fee 97bd 6d98 583e
00000020: 6c46 6fbc c6e2 913e f58d 6d3c 8437 51bd
00000030: a6ba c9bd 3b96 863e d442 c93d 2f63 00bf
00000040: 1daf ba3c 2050 f53e 7f3e b7be 3d1c 853e
00000050: 12a3 a3bd aa24 d53c cfc2 a73d d5d2 bf3e
00000060: ec4d 8b3d 39bc 2c3e 2c82 3c3f 4d5f fe3d
00000070: 7f62 063e a8c3 59bd 50c8 b9bd d251 90bd
00000080: b59d 163d 2ea5 d7be 078a 813d 934d a3be
00000090: 5765 8f3e 4260 85bd 0c96 ae3b f24d 7fbe
000000a0: 2e84 2dbe bcdf 203e 2dcf d23c d911 da3e
000000b0: ed6a 183e ce04 21bf 7f12 35be c4db 733c
000000c0: 93fd 033d 898e 03be ecc5 8e3e 2b06 c5be
000000d0: ad49 403d bf57 163d 9570 503e e928 32be
000000e0: 0f64 44be 6c1b f3bb d4e7 f3be 6da6 c6bd
000000f0: a5fc 093f 1f15 febe fa0d d03e f524 993d
00000100: fbcf b4be a7e5 ac3d 052c d43d b0a1 a13e
00000110: 16ec f4be 7b20 b23e d1a7 fbbe 723a f9bb
00000120: 8cbd c0be 3f8a 653e cfb1 c2bd 9b85 83be
00000130: 6215 9cbb 4a6a 8fbd 83e2 a43e 6a8a 553e
00000140: 1103 c93e bf96 2a3e 18a4 20be 6585 1dbf
00000150: 9c24 453e d352 8ebe 4678 3f3e d31d 90be
00000160: 96a6 e1be 9c00 0cbe d25e d43c fb82 95be
00000170: ad93 683e 91ed 72be dcfe bc3e 8fc0 1c3e
00000180: b953 d4be 24d4 88be 40a7 28be 1e90 003d
00000190: 7646 ff3d 0493 7a3e 9dc7 e43e 05f2 90be
000001a0: 6d15 02be 6ecc aabd e919 013e c956 f7be
000001b0: 7069 34be a5ee 48be 2321 b3be a203 94be
000001c0: 3e9f 223e 80a7 2f3e 8233 b63e 3062 cf3e
000001d0: c96a d0be 9b02 1ebe 2ebc c83c 760e 27bf
000001e0: c6fa 963e 450a 7dbe b88d 96be 20cd 06bf
000001f0: 772a 3abd e187 543e 71af 883e 2845 71be
00000200: d814 b7be 79ff 483e 59fd 853d ad5d afbd
00000210: 2584 a6be 1ccb 143d e8cd 98bd b0cf 9ebd
00000220: 97cc 143e 579a 28bf 93cf 2f3d 58c2 9cbe
00000230: a7ba 543e d03e 7c3e 5c7e a2bc 351a 943e
00000240: 0c48 afbd a752 8fbe 0329 9f3d 62fa a23d
00000250: bf48 843e 94ef d73e c4fb cc3e 811b d33d
00000260: 7ade 683e 660e d43e d894 e4bc bc14 43be
00000270: 68b3 bdbe 00a3 96be f691 803e f7c6 663e
00000280: 8b70 30bb eee7 a0be d681 a8be 23f1 00be
00000290: 48aa 77be ca80 8b3e 1ee5 9ebe 56dd e7be
000002a0: ad27 95be 945c 5abe 83dd f6bd 46a1 5bbb
000002b0: 8207 a9bd 1b08 1abe 5592 bcbe aa13 453e
000002c0: 41e6 9fbd fbeb 063e a5d6 cbbe 8d1a 9c3d
000002d0: 20b7 533e 3638 27bd 54fb aabd bd73 01bc
000002e0: b345 eb3e 8b35 c03d 92e1 c3be 6abc 6cbe
000002f0: 6462 8dbe 9031 7dbe 82ff 6dbc e422 333e
00000300: bbfa 5bbe 4bc3 633e d62e e63d 5c7c ed3d
00000310: cb18 93be 25a3 6bbd d3a6 123e 1427 583c
00000320: e386 ec3e e38c b7be 0ce4 27bd 7867 f13e
00000330: 22c7 6c3d dd14 1ebe 3038 663e dd0e f5bd
00000340: 0c24 6b3d 924f 32be 86e7 05bf c1aa e6be
00000350: 1cf9 393e 78d9 65be 1dd6 94be 8dfc 833e
00000360: 680c 48be c8c6 c2be 7f0d 24bd 4d3a 83bd
00000370: b52b e3bd 95f8 c23e 7caa 833e d520 f33d
00000380: bb88 903e 7133 76be 48ea 483e a22b 063e
00000390: a03a 70be ccf5 fdbd a9cd 36be 405a 643e
000003a0: 39fb 6c3e 3201 11be 939d 9c3e f470 94be
000003b0: ba14 27be 364c 7abd a652 25be 25f6 8bbe
000003c0: dd6f 12bd 3a59 973d e318 66be 2afe e2be
000003d0: e099 f73e 4892 b0be 7ac6 e6be 1697 67bd
000003e0: 8a35 18be 86da 4cbe a631 b5be 7488 6dbe
000003f0: 8255 13be 4bb7 3c3e 9eef 9fbe e6d2 4f3d

q1.2.weight f4 [256, 256]
-0.04824317 0.07915916 -2.0852287 0.11510595 0.09237278 0.27884617 0.14969943 0.18580945
0.31140843 0.954858 0.025638027 -0.15175134 -0.5498257 -0.23902935 0.25375023 0.036703657
-0.9604885 -0.4535803 -0.7354212 0.3249706 0.16758873 -0.49140742 -0.367183 -0.15645479
-0.20270972 0.22023162 0.42929244 0.16849034 0.14100139 -0.26981795 -1.3161744 -0.30337
0.42343774 -0.34304914 0.30986497 0.45666853 0.19698277 0.30964988 0.14006165 -2.170614
-0.70618594 0.10831897 0.2595561 -0.14032887 0.50475854 0.043140147 -1.6554466 0.027986657
0.24136972 -0.20240606 0.18552276 0.005668175 -1.227308 -0.29034692 0.7103717 0.5615127
-0.2590025 0.7797515 -0.67035025 0.019548573 -0.0781435 -0.9219646 0.008957867 -0.16644447
-0.37010938 0.06421558 -0.23156908 0.27233827 -0.4993074 0.027729886 -1.0371779 -1.0411751
-0.36721832 -0.1914168 -0.23463431 0.0047003045 -1.2295657 0.801453 -0.11960179 0.24993658
0.63989097 0.0554598 0.4346913 0.86638093 0.14677608 0.27673087 0.019117057 -1.6093012
-2.346391 -1.1287442 -0.94530195 -0.82477576 0.1127088 0.5406096 0.54383886 0.25849712
-0.9685837 -0.15552166 -0.63163996 -0.099090986 0.4396123 -0.24459508 -0.04547798 -0.365746
-0.85950565 -0.14676523 0.44878104 -1.8919613 -0.86040527 -0.57320994 0.08455975 0.35809723
0.10018114 -0.86381155 0.025294842 1.0177494 -0.5283078 0.4928124 -0.4062989 -0.54345393
-0.27154052 -0.08844044 -0.33569282 -0.050379306 -0.13580252 -0.14932983 -0.043141823 -0.6080663
0.2057174 -0.28163534 0.34682307 0.4426957 -0.59374666 -2.7977378 0.35061392 -0.6452271
-0.057229217 -0.46420044 -0.2633387 -0.20893027 -0.39975286 0.11640698 0.28333876 -0.1834082
-2.2155633 -0.538591 -0.0038301074 -2.055419 0.004156346 0.32897684 0.22008759 -0.8192858
0.04972575 0.08144407 -3.873747 0.20625527 -0.39576027 -0.168012 -0.03047352 -0.4446009
0.08247981 -0.8483116 -0.5376965 -0.60200065 -0.023000685 0.4156265 -1.0676241 -0.2796272
-0.22674464 -0.32923925 0.6153053 0.30866638 -0.3882615 -0.36201805 -0.2321886 -0.24576125
-0.08987788 -0.24137793 -2.3114216 0.00046424326 0.00056991 -1.0457885 -0.8692459 0.06479888
0.13122122 0.10139424 -2.0325427 -0.3507658 -0.009560456 -0.27945334 0.1808164 0.013390559
-0.3859036 -0.18922016 0.10498467 0.058845658 -0.3550669 -0.13155772 0.05138263 -0.0882841
-0.08589402 -0.53294283 -0.19497393 0.29517263 0.16359107 0.1790374 -0.1848684 -0.41448224
-0.8421399 0.60890263 0.08817302 -0.82575536 -0.021746127 0.09847417 -0.3758636 0.28214234
-0.65601814 -0.1565329 0.026437744 0.020756409 0.29049158 0.17387387 0.120200925 -0.35253942
0.15081075 -0.7364373 0.6201441 -0.37831405 -1.3007164 -0.124584325 -0.3804869 -0.23021844
0.06900361 0.19895849 -0.21233779 -0.28430715 0.19092867 0.07964161 -0.07128616 -0.29169628
0.29284167 -0.069830276 -0.19280307 -0.042941432 0.45197186 -2.6662042 -1.0832189 0.24227956
0.27923217 0.15540066 -0.1597494 -0.6472172 0.11761139 -0.051100798 -0.5979084 -0.5794135
00000000: a19a 45bd 331e a23d 6374 05c0 abbc eb3d
00000010: f12d bd3d edc4 8e3e cf4a 193e d544 3e3e
00000020: ed70 9f3e 9371 743f d706 d23c b464 1bbe
00000030: 61c1 0cbf 1cc4 74be 8deb 813e 9356 163d
00000040: 93e2 75bf ad3b e8be 9044 3cbf 8c62 a63e
00000050: 619c 2b3e c199 fbbe 69ff bbbe af35 20be
00000060: 2393 4fbe 6684 613e 38cc db3e bb88 2c3e
00000070: ab62 103e 9425 8abe 6778 a8bf 5053 9bbe
00000080: d5cc d83e 23a4 afbe 9fa6 9e3e 75d0 e93e
00000090: dab5 493e 6e8a 9e3e 526c 0f3e 57eb 0ac0
000000a0: 9ac8 34bf 56d6 dd3d 8ae4 843e 5fb2 0fbe
000000b0: db37 013f b9b3 303d ade5 d3bf 4644 e53c
000000c0: a029 773e 8943 4fbe aef9 3d3e 19bc b93b
000000d0: 6e18 9dbf 5aa8 94be ebda 353f 4cbf 0f3f
000000e0: fa9b 84be cb9d 473f 139c 2bbf 5424 a03c
000000f0: b309 a0bd df05 6cbf 04c4 123c 6b70 2abe
00000100: fa7e bdbe 7583 833d 7220 6dbe ec6f 8b3e
00000110: 38a5 ffbe c929 e33c 3fc2 84bf 3a45 85bf
00000120: 0a04 bcbe c402 44be fa43 70be 0305 9a3b
00000130: 6962 9dbf 062c 4d3f c9f1 f4bd 60ef 7f3e
00000140: e5cf 233f d129 633d dc8f de3e 24cb 5d3f
00000150: 784c 163e abaf 8d3e 609b 9c3c 95fd cdbf
00000160: 452b 16c0 b17a 90bf 4fff 71bf 8124 53bf
00000170: dfd3 e63d 6465 0a3f 0639 0b3f bc59 843e
00000180: 1af5 77bf 1241 1fbe 28b3 21bf 37f0 cabd
00000190: dd14 e13e 2277 7abe 1e47 3abd 0f43 bbbe
000001a0: 9008 5cbf a049 16be a1c6 e53e ca2b f2bf
000001b0: 8543 5cbf e3bd 12bf aa2d ad3d 8558 b73e
000001c0: c52b cd3d c122 5dbf 2137 cf3c 9d45 823f
000001d0: 2e3f 07bf e851 fc3e 6906 d0be cc1f 0bbf
000001e0: 5c07 8bbe 4320 b5bd eedf abbe 885a 4ebd
000001f0: d10f 0bbe ebe9 18be 7bb5 30bd 3caa 1bbf
00000200: 95a7 523e 8232 90be cb92 b13e 03a9 e23e
00000210: c8ff 17bf 230e 33c0 ab83 b33e 9a2d 25bf
00000220: 2f69 6abd aeab edbe 55d4 86be d1f1 55be
00000230: 68ac ccbe c866 ee3d c711 913e 5ccf 3bbe
00000240: cacb 0dc0 1ae1 09bf 8a02 7bbb fc8b 03c0
00000250: f531 883b a76f a83e a45e 613e b7bc 51bf
00000260: 3aad 4b3d 26cc a63d 79eb 77c0 9534 533e
00000270: 17a1 cabe 560b 2cbe 9aa3 f9bc bba2 e3be
00000280: 2deb a83d f32a 59bf 7aa6 09bf b71c 1abf
00000290: ef6b bcbc ffcc d43e e8a7 88bf 4c2b 8fbe
000002a0: bf2f 68be 0c92 a8be a684 1d3f 8509 9e3e
000002b0: 36ca c6be 6e5a b9be d9c2 6dbe d6a8 7bbe
000002c0: e511 b8bd c72b 77be 55ee 13c0 ad65 f339
000002d0: 0366 153a 66dc 85bf e686 5ebf 46b5 843d
000002e0: db5e 063e c9a7 cf3d 2e15 02c0 9397 b3be
000002f0: 75a3 1cbc 8214 8fbe ef27 393e 1364 5b3c
00000300: 2895 c5be eec2 41be 3402 d73d 2508 713d
00000310: 54cb b5be 11b7 06be 9876 523d 4bce b4bd
00000320: 34e9 afbd f16e 08bf 3fa7 47be de20 973e
00000330: 6b84 273e 9555 373e 244e 3dbe 0437 d4be
00000340: 7b96 57bf 0be1 1b3f 0e94 b43d b464 53bf
00000350: ef24 b2bc d3ac c93d 3271 c0be f674 903e
00000360: cef0 27bf 294a 20be f893 d83c 5809 aa3c
00000370: 50bb 943e fe0b 323e e72b f63d 0c80 b4be
00000380: 226e 1a3e 2887 3cbf c4c1 1e3f 61b2 c1be
00000390: e07d a6bf 1126 ffbd 2ecf c2be 62be 6bbe
000003a0: c451 8d3d c6bb 4b3e 146f 59be b590 91be
000003b0: ce82 433e 241b a33d 7afe 91bd 3759 95be
000003c0: 58ef 953e 2d03 8fbd 2b6e 45be 5be3 2fbd
000003d0: db68 e73e 17a3 2ac0 eba6 8abf 2218 783e
000003e0: 85f7 8e3e 5a21 1f3e 5995 23be 07b0 25bf
000003f0: 3ede f03d 124f 51bd 8610 19bf 7154 14bf

q1.2.bias f4 [256]
0.33779806 0.07551631 0.027956598 0.06879245 0.018601114 0.15720719 0.3561055 0.10985296
-0.012853784 0.14400893 0.22386411 -0.042246636 0.2151104 0.21568714 -0.06900049 0.31170276
0.010377233 0.41343215 0.08796943 0.10784273 -0.06827216 -0.043394882 0.39110833 0.18575144
-0.028012633 0.17861088 0.2848381 0.01661507 0.12302046 0.054315366 0.075341865 0.18728113
0.116799794 0.14559114 0.2962761 0.057921186 0.34499878 -0.036061376 0.036223818 0.20417447
0.04696934 0.10823077 -0.060371388 0.14588001 0.13891792 -0.07553713 0.10567094 -0.070020854
0.12312623 -0.033092365 0.19203524 0.24444523 0.04136199 0.0068223164 0.04450403 0.382168
0.12802322 -0.07377477 0.19751006 -0.06680787 0.06796637 0.12277277 0.18449327 0.14455417
0.13470405 0.089821436 -0.068236396 0.033133104 0.21676512 0.010685262 0.15950407 0.16435488
0.020711249 -0.017847808 -0.02445834 -0.050828736 -0.0451108 0.027993256 0.31971222 0.18712972
-0.029284103 0.1320312 0.37744015 0.1375342 0.21076196 0.030710772 0.09108829 -0.030279702
-0.067564905 0.14812122 0.028074464 -0.029523065 0.043344483 0.19927719 -0.067341544 -0.013410157
0.3440721 0.39475933 0.20309629 -0.07304469 0.03395498 0.11291057 0.09021519 -0.04650204
0.3687072 -0.1121201 0.27578464 0.12881422 0.102222435 -0.19535142 0.15814354 0.10420948
0.21653084 -0.118306205 0.15517442 0.42962217 0.15743999 -0.11289208 0.2678418 0.12159452
0.17065775 -0.036712658 -0.07385686 0.10931781 0.18651113 -0.03615667 0.21047467 0.037448045
0.23350483 0.20978917 -0.023245834 0.15338834 0.16787918 -0.0051662573 0.17909417 -0.014255217
-0.056016054 0.0074168392 0.10908651 0.1841975 -0.06373758 0.16076079 0.32011107 -0.015800215
0.11217478 0.10353819 0.16693428 0.09406768 0.14739117 0.116402104 0.42625436 0.037945062
0.17414764 0.022233736 0.20158565 -0.116117604 0.2776023 0.008995302 -0.0069715427 0.35257074
0.21198127 0.11338464 0.15074271 0.11620123 0.099042036 0.00044840705 0.13308617 0.1038661
-0.108248025 0.0019367463 0.021159604 0.17011084 0.122189924 0.14183617 0.014052554 -0.06663324
0.105985254 0.043172058 0.08932406 -0.005494186 0.09415091 0.27759454 0.029197352 0.08583933
0.18761829 0.029975977 0.12607776 0.21012951 0.21211354 -0.0015592842 0.18403848 -0.119613536
0.014795486 0.031925213 0.007510747 0.19054055 0.0028190797 0.1808717 0.31460395 0.14183879
0.42196134 0.33929053 0.016049426 -0.08289003 0.13732445 0.28722247 0.03056112 -0.033668846
0.15002155 0.39815214 0.018340116 0.11168677 0.18361482 0.12763034 0.054883238 0.10483425
0.011880415 0.38046667 -0.050973028 -0.04660013 0.18201196 0.29267132 0.09151326 0.20166653
0.38876224 0.1706941 0.24250695 0.32335955 0.19437572 0.120492615 0.0048456946 -0.024472171
0.39952517 -0.021473134 0.42795694 0.07004633 0.14296585 0.17643641 -0.065205686 -0.06786482
0.21420635 -0.05617621 -0.047639377 0.17913166 0.36771572 0.099971846 0.1138798 0.12393994
0.19161089 0.16040829 0.14444849 0.15251037 0.16114531 0.10221025 0.267438 0.27075315
00000000: def3 ac3e 4ca8 9a3d 3c05 e53c 0ee3 8c3d
00000010: 5d61 983c ecfa 203e 7653 b63e 97fa e03d
00000020: ad98 52bc 1477 133e a23c 653e cf0a 2dbd
00000030: e745 5c3e 17dd 5c3e 2150 8dbd 8197 9f3e
00000040: 4505 2a3c 61ad d33e 5129 b43d a6dc dc3d
00000050: 46d2 8bbd d5be 31bd 5a3f c83e a035 3e3e
00000060: c07a e5bc c5e5 363e 4dd6 913e 541c 883c
00000070: 27f2 fb3d ca79 5e3d d64c 9a3d a0c6 3f3e
00000080: bb34 ef3d d815 153e 80b1 973e c43e 6d3d
00000090: aea3 b03e 18b5 13bd 6d5f 143d 1d13 513e
000000a0: ec62 403d 18a8 dd3d fd47 77bd 9261 153e
000000b0: 8040 0e3e 36b3 9abd 016a d83d 1867 8fbd
000000c0: 9b29 fc3d dc8b 07bd e3a4 443e da4f 7a3e
000000d0: 316b 293d bd8d df3b dc49 363d 86ab c33e
000000e0: 8518 033e 3a17 97bd 1440 4a3e 91d2 88bd
000000f0: f431 8b3d 4a70 fb3d ceeb 3c3e 0206 143e
00000100: dcef 093e 4df4 b73d 86bf 8bbd 94b6 073d
00000110: adf7 5d3e 3d11 2f3c 0955 233e a54c 283e
00000120: a3aa a93c 9135 92bc db5c c8bc cb31 50bd
00000130: 1ac6 38bd 1d52 e53c 52b1 a33e ef9e 3f3e
00000140: 37e5 efbc 3033 073e d63f c13e c4d5 0c3e
00000150: fcd1 573e 2895 fb3c 7f8c ba3d 230d f8bc
00000160: 785f 8abd 17ad 173e 6bfc e53c 5bda f1bc
00000170: fc89 313d 520f 4c3e 5dea 89bd 46b6 5bbc
00000180: 382a b03e e51d ca3e 79f8 4f3e 7498 95bd
00000190: 6114 0b3d a83d e73d bec2 b83d ec78 3ebd
000001a0: 31c7 bc3e 399f e5bd a533 8d3e e0e7 033e
000001b0: ff59 d13d 340a 48be 61f0 213e c86b d53d
000001c0: 43ba 5d3e 864a f2bd 0be6 1e3e 70f7 db3e
000001d0: f337 213e f633 e7bd 8f22 893e 8c06 f93d
000001e0: e8c0 2e3e 0360 16bd 4442 97bd 04e2 df3d
000001f0: c6fc 3e3e 0419 14bd ac86 573e 1f63 193d
00000200: e41b 6f3e f9d2 563e 0c6e bebc d511 1d3e
00000210: 85e8 2b3e b549 a9bb 7664 373e b78e 69bc
00000220: 1771 65bd f508 f33b c068 df3d 459e 3c3e
00000230: d988 82bd 7a9e 243e 99e5 a33e 746f 81bc
00000240: e4bb e53d d50b d43d d2f0 2a3e 8ea6 c03d
00000250: b6ed 163e 3a64 ee3d 033e da3e 486c 1b3d
00000260: c253 323e 8623 b63c 786c 4e3e 11cf edbd
00000270: e321 8e3e 0861 133c 8a71 e4bb 2784 b43e
00000280: 9e11 593e 3536 e83d 4c5c 1a3e e9fa ed3d
00000290: 8dd6 ca3d 2d18 eb39 be47 083e c0b7 d43d
000002a0: 24b1 ddbd 6cda fd3a e856 ad3c 8931 2e3e
000002b0: b63e fa3d 803d 113e af3c 663c 0277 88bd
000002c0: cc0e d93d 2fd5 303d 88ef b63d 9308 b4bb
000002d0: 31d2 c03d df20 8e3e 492f ef3c 88cc af3d
000002e0: 021f 403e 2e90 f53c 871a 013e 312c 573e
000002f0: 4b34 593e e560 ccba 9574 3c3e f1f7 f4bd
00000300: c468 723c 03c4 023d b61c f63b 101d 433e
00000310: 4fc0 383b 6e36 393e c513 a13e 303e 113e
00000320: 510b d83e 7db7 ad3e 167a 833c 40c2 a9bd
00000330: c89e 0c3e d30e 933e 505b fa3c 58e8 09bd
00000340: 409f 193e 99da cb3e 033e 963c 09bc e43d
00000350: 8605 3c3e 87b1 023e 3fcd 603d 57b3 d63d
00000360: 12a6 423c 87cc c23e 18c9 50bd c7df 3ebd
00000370: 5861 3a3e 04d9 953e 4e6b bb3d ac81 4e3e
00000380: d80b c73e 6fca 2e3e be53 783e 628f a53e
00000390: 6e0a 473e d5c4 f63d a2c8 9e3b dd79 c8bc
000003a0: 908e cc3e 6de8 afbc 2c1d db3e 7374 8f3d
000003b0: a465 123e bfab 343e 8f8a 85bd b6fc 8abd
000003c0: e958 5b3e 0719 66bd 8221 43bd 4a6e 373e
000003d0: 3c45 bc3e 0abe cc3d d039 e93d 39d4 fd3d
000003e0: a535 443e 1242 243e 4eea 133e ae2b 1c3e
000003f0: 4703 253e 9c53 d13d a2ed 883e 28a0 8a3e

q1.4.weight f4 [1, 256]
-1.6218134 0.021243887 -0.046273377 -0.17358732 -1.506174 0.33248854 -0.510573 -0.3283108
-0.012054692 0.25231087 0.18397284 -0.015445322 0.20027816 0.104093574 -0.0064373184 -0.69325954
-0.00035986153 -0.91073906 0.1131745 0.40429467 0.0028923745 -0.23032953 -2.4904022 0.091774575
-0.050420668 0.103349954 -1.6936483 -0.0101672765 0.11900552 0.114631616 0.35643494 0.101497546
-0.5648833 0.09304207 -1.2043132 0.00033906254 -0.35492492 -0.03027261 -0.0022513405 0.074502245
-0.33982244 0.121216305 -0.6336103 0.09160867 0.057240706 -0.4505419 0.0785055 -0.009732264
0.12731576 -0.018191615 0.10519046 -0.4976116 -0.055384215 -0.0011856272 -0.02608863 -3.1143022
0.12517524 -0.023695705 0.07383482 -0.013299911 0.05921569 0.1150088 0.10332228 0.085372396
0.05832085 -0.44060674 -0.025184328 0.0025290374 0.16541885 -0.0025968265 0.052875776 0.07499433
-0.024642609 -0.04634438 -0.0069940807 -0.013469126 -0.03236858 -0.036984306 -2.6886609 0.08775089
0.49154136 0.1314386 -0.5904144 0.07233076 -0.5430669 -0.21334915 0.078497015 -0.008896571
-0.0030222074 0.11428765 -0.009521478 -0.0025399092 0.00084195833 0.22970688 -0.02068778 -0.0369617
-0.56597775 -1.7190259 0.12871353 -0.025583275 -0.034595765 0.1306415 -1.4015181 -0.018685682
-0.6385282 0.47800347 -0.5013735 0.036987763 0.14636974 -0.6049847 0.2679231 0.12607555
0.112031534 -0.7106698 0.08840341 -0.77363485 0.06250121 -0.45573485 -0.514693 0.1218747
0.26717642 -0.038643964 -0.012098659 0.08722463 0.111433074 0.009441812 0.08948267 -0.024994707
-0.5480781 -1.361121 -0.5590639 0.13589853 0.16367127 0.006635336 0.08553715 -0.011580594
-0.032446682 -0.01933552 0.051474504 0.15636459 0.0020825441 -0.45336848 -0.4375652 0.6035923
-0.3327675 0.0855869 0.036817797 0.0028851898 0.058522183 0.24001653 -0.62844616 -0.2507505
0.09824071 -0.025405873 -2.6654768 0.426022 -0.61323917 0.0073496653 -0.00016519697 -0.5572221
0.10769928 0.06326923 -2.0788264 0.105525024 0.06842305 -0.0156114735 0.04628659 0.0037317292
-0.37729338 -0.04290312 0.004685982 0.11519233 0.054409824 0.2553156 -0.3340204 -0.22250465
0.091781385 0.015494933 -0.60473704 -0.0068997876 0.095289186 -0.6433633 0.10510797 0.10763767
0.118588835 0.20221047 0.035424355 0.096963234 0.22957325 0.008488564 -0.6229992 -0.34138474
0.6612219 -0.15518396 -0.035543878 0.08611692 -0.015201954 0.1174076 -0.42336255 0.122655995
-0.8626988 -0.36553943 -0.62626743 -1.6982074 0.17587887 -0.41771585 -0.027278982 -0.23507205
0.10441309 -0.5253802 -0.03441216 0.11991397 0.37301588 0.12837605 -0.0124062495 1.2918687
0.0063560572 -1.0687449 -0.031317018 -0.020437932 0.1075506 -0.35725978 0.03401547 0.09698464
-0.979855 0.23270561 -0.35226429 -0.306056 -0.58749336 0.07465911 -0.04125782 -0.03247173
-0.7190824 -0.30818996 -1.2132156 0.34152952 0.39470103 0.091106676 0.496505 -0.017204335
-0.67386407 -0.0024974798 -0.041423347 0.08688428 -0.58795524 0.08033023 0.06230243 0.17023535
0.11389489 0.059719592 0.09986707 0.10567144 0.1565717 0.07641069 0.19809522 0.307495
00000000: 9597 cfbf a907 ae3c 2789 3dbd e0c0 31be
00000010: 4fca c0bf f03b aa3e eab4 02bf 5a18 a8be
00000020: 0b81 45bc e42e 813e 6063 3c3e 600e 7dbc
00000030: b815 4d3e 032f d53d 24f0 d2bb 7579 31bf
00000040: ccab bcb9 3226 69bf 08c8 e73d b6ff ce3e
00000050: fe8d 3d3b 81db 6bbe c062 1fc0 4ff4 bb3d
00000060: e785 4ebd 24a9 d33d 78c9 d8bf a694 26bc
00000070: 2bb9 f33d fbc3 ea3d a47e b63e f2dd cf3d
00000080: 319c 10bf d78c be3d ef26 9abf 34c4 b139
00000090: b8b8 b5be 44fe f7bc 3a8b 13bb a294 983d
000000a0: 35fd adbe 4140 f83d 4934 22bf 549d bb3d
000000b0: 3b75 6a3d 6ead e6be 7ec7 a03d 1374 1fbc
000000c0: 105f 023e 9506 95bc 196e d73d f3c6 febe
000000d0: 8fda 62bd 0c67 9bba d3b7 d5bc ba50 47c0
000000e0: f02d 003e 7f1d c2bc b636 973d dfe7 59bc
000000f0: 278c 723d bc89 eb3d a29a d33d b9d7 ae3d
00000100: d8e1 6e3d 3597 e1be 5d4f cebc 35be 253b
00000110: 8f63 293e 852f 2abb 4594 583d a196 993d
00000120: 4cdf c9bc 9bd3 3dbd 9a2e e5bb 9cad 5cbc
00000130: eb94 04bd db7c 17bd 0513 2cc0 bdb6 b33d
00000140: 4fab fb3e d797 063e 6625 17bf 2622 943d
00000150: 6f06 0bbf 3378 5abe 0bc3 a03d ecc2 11bc
00000160: 3a10 46bb a50f ea3d f9ff 1bbc 9b74 26bb
00000170: deb6 5c3a 4838 6b3e 6b79 a9bc 2765 17bd
00000180: ebe3 10bf 0a09 dcbf 7bcd 033e 0494 d1bc
00000190: 4ab4 0dbd e3c6 053e f264 b3bf b712 99bc
000001a0: 9676 23bf dfbc f43e 045a 00bf 7b80 173d
000001b0: f3e1 153e 47e0 1abf 372d 893e f319 013e
000001c0: ca70 e53d 75ee 35bf d90c b53d ef0c 46bf
000001d0: a200 803d 1456 e9be ecc2 03bf 7199 f93d
000001e0: 59cb 883e 2249 1ebd 7439 46bc d4a2 b23d
000001f0: 0637 e43d d4b1 1a3c b142 b73d b3c1 ccbc
00000200: d94e 0cbf 3739 aebf d01e 0fbf fc28 0b3e
00000210: 7199 273e 3c6d d93b 1a2e af3d 88bc 3dbc
00000220: d0e6 04bd 8665 9ebc eed6 523d 0a1e 203e
00000230: 4b7b 083b ea1f e8be 8c08 e0be 0685 1a3f
00000240: 8060 aabe 2f48 af3d 42ce 163d 7415 3d3b
00000250: f5b4 6f3d e5c6 753e d9e1 20bf 5f62 80be
00000260: 6d32 c93d fa1f d0bc 2c97 2ac0 8e1f da3e
00000270: 3efd 1cbf 76d5 f03b b938 2db9 1ca6 0ebf
00000280: 7191 dc3d 4c93 813d 7e0b 05c0 811d d83d
00000290: 6221 8c3d 44c7 7fbc 0297 3d3d 0790 743b
000002a0: 992c c1be 2fbb 2fbd de8c 993b f5e9 eb3d
000002b0: d6dc 5e3d bab8 823e b904 abbe 42d8 63be
000002c0: e1f7 bb3d 76de 7d3c 0cd0 1abf 9d17 e2bb
000002d0: fa26 c33d 75b3 24bf d942 d73d 2471 dc3d
000002e0: b4de f23d 4310 4f3e 2119 113d a994 c63d
000002f0: 4015 6b3e 9e13 0b3c e07c 1fbf fbc9 aebe
00000300: d745 293f 8be8 1ebe 7596 11bd 115e b03d
00000310: 9e11 79bc 6573 f03d fac2 d8be 1133 fb3d
00000320: d4d9 5cbf fc27 bbbe 1053 20bf dc5e d9bf
00000330: 9719 343e dade d5be 2c78 dfbc bab6 70be
00000340: 88d6 d53d 517f 06bf c4f3 0cbd 7595 f53d
00000350: f0fb be3e 0375 033e 9543 4bbc f45b a53f
00000360: 7946 d03b a2cc 88bf 4646 00bd 736d a7bc
00000370: 7d43 dc3d c1ea b6be ce53 0b3d e29f c63d
00000380: c7d7 7abf 614a 6e3e fc5b b4be 5fb3 9cbe
00000390: f765 16bf e0e6 983d f6fd 28bd 1401 05bd
000003a0: c915 38bf 13cb 9dbe a64a 9bbf f5dc ae3e
000003b0: 4116 ca3e 2396 ba3d e735 fe3e 1bf0 8cbc
000003c0: 5b82 2cbf c2ac 23bb 87ab 29bd 63f0 b13d
000003d0: 3c84 16bf 2d84 a43d d530 7f3d 2d52 2e3e
000003e0: b941 e93d 889c 743d 1b87 cc3d 456a d83d
000003f0: 5554 203e 357d 9c3d 79d9 4a3e fc6f 9d3e

q2.0.weight f4 [256, 28]
0.37160915 0.65944386 -0.9998094 0.16576023 0.0383675 -0.2397903 -0.48201382 0.39632595
-0.046761006 -0.14574687 0.26468056 0.021983193 0.21842103 -0.2482855 0.16583936 0.0015183683
0.13082486 0.028163401 -0.020103164 -0.014144777 -0.14554854 0.21514359 0.039924473 -0.10318058
-0.08816821 0.13967615 -0.0438669 0.21107718 0.36767396 1.3484168 -0.4427697 -0.3462002
0.1749044 0.11250261 -0.15303689 0.09429916 0.07011313 0.55072224 0.24748763 0.6544491
-0.05658124 -0.049627677 -0.00025779306 0.11546843 0.09341891 0.027310563 0.08023052 0.04022776
0.007966235 0.002740112 0.27754238 0.01688227 -0.023527497 -0.24595153 -0.11832064 -0.13650443
0.011251643 -0.27138215 0.40029168 0.7911946 0.06895022 0.084674835 0.3099178 -0.07208928
-0.3356012 -0.29033738 0.17149405 -0.35280967 0.12081763 -0.24379149 -0.0075817225 -0.0014613172
0.32143804 0.31709412 0.26614898 0.26902148 0.105643384 -0.14080074 0.18360324 -0.14117976
0.12289084 -0.012211107 0.030908305 0.03408159 -0.062171005 1.13761 -0.9005604 -0.20759822
-0.25592196 -0.1844077 -0.35077137 -0.15464942 -0.071961015 -0.5930666 -0.07038629 -0.7859422
-0.0015270867 0.051942777 0.17517519 0.25000542 0.24768965 0.36662742 0.27672818 0.06834047
0.19788606 0.14630003 0.3195475 -0.22792226 0.026770255 0.088835776 0.12365847 -0.5030213
0.24739605 -0.5331689 0.30613333 -0.26538026 -0.26012313 0.060987446 -0.11567813 0.19035351
-0.1985721 0.9541916 0.056108993 0.15589367 0.1708734 0.27249533 0.1570977 0.07463341
0.371501 0.3545928 0.21656387 0.13317768 0.32380283 0.089189686 -0.03807765 -0.35279197
-0.094945274 0.22254455 -0.14103667 0.0029739717 -0.061867982 0.25670907 -0.2529768 0.958316
0.5719167 0.21082592 0.5164178 0.13873303 -0.30308366 0.66033894 0.32377243 0.61989725
0.55899274 0.6687661 0.0012090158 -0.07298975 -0.061959326 -0.23245642 -0.10182867 -0.094722226
-0.24689525 -0.27284026 -0.03256993 0.1905734 -0.020313965 -0.050119236 0.056397904 0.20459111
-0.11227556 -0.34321904 0.39856336 -0.8447702 -0.068871625 -0.6434862 0.19289768 -0.12228733
-0.28546876 0.33238912 -0.15768795 0.39639786 -0.11310356 0.016799638 -0.08872952 0.09855352
0.07142514 0.08887774 -0.13396242 0.11602713 0.22994746 -0.070036575 -0.18119356 0.03391615
0.07865107 0.36351287 -0.41840112 0.08625688 0.030151287 1.3493867 -0.24935897 -0.026410194
0.2772271 -0.0034438546 -0.058898635 -0.059679143 -0.29799253 0.262815 0.02691533 0.10957565
-0.11929192 -0.2479188 0.024426522 0.23600458 0.19157466 0.054530032 0.15627907 0.06362082
0.0022708066 0.45341077 -0.12070022 0.1811295 -0.1633738 -0.2687697 0.15466858 -0.121508025
-0.41595083 -0.8518211 0.52824366 -0.6849921 -0.19334158 -0.06513928 -0.3340858 0.25601447
0.12670012 -0.00014997114 -0.036840826 0.24721469 -0.25142756 -0.36002818 -0.15372886 0.021680504
-0.031866062 -0.107273534 0.03957582 0.08855806 -0.10685551 -0.15347631 -0.16578634 -0.08196244
0.13326907 0.070644446 -0.4398629 -0.27160627 1.0778463 -0.028487416 -2.1759107 -0.3692872
00000000: 8e43 be3e 50d1 283f 82f3 7fbf 0dbd 293e
00000010: 3d27 1d3d 978b 75be 84ca f6be 3ceb ca3e
00000020: 7888 3fbd ab3e 15be 3684 873e 1916 b43c
00000030: c3a9 5f3e 8e3e 7ebe cbd1 293e fc03 c73a
00000040: f4f6 053e efb6 e63c 64af a4bc 7fbf 67bc
00000050: ad0a 15be 9a4e 5c3e d887 233d 5750 d3bd
00000060: 8991 b4bd 4407 0f3e c7ad 33bd 9e24 583e
00000070: c33f bc3e ec98 ac3f b6b2 e2be 2741 b1be
00000080: 241a 333e c567 e63d b4b5 1cbe eb1f c13d
00000090: 7997 8f3d 22fc 0c3f 666d 7d3e fa89 273f
000000a0: bbc1 67bd 6446 4bbd 6628 87b9 b67a ec3d
000000b0: 6a52 bf3d 67ba df3c e64f a43d ddc5 243d
000000c0: d084 023c 7393 333b 091a 8e3e b04c 8a3c
000000d0: bdbc c0bc b8da 7bbe 1752 f2bd d1c7 0bbe
000000e0: d058 383c 9af2 8abe 08f3 cc3e bb8b 4a3f
000000f0: c635 8d3d 006a ad3d 8cad 9e3e 8ba3 93bd
00000100: ecd3 abbe 1aa7 94be 239c 2f3e 78a3 b4be
00000110: 3c6f f73d 7aa4 79be 1970 f8bb ab89 bfba
00000120: 8793 a43e 295a a23e ae44 883e 2fbd 893e
00000130: 8f5b d83d 122e 10be 7d02 3c3e 6d91 10be
00000140: 31ae fb3d 1811 48bc 6a33 fd3c 2399 0b3d
00000150: 06a7 7ebd 349d 913f 208b 66bf a194 54be
00000160: 3408 83be 5fd5 3cbe 4e98 b3be 6b5c 1ebe
00000170: 4c60 93bd 36d3 17bf b026 90bd 8233 49bf
00000180: 8728 c8ba f3c1 543d 2061 333e b600 803e
00000190: 5ba2 7d3e 97b6 bb3e 51af 8d3e 17f6 8b3d
000001a0: a5a2 4a3e adcf 153e bb9b a33e 7464 69be
000001b0: 4b4d db3c 88ef b53d a740 fd3d 01c6 00bf
000001c0: 6455 7d3e c27d 08bf 82bd 9c3e ecdf 87be
000001d0: dc2e 85be f9cd 793d a8e8 ecbd 08ec 423e
000001e0: 7c56 4bbe e745 743f 8bd2 653d 97a2 1f3e
000001f0: 70f9 2e3e 8284 8b3e 38de 203e 67d9 983d
00000200: 6135 be3e 308d b53e ebc2 5d3e bb5f 083e
00000210: 7cc9 a53e 15a9 b63d 4ff7 1bbd 26a1 b4be
00000220: ab72 c2bd b8e2 633e eb6b 10be f7e6 423b
00000230: 4869 7dbd 5f6f 833e 2d86 81be 3354 753f
00000240: 2269 123f c0e2 573e f533 043f 0810 0e3e
00000250: c82d 9bbe f90b 293f 80c5 a53e 96b1 1e3f
00000260: 261a 0f3f 4134 2b3f d777 9e3a a67b 95bd
00000270: 10c9 7dbd 0e09 6ebe 8d8b d0bd bafd c1bd
00000280: 1cd2 7cbe b8b1 8bbe 0c68 05bd ac25 433e
00000290: 7969 a6bc d449 4dbd 7d01 673d 5580 513e
000002a0: bbf0 e5bd 68ba afbe 7f10 cc3e dc42 58bf
000002b0: 910c 8dbd 83bb 24bf f886 453e c871 fabd
000002c0: f628 92be e82e aa3e f378 21be a9f4 ca3e
000002d0: d7a2 e7bd 659f 893c d3b7 b5bd 6ed6 c93d
000002e0: 5847 923d 8805 b63d 722d 09be a29f ed3d
000002f0: 5977 6b3e 566f 8fbd ce8a 39be a9eb 0a3d
00000300: d013 a13d 5c1e ba3e ac38 d6be 72a7 b03d
00000310: d5ff f63c b4b8 ac3f f557 7fbe 315a d8bc
00000320: b6f0 8d3e 4bb2 61bb b23f 71bd 1e72 74bd
00000330: 7a92 98be b08f 863e 8a7d dc3c 3369 e03d
00000340: 524f f4bd 6dde 7dbe 211a c83c 2fab 713e
00000350: 262c 443e e25a 5f3d 9f07 203e a24b 823d
00000360: d0d1 143b 7525 e83e ad31 f7bd 037a 393e
00000370: 764b 27be 2f9c 89be 7161 1e3e 33d9 f8bd
00000380: 82f7 d4be f310 5abf fa3a 073f a45b 2fbf
00000390: 56fb 45be be67 85bd 4b0d abbe 5414 833e
000003a0: adbd 013e 9241 1db9 68e6 16bd d925 7d3e
000003b0: 1dbb 80be 9d55 b8be 196b 1dbe 509b b13c
000003c0: fd85 02bd 3ab2 dbbd 411a 223d ee5d b53d
000003d0: 10d7 dabd e528 1dbe e5c3 29be ecdb a7bd
000003e0: b077 083e 09ae 903d b635 e1be fa0f 8bbe
000003f0: def6 893f 715e e9bc 1f42 0bc0 3613 bdbe

q2.0.bias f4 [256]
0.28408825 -0.034864683 -0.45235455 -0.2668909 -0.4137373 -0.4055613 0.27158052 -0.17541797
0.3168176 0.013567053 0.009232209 -0.34361476 0.099282935 0.1972341 0.023863703 -0.22033986
-0.43149078 0.094547234 -0.3050521 0.18481715 -0.05747234 -0.12773849 0.24322896 0.057526868
0.44669956 -0.19739008 -0.15788557 0.050428703 0.43729025 0.08230261 -0.28051484 0.05617834
0.052432228 0.3843623 0.12421425 -0.19552587 -0.22192676 -0.18923664 0.0052801734 0.2614772
0.13738114 -0.43239918 -0.31415376 0.08769887 -0.332121 0.16446422 0.21017079 -0.48992264
-0.12902747 -0.09682124 0.3119381 -0.1845356 0.106415115 0.32912242 -0.37495512 0.35626316
-0.17417023 -0.38384965 -0.46384117 -0.19728899 0.3546769 0.2704531 -0.2322217 -0.052906264
-0.035621297 -0.25457883 0.025733927 0.26933014 0.14884184 -0.026646523 0.19436038 -0.20243165
-0.25861657 -0.1818777 0.101012155 -0.20203157 -0.20311251 -0.1458762 0.10681747 -0.05459771
-0.29115912 -0.3061315 0.33773762 -0.26760176 0.30242914 -0.12492657 0.16629413 -0.23775125
0.32576978 -0.076718435 0.02298532 -0.5219888 -0.08404641 -0.003275315 0.017420918 -0.31561524
0.4881151 0.09042828 0.3757477 0.053998005 -0.17179288 -0.16623116 -0.17491485 0.18940133
-0.32444116 -0.43697456 -0.33605123 -0.039093003 -0.15032715 0.20671873 -0.15052706 0.04704772
0.0943422 -0.2736735 -0.40434545 0.21562994 -0.04482146 -0.11846602 -0.025575222 -0.015556582
-0.064874396 -0.4043089 0.11210603 -0.32626867 -0.5573853 -0.5216174 0.060031455 0.019818172
-0.24106017 -0.16969843 -0.34243408 -0.11186969 0.02012582 -0.21358761 0.17072138 0.13302739
0.28699806 0.026932273 -0.25184408 0.3631777 0.18658999 -0.07866766 -0.30162653 -0.54694915
-0.3564345 -0.12944761 0.28006986 -0.044913117 -0.32964513 0.022373158 -0.05692931 0.35256833
-0.15740725 -0.10007248 -0.24750766 -0.18171254 -0.1464473 0.00223428 -0.2101738 -0.26455683
0.009975924 0.16076803 0.06893849 -0.09723592 -0.3225561 0.22428137 0.095831946 0.1568231
0.27710423 -0.40338054 -0.12139194 -0.3191313 0.5013775 -0.23013009 0.33554256 0.090326235
0.17973049 -0.2493233 -0.26864147 0.06901442 -0.09061133 0.031148022 -0.082302466 -0.19942333
0.27363324 -0.39701384 0.22688213 0.19336326 0.27714592 0.24718615 -0.29356882 0.20079769
0.41279268 -0.048919473 -0.3636172 -0.19199024 -0.16266778 -0.208002 -0.11668804 0.00027838472
-0.014738531 -0.414952 -0.19267522 0.081194244 -0.10431986 -0.41692227 -0.028797265 -0.19043308
0.35179043 0.10942658 0.31703484 -0.10071099 -0.2934932 -0.4343177 0.096779905 0.008103191
-0.0002686979 -0.37065145 -0.18935932 -0.39577264 -0.20757537 -0.30923173 -0.16381267 -0.2758919
-0.006219795 -0.045476437 0.010617955 -0.1222289 -0.51647276 0.053897377 0.49877343 0.22399105
-0.024699248 -0.5627327 0.24686272 0.3177825 0.06725162 0.12209053 -0.4623063 -0.15717721
0.1634829 -0.019363 -0.031137444 -0.40366307 -0.24434276 -0.15202992 -0.52403134 -0.106262
0.13457571 -0.14213029 0.23177603 0.3889234 0.46563205 0.14737716 -0.5375654 -0.3802537
00000000: 0474 913e 45ce 0ebd 049b e7be eda5 88be
00000010: 60d5 d3be bba5 cfbe 9a0c 8b3e c5a0 33be
00000020: eb35 a23e 5848 5e3c b142 173c 46ee afbe
00000030: da54 cb3d bcf7 493e d07d c33c c6a0 61be
00000040: 5cec dcbe fba1 c13d ca2f 9cbe b540 3d3e
00000050: 1e68 6bbd e1cd 02be 0311 793e 4ba1 6b3d
00000060: ceb5 e43e a020 4abe c1ac 21be 548e 4e3d
00000070: 82e4 df3e 458e a83d a49f 8fbe 421b 663d
00000080: 2dc3 563d 23cb c43e 0a64 fe3d ef37 48be
00000090: c540 63be 40c7 41be 4e05 ad3b 57e0 853e
000000a0: a4ad 0c3e 6d63 ddbe c3d8 a0be 779b b33d
000000b0: c40b aabe 4f69 283e 0337 573e 24d7 fabe
000000c0: c71f 04be 374a c6bd 5ab6 9f3e e6f6 3cbe
000000d0: 2bf0 d93d bc82 a83e 1efa bfbe 2068 b63e
000000e0: ae59 32be f187 c4be 977c edbe 2006 4abe
000000f0: 3698 b53e d478 8a3e 86cb 6dbe 3db4 58bd
00000100: a3e7 11bd 2858 82be f5cf d23c a4e5 893e
00000110: ff69 183e cf49 dabc 6806 473e 3e4a 4fbe
00000120: 6469 84be 263e 3abe 76df ce3d 5de1 4ebe
00000130: bafc 4fbe 9260 15be 1ec3 da3d d9a1 5fbd
00000140: cf12 95be 45bd 9cbe f2eb ac3e 1903 89be
00000150: fed7 9a3e 80d9 ffbd 0249 2a3e 1075 73be
00000160: 4ccb a63e 8e1e 9dbd b64b bc3c 0fa1 05bf
00000170: 8620 acbd aba6 56bb 50b6 8e3c 5298 a1be
00000180: 39ea f93e 7632 b93d 0162 c03e 032d 5d3d
00000190: 79ea 2fbe 8038 2abe e11c 33be 6cf2 413e
000001a0: 271d a6be 21bb dfbe e80e acbe fc1f 20bd
000001b0: 5cef 19be 13ae 533e c423 1abe 1cb5 403d
000001c0: 7c36 c13d ef1e 8cbe 5e06 cfbe 18ce 5c3e
000001d0: b596 37bd 509e f2bd 2183 d1bc 09e1 7ebc
000001e0: dedc 84bd 9301 cfbe d997 e53d b00c a7be
000001f0: ceb0 0ebf b888 05bf 8be3 753d b859 a23c
00000200: 7ad8 76be 6dc5 2dbe 8553 afbe f01b e5bd
00000210: e7de a43c b6b6 5abe 96d1 2e3e 5538 083e
00000220: 69f1 923e 12a1 dc3c b5f1 80be 6df2 b93e
00000230: 7211 3f3e 831c a1bd cb6e 9abe dc04 0cbf
00000240: 957e b6be ea8d 04be 5165 8f3e d1f6 37bd
00000250: 3fc7 a8be ea47 b73c b52e 69bd d683 b43e
00000260: 5e2f 21be cdf2 ccbd a672 7dbe da12 3abe
00000270: 48f6 15be 006d 123b cd37 57be fe73 87be
00000280: 0f72 233c 60a0 243e 9f2f 8d3d a023 c7bd
00000290: 1326 a5be 04aa 653e 8a43 c43d 3c96 203e
000002a0: 9be0 8d3e e587 cebe 569c f8bd 2e65 a3be
000002b0: 475a 003f 39a7 6bbe 3ccc ab3e f6fc b83d
000002c0: 450b 383e 9b4e 7fbe 608b 89be 6f57 8d3d
000002d0: 6f92 b9bd 232a ff3c 328e a8bd a135 4cbe
000002e0: a819 8c3e 6645 cbbe ca53 683e 0501 463e
000002f0: 12e6 8d3e 5e1e 7d3e a74e 96be e99d 4d3e
00000300: 9059 d33e c95f 48bd 092c babe 1799 44be
00000310: 6292 26be 7afe 54be 24fa eebd 2af4 9139
00000320: e179 71bc 9774 d4be a74c 45be 2b49 a63d
00000330: a7a5 d5bd d676 d5be 3ee8 ebbc e400 43be
00000340: e01d b43e 0b1b e03d 6452 a23e 9041 cebd
00000350: be44 96be e45e debe 8b34 c63d 3fc3 043c
00000360: 06e0 8cb9 07c6 bdbe 69e7 41be b6a2 cabe
00000370: a38e 54be 9f53 9ebe 82be 27be b441 8dbe
00000380: 6ccf cbbb 8045 3abd eef6 2d3c 2553 fabd
00000390: 8f37 04bf 7fc3 5c3d 3b5f ff3e e95d 653e
000003a0: 1456 cabc 400f 10bf 95c9 7c3e 63b4 a23e
000003b0: 38bb 893d 9a0a fa3d 69b3 ecbe 10f3 20be
000003c0: 1068 273e 279f 9ebc f413 ffbc edac cebe
000003d0: fd34 7abe bbad 1bbe eb26 06bf e49f d9bd
000003e0: 37ce 093e 9a8a 11be b256 6d3e f820 c73e
000003f0: 5367 ee3e 0aea 163e e39d 09bf 9db0 c2be

q2.2.weight f4 [256, 256]
-0.016689355 -0.15707748 0.06838935 0.095975004 -0.20137702 0.015761204 -0.102360725 0.0748766
0.19014154 -1.5637667 0.0785134 0.015305345 -2.5469248 0.14221121 -0.2599538 0.11528757
-0.04553669 -0.1283268 0.12869518 -0.005046814 0.13749757 -0.23873144 0.17650068 0.014950467
0.13774817 0.017563619 0.16813838 0.076998405 0.09600212 0.15661417 0.031603463 0.11362199
0.072852455 0.1377866 -0.10036061 -0.012109375 -0.07426277 -0.031452365 -0.09594913 0.07172619
0.0459349 -0.27617607 0.044304736 0.015679358 -0.09774396 0.071448945 0.17673592 0.037526358
-0.016813766 0.015072846 0.1690298 -0.15714431 0.023749184 0.2772278 0.063931406 0.065923125
-0.059810426 -0.015181085 -0.25481534 -0.0007003946 0.19874938 0.06802116 0.13437033 -0.0013807811
-0.11794863 0.06639291 0.08628384 -0.1366227 -0.025998611 0.19574353 -0.02733827 -0.10071847
-1.0629903 0.11248796 -0.06630863 -0.66781205 -0.032266725 -0.1211264 0.17872162 -0.066720225
-0.10095344 -0.0045962827 0.10547514 0.13131881 0.19885729 0.04774773 0.21783283 0.13496527
-0.06676007 -0.36104152 0.029586164 -0.073445484 0.26765472 0.22250596 0.100896604 -0.039251436
0.09409605 -0.008841664 0.07728295 -0.031163346 0.070501156 0.08858182 0.16664906 0.1527814
0.08678067 0.21220392 0.020024164 0.031245118 -0.056407418 0.20769988 -0.7021613 0.1875689
0.26664096 -0.08221482 -0.06443975 0.0576355 0.105215155 0.052676745 0.08063349 0.12675089
0.17642199 -0.29405773 0.06484809 -0.06798996 0.04985435 0.058717143 0.13848405 -0.1226603
0.039143275 0.11453086 -3.2433877 -0.016073782 0.10409013 0.15133256 0.34214586 0.21818244
0.1450409 0.16687492 -2.281898 0.025461 0.00046065715 0.0020184347 -0.096503586 -0.014371228
-0.06564322 -0.11473213 0.15494904 -0.024674268 0.0063782246 -0.0029916407 0.12682234 -0.0053399918
0.03274653 0.0042255977 0.1298663 -0.024382723 0.02085825 -0.054735407 -0.17098679 0.17477772
0.16817215 0.25006154 0.14761157 0.10677694 0.31806496 0.016168253 0.08390579 0.17645052
0.09008794 -0.10932033 0.04613841 -0.021123668 0.1521712 0.22268216 0.15177655 -0.32367158
0.029292703 -0.07218506 -0.24908817 0.14349127 0.10183508 -0.019272141 0.21238235 0.07318103
-0.0058784625 0.11645839 0.04177736 0.24405259 0.117955945 0.13186586 -0.19833119 -0.014379664
0.18994148 -0.033289514 0.09848293 0.009175109 -0.24312533 0.13018577 0.19029234 0.07413504
0.16780151 -0.019508556 -0.61051995 0.1241044 -0.6118637 0.10730922 -0.14785056 0.043732606
-0.047891524 0.122130275 0.062203214 0.1261677 -0.122004606 -0.12150169 0.22979365 0.15459022
-0.4140717 0.04967275 0.013511486 -0.2521766 -0.1565067 -0.27953646 -0.018204955 -1.4978228
0.052475806 -0.2714449 0.08019245 0.0034856636 -0.05484079 -0.015252398 0.16516364 0.044023395
0.08548037 -0.093015514 0.12913558 0.11081877 0.033814795 0.25980332 0.097764924 0.19306579
-0.06291066 0.17605864 0.11188669 -0.035182398 -0.10585147 -0.23555948 -0.21730016 0.013273711
0.06370902 0.11565873 0.07374013 0.14820608 0.24808535 0.19000012 -1.6125022 0.06960763
00000000: 1db8 88bc ebd8 20be b70f 8c3d 8b8e c43d
00000010: c735 4ebe a41d 813c 80a2 d1bd e758 993d
00000020: 77b4 423e 8229 c8bf a2cb a03d 45c3 7a3c
00000030: d100 23c0 d19f 113e aa18 85be e41b ec3d
00000040: ae84 3abd 1a68 03be abc8 033e bf5f a5bb
00000050: 2acc 0c3e 0476 74be 98bc 343e cef2 743c
00000060: db0d 0d3e 94e1 8f3c 782c 2c3e 57b1 9d3d
00000070: c29c c43d 775f 203e a272 013d a5b2 e83d
00000080: ab33 953d ee17 0d3e dd89 cdbd 6666 46bc
00000090: 1417 98bd 32d4 00bd fa80 c4bd 2ee5 923d
000000a0: 3c26 3c3d f366 8dbe e278 353d ff71 803c
000000b0: fc2d c8bd d353 923d 43fa 343e 3db5 193d
000000c0: 06bd 89bc 19f4 763c 2616 2d3e 70ea 20be
000000d0: a68d c23c cdf0 8d3e 78ee 823d b402 873d
000000e0: c7fb 74bd 16ba 78bc 2877 82be b09a 37ba
000000f0: f584 4b3e ae4e 8b3d 6098 093e 53fb b4ba
00000100: 0d8f f1bd 02f9 873d 95b5 b03d d2e6 0bbe
00000110: 0afb d4bc fe70 483e 82f4 dfbc 7c45 cebd
00000120: 1110 88bf 1660 e63d d2cc 87bd bbf5 2abf
00000130: 1d2a 04bd 1e11 f8bd cd02 373e 9da4 88bd
00000140: adc0 cebd 6a9c 96bb 5a03 d83d 7078 063e
00000150: 3fa1 4b3e 2093 433d 920f 5f3e 5634 0a3e
00000160: 81b9 88bd 6fda b8be af5e f23c 966a 96bd
00000170: 0a0a 893e 9ad8 633e e1a2 ce3d 1dc6 20bd
00000180: 6eb5 c03d a0dc 10bc 8646 9e3d 464a ffbc
00000190: e962 903d 636a b53d 0da6 2a3e ba72 1c3e
000001a0: 10ba b13d fc4b 593e b709 a43c c3f5 ff3c
000001b0: 770b 67bd 47af 543e d8c0 33bf 1012 403e
000001c0: 2a85 883e 3e60 a8bd fdf8 83bd 3413 6c3d
000001d0: 0b7b d73d 92c3 573d 2c23 a53d fcca 013e
000001e0: f7a7 343e bc8e 96be 13cf 843d 523e 8bbd
000001f0: 1334 4c3d 6381 703d c3ce 0d3e 5335 fbbd
00000200: b354 203d 288f ea3d aa93 4fc0 2aad 83bc
00000210: 352d d53d ecf6 1a3e be2d af3e 386b 5f3e
00000220: 9a85 143e 42e1 2a3e 9e0a 12c0 9693 d03c
00000230: 5b84 f139 b747 043b aca3 c5bd 4d75 6bbc
00000240: f46f 86bd aef8 eabd f6aa 1e3e b121 cabc
00000250: 6d00 d13b 670f 44bb b7dd 013e 19fb aebb
00000260: 3a21 063d e276 8a3b acfb 043e 47be c7bc
00000270: ecde aa3c 3c32 60bd 2917 2fbe eef8 323e
00000280: 5235 2c3e 1108 803e 7d27 173e dead da3d
00000290: 69d9 a23e 4973 843c ccd6 ab3d 72af 343e
000002a0: 0780 b83d 56e3 dfbd a1fb 3c3d 8b0b adbc
000002b0: c4d2 1b3e cb06 643e 506b 1b3e 48b8 a5be
000002c0: 40f7 ef3c c3d5 93bd f810 7fbe 60ef 123e
000002d0: e98e d03d 9ce0 9dbc c27a 593e f0df 953d
000002e0: 1ea0 c0bb bd81 ee3d bd1e 2b3d ece8 793e
000002f0: e392 f13d d807 073e 5517 4bbe af98 6bbc
00000300: 0580 423e 965a 08bd 6bb1 c93d 3253 163c
00000310: d9f5 78be 6b4f 053e ffdb 423e 1dd4 973d
00000320: 29d4 2b3e 68d0 9fbc 094b 1cbf 732a fe3d
00000330: 19a3 1cbf f0c4 db3d 2366 17be f620 333d
00000340: e729 44bd 701f fa3d ccc8 7e3d 1b32 013e
00000350: 8ddd f9bd e1d5 f8bd 074f 6b3e e64c 1e3e
00000360: 3501 d4be a775 4b3d 485f 5d3c 4b1d 81be
00000370: 4b43 20be 671f 8fbe 8f22 95bc a8b8 bfbf
00000380: dff0 563d d3fa 8abe f03b a43d bb6f 643b
00000390: bca0 60bd 32e5 79bc a820 293e e051 343d
000003a0: 5510 af3d eb7e bebd 1e3c 043e f4f4 e23d
000003b0: 6281 0a3d f104 853e fa38 c83d 0ab3 453e
000003c0: 4ed7 80bd b748 343e d924 e53d 6b1b 10bd
000003d0: a8c8 d8bd 8136 71be ef83 5ebe fb79 593c
000003e0: e079 823d 7cde ec3d 1105 973d 56c3 173e
000003f0: 160a 7e3e 648f 423e 7966 cebf 728e 8e3d
