results/ppo_BipedalWalker-v3_20250602_205753/ppo_actor_step_50000.pth (torch, 28444 bytes, 8 tensors)

net.0.weight f4 [64, 24]
000000 58 09 b7 3b 16 53 aa 3d 91 32 fc bd 5f ca 28 be
       0.0055858307 0.08316629 -0.12314332 -0.16483448
000010 82 12 15 be 48 27 6a 3d 68 0e 36 bb bf 49 39 3e
       -0.14557841 0.057166368 -0.0027779583 0.18094538
000020 c2 74 14 3d b8 26 e5 3d 6b 7c 15 bd 45 3d 61 bc
       0.03624416 0.11189026 -0.036495607 -0.013747518
000030 d2 d7 6f be c8 93 ad bd b6 bf 5c bd 8b cf 1a 3d
       -0.23422173 -0.08475453 -0.053893767 0.037795585
000040 6f 25 e3 3d c7 58 1c 3e 5c 91 dd bd 8f 6b 70 bd
       0.11091124 0.15268241 -0.10818741 -0.058696326
000050 9c ad d5 3d 46 6b 4c 3e de 26 ef bb 7e a7 4b 3e
       0.10433504 0.19962797 -0.0072983345 0.19888112
000060 2c 79 39 bd d5 15 32 3c c6 4b 56 3e 2b 56 41 be
       -0.045281574 0.010869463 0.20927343 -0.18880527
000070 18 36 0b be ec cf 75 bd 4c 1f 86 bd 43 4f 3d 3e
       -0.13594854 -0.060012743 -0.06548938 0.18487267
000080 60 6a f4 bd 17 06 db bd 41 aa 3a be 8c 5b 40 be
       -0.11934352 -0.10694521 -0.18229009 -0.18784922
000090 06 ca ab bd f8 7a 35 3e d2 cf b6 3d 2a df c6 3d
       -0.08388142 0.1772269 0.08926357 0.09710534
0000a0 29 1e 12 3c 4e 0b da bd e7 f6 05 3d 7d 07 45 be
       0.008918324 -0.106466874 0.032706168 -0.19241138
0000b0 c1 e2 18 be 69 90 db bd 6c 80 02 3e 29 d5 f3 3d
       -0.1493025 -0.107209034 0.12744302 0.119058914
0000c0 a3 08 f1 bd a8 a5 44 bd 74 12 30 3e b8 82 47 3e
       -0.117692254 -0.048009545 0.1719454 0.19483459
0000d0 05 59 82 3d 18 ac 17 3d df 61 fb 3d cc a6 df bd
       0.063646354 0.037029356 0.12274527 -0.10920486
0000e0 e0 81 30 3d 6e 72 28 be 62 c4 24 be ab c8 f9 bd
       0.04309261 -0.16449901 -0.16090539 -0.121964775
0000f0 c8 39 fb 3d e2 f0 a8 3d 5a ac 0b be d2 15 3d 3d
       0.1226688 0.0824907 -0.13639966 0.046163388
000100 9f b8 c5 3d 10 22 29 bd b1 ce fd bb 54 1f 02 3d
       0.09654354 -0.04129225 -0.007745587 0.031768158
000110 e5 9a e3 3d 76 cf 38 3e f7 5e 2f be f0 3d ae bd
       0.11113528 0.1804789 -0.1712607 -0.085079074
000120 08 54 a2 3d fe 9d 2f 3e f8 91 4c 3e 83 5d 28 3e
       0.07926184 0.17150113 0.19977558 0.16441922
000130 b8 c9 37 3d 24 ee 37 be ed 6a 39 bc 5a 50 07 be
       0.04487011 -0.17961937 -0.011316997 -0.13214245
000140 dd 1a 4e be ca 64 4e 3e 71 87 23 3e 4f 8c 48 be
       -0.20127435 0.20155635 0.15969636 -0.19584773
000150 12 5e 9b 3a 58 b5 cd bb 4c 56 04 bd 16 b9 bc bd
       0.0011853597 -0.0062777214 -0.03230886 -0.0921499
000160 db 6d a3 3d a6 f0 f4 bd ba f2 9b 3d d8 2b d6 3d
       0.07979938 -0.119599625 0.07614656 0.10457581
000170 47 10 17 3e 58 01 9f 3d a0 2a 4c be cc 39 f9 bd
       0.14752303 0.07763928 -0.19938135 -0.12169227
000180 22 ec a9 3d b1 ad a5 3c bc 02 f0 bd 6c ae 21 be
       0.08296992 0.020224424 -0.117192715 -0.15789193
000190 4a db 4f 3e 78 d7 33 3e f0 06 21 bd 1b ff 7b bd
       0.20298496 0.17562664 -0.039313257 -0.061522584
0001a0 68 6b 46 be d1 95 8c 3c 5c a0 dd bd db 48 e0 bd
       -0.1937691 0.017161282 -0.10821602 -0.10951396
0001b0 59 01 aa bd 84 1d 04 3d cc e0 43 bd 5f ae 20 3e
       -0.08301038 0.03225471 -0.047821805 0.15691517
0001c0 64 14 b5 bd e9 55 62 3e 2a ee 33 3e ea 95 0b be
       -0.0884178 0.22103085 0.17571321 -0.13631406
0001d0 bd 15 75 bc 5b 6d 38 3d c0 47 85 3d f2 19 b4 3d
       -0.014958796 0.045026165 0.06507826 0.08794011
0001e0 2d 45 85 3d 4f 80 1f 3c d6 1a ad bd 1c 1d 95 3d
       0.06507335 0.009735181 -0.08452384 0.07280943
0001f0 8e 18 4b be b9 96 04 be a7 f7 0a bc 57 e7 97 bd
       -0.19833586 -0.12948121 -0.0084818965 -0.074171714
000200 15 ae b3 bd a8 02 21 be dc 09 9a bc 77 fe 8a 3d
       -0.08773438 -0.1572367 -0.01880353 0.067868166
000210 d1 a1 3a be d6 be 13 3d 90 89 20 3e ce 11 29 bc
       -0.1822579 0.036070667 0.15677476 -0.010319186
000220 3a de 85 3c 0a 55 e3 bb d1 d9 54 3d 87 c7 0f 3e
       0.016341317 -0.0069376277 0.05196554 0.14040957
000230 d9 d9 50 3e a6 8d 0f 3e bb 09 53 3e 4e f4 80 3b
       0.20395602 0.14018878 0.2060918 0.0039353734
000240 dd 13 59 be 38 9e e4 bd dd 15 15 3e 76 d2 c2 bb
       -0.21198983 -0.1116299 0.14559121 -0.005945499
000250 cf c7 a1 bd 0a e5 f8 bd 55 8e 18 be 55 2d 07 be
       -0.078994386 -0.12153061 -0.14898045 -0.13200887
000260 2a a3 3b bd f4 da f0 3d ce 1d c1 3d 02 bd 5a be
       -0.045809902 0.11760512 0.09429513 -0.21361163
000270 c6 45 05 3e 30 4e 13 be 77 ec 77 bd 96 19 cd bd
       0.13014898 -0.14385295 -0.060528245 -0.10014646
000280 ba 18 68 bd 3a 18 6b bd 7d 48 4d be fb 33 46 be
       -0.056664206 -0.05739615 -0.20047183 -0.19355766
000290 d4 e5 49 bd 96 f4 76 bc 64 5b e2 bd 55 f6 80 3d
       -0.049291447 -0.015072962 -0.11052588 0.06296984
0002a0 40 49 45 be e6 58 08 bd 4e 7e 5b 3e 55 9f 04 be
       -0.19266224 -0.033287905 0.214349 -0.12951405
0002b0 22 79 0d 3e 5c 0b 8d 3d 4c 05 26 be 0e 5f 12 3e
       0.1381574 0.06886932 -0.16212958 0.14294073
0002c0 7f 82 a5 bb 56 64 3b bd a9 0a 52 3e 83 00 de bd
       -0.0050509567 -0.045749985 0.20511879 -0.10839941
0002d0 71 a6 c4 bc 95 12 17 bc 08 63 36 3e 5c f5 b6 3d
       -0.024005147 -0.009220739 0.17811215 0.08933517
0002e0 92 93 05 3e 54 ee d5 3d 12 f7 88 bc 6c 6b 2d bc
       0.13044575 0.10445848 -0.016719375 -0.010584693
0002f0 d2 1f 0b be ba 5e 12 3e ab 0c 4a 3e b1 06 3b 3e
       -0.13586357 0.14293948 0.19731395 0.18264271
000300 a8 97 da bd d6 fe 4f bc 91 64 b8 bd f7 bc 30 be
       -0.106734574 -0.012695035 -0.090035565 -0.17259584
000310 79 18 39 be bb bf c1 3d 53 56 e7 bd 90 19 88 bc
       -0.18075742 0.09460398 -0.11295762 -0.016613752
000320 dc 9b 48 3d 27 fd 48 3e a7 a0 06 be 7a 01 9f bd
       0.048976764 0.1962782 -0.13147222 -0.077639535
000330 b0 03 2e be 72 44 79 3e b4 4b 29 3c f4 03 83 3e
       -0.16993594 0.24342516 0.01033299 0.25588953
000340 7b 4e 21 3e 17 6b e0 3d d9 66 a8 3d fc a4 31 3d
       0.15752594 0.10957926 0.08222742 0.043370232
000350 db df df 3d 77 d9 17 3d e7 13 b9 3d c3 72 03 3e
       0.10931369 0.037072625 0.09036999 0.12836747
000360 eb 00 37 be 76 d8 0a be b8 af 3e 3e ec f8 45 be
       -0.17871444 -0.13559136 0.18621719 -0.19333237
000370 77 0d a3 bc e3 77 78 3e 00 90 e9 3d d8 da 81 bb
       -0.019903881 0.24264483 0.11404419 -0.003962856
000380 73 3a 16 be 1e a4 1f 3e 1c af f6 bd 08 47 0d bc
       -0.14670734 0.1558995 -0.12045118 -0.008622892
000390 6d bc 03 be dd 7f be bc 67 9f 09 3d 1a 89 4c 3e
       -0.12864847 -0.02325433 0.033599284 0.19974175
0003a0 0e d8 68 3d 28 4f 5b 3e 0a ed 1f 3e 72 3f c8 bd
       0.05684667 0.21416914 0.15617767 -0.09777726
0003b0 b3 7f fb 3d 82 a1 e7 bd 70 da 56 bd f3 f7 cd 3d
       0.12280216 -0.11310102 -0.052454412 0.10057058
0003c0 8c 2c 58 3d 96 83 19 3e 90 76 50 bd a8 fb b6 3b
       0.05277686 0.14991602 -0.05089432 0.005584199
0003d0 9a 1a f2 3d ce 0b 4c be c3 cc 2f 3e 99 71 0d be
       0.1182148 -0.19926378 0.17167954 -0.13812865
0003e0 4b 9c 63 bc 83 6c 45 bd b8 74 e0 bd 64 1a 7e 3c
       -0.013892244 -0.048199188 -0.10959762 0.015509222
0003f0 5b 8d 12 3e 7a a3 40 bd 4d f5 0c be 2e 64 bc bd
       0.14311735 -0.047030903 -0.1376545 -0.09198795

net.0.bias f4 [64]
000000 ae 82 b4 bc 2a 76 83 3d f7 20 a4 3d 4e 81 7e 3b
       -0.02203497 0.064190224 0.080141 0.0038834396
000010 dc 4f 70 3e 67 6f fa bd 27 02 82 3d 6b e3 68 3e
       0.23467964 -0.122282796 0.06348067 0.22743003
000020 42 6d 8b 3d 28 6f 4f 3e a9 ec 62 bc 75 3d ec bd
       0.06807949 0.20257246 -0.0138503695 -0.115351595
000030 45 e8 ed bd 9c 42 cc 3d da 6d 37 bd cf c2 dc 3d
       -0.116165675 0.09973642 -0.044782497 0.10779344
000040 5b cb 83 3e b2 95 e5 3d 2b ca f0 3c 0f 08 fa 3d
       0.25741085 0.11210193 0.029393276 0.12208568
000050 6f 85 04 be 2a e8 3a be 22 47 0f be 4c 21 31 be
       -0.12941526 -0.18252626 -0.13991979 -0.17297858
000060 f8 15 b3 3d 38 bc 02 3d 15 f8 35 bd b6 47 42 be
       0.087444246 0.03191778 -0.044426043 -0.18972668
000070 41 bf d1 3d 68 9c 80 bd 91 1e 9c bc 16 62 2b be
       0.10241557 -0.06279832 -0.019057544 -0.16736636
000080 09 6e 47 bd 87 71 77 3d e5 a5 53 be d6 7a d3 bd
       -0.048688922 0.060411002 -0.20668752 -0.103261635
000090 42 c1 04 3e 44 54 14 be f9 c1 9e bd 4e cd 2b bd
       0.12964347 -0.1448527 -0.07751841 -0.04194384
0000a0 b1 b4 15 3e d0 61 1a be 67 96 87 3c 7d df 1b 3e
       0.1461971 -0.15076375 0.01655121 0.15221973
0000b0 23 69 4a bd b7 59 25 bc 1a 71 1f be 95 41 e6 3d
       -0.049416672 -0.0100921905 -0.15570489 0.112429775
0000c0 8a 5b 24 3e 9d e6 e9 bc 7f 76 30 be 65 91 4f 3d
       0.16050544 -0.028552348 -0.17232703 0.05067577
0000d0 52 ba 4d 3e 98 0a bb bc 93 e2 ef 3d 55 01 44 3d
       0.20090607 -0.0228322 0.117131375 0.047852833
0000e0 ef f6 6e bc 66 0c 52 3d d2 7e 3e 3e af 29 9a 3c
       -0.014585241 0.051281355 0.18603066 0.018818704
0000f0 e5 f6 9b bd fa 40 3c 3c 2c 12 11 3e 17 54 1d bc
       -0.07615451 0.011490101 0.14167088 -0.009602568

net.2.weight f4 [64, 64]
000000 b8 5f 87 bd 4b da e7 3d 73 66 9b 3d 0e 46 ab bd
       -0.06610054 0.11320933 0.075879 -0.08362971
000010 cc 24 de ba 64 0d a2 bc fe fb f8 3c a7 2b 82 bb
       -0.0016948222 -0.019781776 0.030393597 -0.003972489
000020 bd f4 d4 bd cc 94 10 bc 3f e1 b1 3c 11 25 a0 3b
       -0.103982426 -0.008824538 0.021713851 0.004887231
000030 46 53 47 bd 30 26 18 3d 82 e6 09 be cc 70 83 3c
       -0.0486634 0.037145793 -0.13466838 0.016044997
000040 6c 2c 68 3d 2d b7 63 bd 1c 15 dd bd da c9 d6 bc
       0.05668299 -0.055594612 -0.10795042 -0.026219297
000050 a6 56 fe bb fc a7 fe bd 6e e9 c4 bd 9f a2 db 3d
       -0.007761794 -0.12434384 -0.09614836 0.10724377
000060 ce 4c b2 3d 65 ab a1 3d 7b b4 9f 3d ab f1 96 3c
       0.087060556 0.07894019 0.07798096 0.018425783
000070 f6 e4 96 3d a7 98 4c 3d 98 03 12 bd c2 c4 03 bd
       0.073678896 0.049950268 -0.03564796 -0.032170065
000080 8d da 8b 3d 09 6b 88 ba 29 fa d1 bd 1b 6a c7 bd
       0.06828795 -0.0010407876 -0.102527924 -0.09737035
000090 7b ce 66 3d 88 7d c1 3d 54 6f ca 3d 19 05 05 3d
       0.05634926 0.09447771 0.098845154 0.032475565
0000a0 52 c0 56 3d 1f 79 f3 bd 9b be a8 bd f8 c8 0b be
       0.052429505 -0.118883364 -0.0823948 -0.13650882
0000b0 d4 b5 d8 3d 02 32 74 bc fa b7 86 bd d9 bb 00 3d
       0.10581556 -0.014904501 -0.065780595 0.031429145
0000c0 57 c7 9e bd 2f 66 a4 bd 2b 74 38 3d c0 1c a5 3c
       -0.07752865 -0.080273025 0.04503266 0.02015531
0000d0 80 84 c7 bd 4d a7 d8 bd d4 2d 80 3d c7 0a c3 3d
       -0.09742069 -0.10578785 0.06258741 0.0952354
0000e0 d2 af 05 bd ae 2c 99 bd f9 5c 74 3d 8b c0 09 bd
       -0.03263838 -0.07479225 0.059658978 -0.03363089
0000f0 07 61 12 be a9 07 a3 bd 70 ca f1 3c 13 2e 6b 3d
       -0.14294825 -0.079604454 0.029515475 0.057416987
000100 23 54 a3 bd 64 7e 04 3d 20 bf a4 bd 04 0e d7 3d
       -0.07975032 0.032347098 -0.08044267 0.1050072
000110 f9 15 6b 3d a9 f7 fb b9 8c 11 fb 3c c7 e8 49 3c
       0.057394 -0.00048058972 0.030648015 0.012323565
000120 bf 9a d4 bd 78 03 05 bd 02 71 9e 3c 07 a4 19 bd
       -0.10381078 -0.03247401 0.019340996 -0.037509944
000130 ed 19 d6 3d 49 a2 6a bd 39 c1 1c be dc ad 86 bd
       0.10454164 -0.057283673 -0.15308084 -0.0657613
000140 be dc 07 be 41 7f 9d 3d 88 41 a8 bd 39 87 f4 bd
       -0.132678 0.076902874 -0.08215624 -0.11939854
000150 c9 77 9f 3a a2 d3 00 be 3a c9 a3 bd 06 d4 1e 3d
       0.0012166436 -0.12580732 -0.07997365 0.03877642
000160 2e ae ee bd 14 0a ad 3d 97 6e 58 3d 93 82 19 3b
       -0.11654316 0.08449188 0.05283984 0.0023423776
000170 c0 5c 35 3d 6e 83 e2 bd d1 69 97 3d 57 ee b3 3d
       0.044277906 -0.110602245 0.0739323 0.08785694
000180 d7 9c 10 bc d9 be a0 3d 17 8c 06 be 9c 05 8a bc
       -0.008826456 0.07848901 -0.13139378 -0.016848378
000190 e7 c3 15 bb ea 8b 01 be 04 81 59 3d 39 b7 72 bd
       -0.0022852363 -0.12651029 0.053101555 -0.059256766
0001a0 d1 d7 82 bd 79 d0 b1 bd a7 50 5a 3d 9e 22 02 be
       -0.0638882 -0.08682341 0.053299572 -0.12708518
0001b0 29 59 4e bd c7 45 db 3c 4c db c0 3d 41 db 24 bc
       -0.050378 0.02676667 0.094168276 -0.01006204
0001c0 77 48 04 bd 5d 0d 97 bd c5 70 62 3d 38 4d ef 3b
       -0.03229567 -0.07375596 0.055283327 0.0073029064
0001d0 6b 22 9e 3d 74 6a 69 3d 69 63 8c 3d 21 ba f6 bd
       0.077214085 0.056986287 0.068548985 -0.1204722
0001e0 48 6d a0 3d a3 4f 75 bd dd d9 4b bd 8a 2e 54 bd
       0.07833344 -0.0598904 -0.049768317 -0.051802196
0001f0 ab d3 c0 bc 3f 4a ea 3b 61 87 ac 3d 85 02 b3 bd
       -0.023538431 0.007149964 0.08424259 -0.08740715
000200 4f 33 82 3d 26 f9 a4 bd 3e 00 46 3c ae a7 fa 3d
       0.063574426 -0.08055334 0.012085019 0.122390136
000210 a3 2d 9e 3d c1 2a dd 3d 3d b5 85 3d c9 e7 62 3c
       0.07723548 0.1079917 0.06528709 0.013849207
000220 4b 9f 2f 3d cd e2 72 bd 99 6d a7 3d 5c d4 c0 3c
       0.042876523 -0.059298325 0.08175201 0.02353876
000230 b5 58 ea bd 36 21 c4 3d 8d 3c e1 3b 95 96 59 bc
       -0.11442701 0.09576647 0.0068736733 -0.01328053
000240 b4 92 49 bd 71 69 8d bd 07 44 16 3c 6c 24 4d bd
       -0.049212173 -0.06904877 0.009171492 -0.050083563
000250 a7 eb d3 bd 70 43 99 bd dc d3 10 bd 4b 32 ce 3d
       -0.103476815 -0.07483566 -0.035358295 0.10068186
000260 91 98 bd 3d e2 a7 87 bd 43 c5 e5 3c 9b 56 d6 bc
       0.09257615 -0.06623818 0.028048163 -0.026164344
000270 df eb 94 bd 70 76 e2 bc d5 1b 83 bd e6 2b 97 3d
       -0.07271551 -0.027644366 -0.06401793 0.0738142
000280 4a d0 49 bd 9d f3 f4 3c b4 9a ce bd 92 60 aa bc
       -0.049270906 0.02990132 -0.10088101 -0.020798001
000290 66 f6 ab 3d cf df ab bd aa d8 c1 bc f9 6d d1 3d
       0.08396606 -0.083922975 -0.023662884 0.10226054
0002a0 c4 40 f3 3c 82 35 33 bd e4 ab 99 bd 05 fe 59 bd
       0.029693969 -0.0437522 -0.07503489 -0.053220768
0002b0 ac 3f 08 bd 79 3d 5c 3d 53 72 a5 bc 2a d9 a3 3d
       -0.033263847 0.053769562 -0.020196116 0.08000405
0002c0 10 8d e2 bd 15 35 7a bd d4 2f d9 3c ff fc b6 3d
       -0.11062062 -0.06108578 0.026512064 0.08934974
0002d0 f9 66 05 3e 88 2e 73 3d 24 0a 35 3d 94 60 92 bd
       0.13027562 0.059370548 0.044199124 -0.07147327
0002e0 69 80 ad 3d 2a a1 bd bd 99 5f 0f bd 64 2b 02 be
       0.08471758 -0.09259255 -0.03500328 -0.12711865
0002f0 0d c8 56 be 11 48 bd 3d fd 95 8e 3c 76 af 92 3d
       -0.20974751 0.09242261 0.017405504 0.07162373
000300 eb b0 a4 3d a4 9c 6e 3d 46 57 4f 3d ee 5e 9c bd
       0.08041557 0.058254853 0.05062034 -0.07635294
000310 1a cc 16 3d db 31 1e 3d 2d 89 33 3d ef 3c ed bb
       0.03681574 0.038621765 0.043831993 -0.00723993
000320 a6 04 ac bc 62 c7 16 bd bf df cc bd ac a1 76 bb
       -0.02099831 -0.03681124 -0.10003614 -0.0037632985
000330 78 e7 be bd e2 2a 68 3d f2 f1 e1 bd ca 58 8c bd
       -0.09321493 0.05668152 -0.110324755 -0.06852873
000340 86 6c a0 bd 3c 0a dd 3d 70 00 db bd a0 c0 e0 3c
       -0.07833199 0.10792968 -0.10693443 0.0274356
000350 d2 d5 8f 3d 75 37 8c 3d dc 22 ae 3c c6 9a 53 3d
       0.07023205 0.06846515 0.021256857 0.051661275
000360 ba b5 be 3d ae f5 36 3c 4a 0d 99 3c 3b 87 da bd
       0.09312005 0.011166973 0.018683095 -0.106703244
000370 9e 0d a5 bc 13 12 bb bc 8e 5b 28 bc 7d d1 a3 bd
       -0.020148095 -0.022835767 -0.010275735 -0.07998941
000380 19 85 ee bd 7b 92 4c bd 20 16 23 3d 2f 18 de 3d
       -0.1164648 -0.049944382 0.039816022 0.108444564
000390 ff 30 17 be d6 09 53 3d 23 2e ff bd 66 f6 10 be
       -0.14764784 0.051523052 -0.12459972 -0.14156494
0003a0 6e f2 f9 bd 2d e3 16 bd 0b 27 44 3d 29 a3 fa bd
       -0.12204443 -0.036837745 0.047888797 -0.122381516
0003b0 a4 47 b5 3d 93 65 d0 3d 00 03 fc 3b 95 db 93 3d
       0.08851555 0.10175624 0.0076907873 0.07219616
0003c0 01 c2 9c bd fc 14 7c bd d7 3c c4 bc b9 3c 25 3c
       -0.07654191 -0.06154345 -0.023954792 0.010085278
0003d0 69 20 c8 bd 79 13 97 bd f7 93 1c 3d fd 98 bd 3c
       -0.09771807 -0.07376761 0.038227048 0.02314424
0003e0 3c 9b bb 3d ad 68 88 bd bb 45 12 3d ce 99 c8 bd
       0.09160468 -0.0666059 0.03571103 -0.09794961
0003f0 f5 87 8f 3d 18 53 7f bc 81 2d aa 3d b8 c5 2f 3d
       0.070083536 -0.015583776 0.083094604 0.04291317

net.2.bias f4 [64]
000000 b8 c1 86 3d 3e e8 e2 3c 8a 7c 8c 3c f3 5d 99 3d
       0.06579918 0.027698632 0.017149229 0.074886225
000010 bb 64 88 bd df 90 e7 bd 14 49 39 bd f0 86 19 3e
       -0.06659838 -0.11306929 -0.04523571 0.14992881
000020 31 d8 25 3c 27 cb 49 bd 97 63 04 3d dc 8c af bd
       0.010122345 -0.049266007 0.03232154 -0.08571789
000030 b0 64 b2 3d 84 38 ac bd 24 55 e2 3c 45 3b 8d bc
       0.08710611 -0.08409217 0.027628489 -0.017240176
000040 81 57 f7 3c 2b db 22 3d 8c 56 b2 bd 9b 61 e0 37
       0.030193092 0.039759796 -0.08707914 2.6748332e-05
000050 ec f4 db bc 87 20 bd 3d d7 49 94 3b 0b e0 fd 3d
       -0.026850186 0.0923472 0.004525404 0.123962484
000060 d8 05 60 3c b8 75 10 be 5a c7 e0 bd 0f ee 28 bd
       0.013673268 -0.14107406 -0.10975523 -0.041242655
000070 ac 3f 58 bd 06 07 88 3d c9 e0 7b 3d 00 74 70 b9
       -0.052795097 0.066419646 0.06149367 -0.00022931397
000080 0f c5 a6 3c e6 b7 c8 3d 8d 46 23 3d 49 ee 90 bc
       0.020357637 0.09800701 0.039862204 -0.017691748
000090 cb a8 83 bd 4e f4 c0 bd ef cb 22 3d dd 10 df 3d
       -0.06428679 -0.094215974 0.039745267 0.10891888
0000a0 5c 5e de 38 a1 7a b2 3d 73 e5 12 3d ff 06 a6 bd
       0.00010603361 0.08714796 0.03586335 -0.08106803
0000b0 f4 db ae 3d a3 b8 11 3d a0 de 63 bd 3b 65 7f 3c
       0.085380465 0.035576474 -0.055632234 0.0155881
0000c0 1c 01 54 3d 7c 2a dd 3c 4c ca c3 3d e5 71 12 3d
       0.05175887 0.026997797 0.095600694 0.03575315
0000d0 c1 ad d2 3d 7a 56 5b 3d c3 18 c0 bd 4a df 2c 3e
       0.10287047 0.053549267 -0.09379723 0.16882053
0000e0 87 1b b2 ba fd b8 be 3d eb 2f 24 3e e6 17 0d be
       -0.0013588526 0.093126275 0.16033904 -0.13778648
0000f0 c9 7c aa bd 5b 29 23 3a ea 8d 37 3d 0e 3e 90 3b
       -0.08324582 0.0006224119 0.044813074 0.0044019287

mean.weight f4 [4, 64]
000000 d3 57 04 be e5 99 31 3d ce 84 a8 bd 77 b2 08 3d
       -0.12924127 0.043359656 -0.082284555 0.033373322
000010 b7 87 cf 3d 93 52 5d bd 75 04 62 3d d1 1a ce bc
       0.101333074 -0.054033827 0.05518003 -0.025159271
000020 b3 6e 60 bd 6f ce 20 bc 2a fb e2 3c e8 23 57 3d
       -0.05479307 -0.009814843 0.027707655 0.052524477
000030 7c 58 a8 bd 06 aa b4 3d 39 b8 aa bd af c9 e2 bd
       -0.08220002 0.08821492 -0.08335919 -0.11073624
000040 17 93 bd bd 2b 14 04 be 23 90 0e 3c 08 23 5b 3c
       -0.09256571 -0.12898318 0.008701357 0.013375051
000050 6a 63 c4 bc 69 bf b0 bd 71 eb 2d 3d fe d0 9f 3c
       -0.023973186 -0.086302586 0.042460863 0.019508835
000060 4c a0 a9 bc f2 7f aa ba 9f 77 59 3d 23 7b 86 bd
       -0.020706318 -0.0013008101 0.053092595 -0.06566455
000070 ea 29 7e bd 45 03 44 bd f3 28 ec 3d 88 33 fd 3c
       -0.06205169 -0.04785468 0.11531248 0.030908361
000080 1f cc ce bd 46 90 9b 3d 87 61 db bc 80 eb 33 bc
       -0.10097527 0.07595877 -0.026779903 -0.010981441
000090 24 60 0e 3b 99 17 97 3b 0e eb bf 3d 52 84 d9 3c
       0.0021724785 0.0046109674 0.09371005 0.026552353
0000a0 20 b1 9f 3c 69 ce c7 bd d7 34 83 3c 09 2c c6 bd
       0.01949364 -0.097561665 0.016016407 -0.09676368
0000b0 f5 6c 5d bd 03 43 62 3d b6 f4 fb bd 50 e3 8b bc
       -0.054058988 0.05523969 -0.12302534 -0.017076164
0000c0 a7 64 56 bd e3 20 44 3d 3c 50 bb bd d9 e5 f1 bb
       -0.052342083 0.047882926 -0.09146163 -0.0073821363
0000d0 9c cd 27 bd d6 d2 dc 3d bb 3c 8e bd dc a2 d5 bd
       -0.04096757 0.10782401 -0.06945177 -0.104314536
0000e0 2f 13 47 bd d6 78 91 3d 8d a3 a3 3c 97 51 88 3c
       -0.04860228 0.07103126 0.019975448 0.016640468
0000f0 7b ff 0a 3d fa 8c 94 3c 92 a3 1b bd aa 7c 9f bd
       0.03393505 0.01813363 -0.03799779 -0.0778745
000100 44 bb 14 be b1 64 7c 3d 99 bf e7 3d 01 a7 30 bd
       -0.14524561 0.061619464 0.11315841 -0.043128017
000110 ef ad 13 bd b5 c8 fa 3b 4e fe f7 39 c2 ee ad 3d
       -0.036054548 0.0076533207 0.00047300983 0.08492805
000120 41 3a 5f bb ae 50 a2 3c d3 a5 09 be 86 2f 0b 3d
       -0.0034061822 0.019813862 -0.13442163 0.03398087
000130 5d 25 26 3c 3b 99 0f 3d 8a 85 88 3d 74 4f 25 3d
       0.010140744 0.03505824 0.066660956 0.040358976
000140 26 80 29 bd 1f f7 9d bb fd 03 86 bd f6 89 0d 3e
       -0.041381977 -0.004820719 -0.065437295 0.13822159
000150 c3 e0 f3 3d f8 83 50 bb 7d 1a 05 3e f4 e5 08 3e
       0.11908104 -0.003181694 0.12998386 0.1336897
000160 ef cc c0 3d dc 4f 1e 3d 0d 5d 41 3d 41 f6 7c bc
       0.09414088 0.03865038 0.04720788 -0.015439571
000170 47 7f cd 3c 21 be e6 3d e6 28 a2 bc 00 ca 1f 3d
       0.025085105 0.11266733 -0.019794893 0.039011
000180 bc 3e 0f bd 18 7e ee 3c 56 a9 29 3d e3 31 87 3d
       -0.034971938 0.02911286 0.041421257 0.06601312
000190 82 2f 8f 3d 28 4f 8d 3d 3e 89 83 bc 76 7c f4 3d
       0.06991483 0.068998635 -0.016056653 0.119378015
0001a0 45 f4 ad 3d 75 41 e3 3d 4b c9 e2 bd b2 00 84 bd
       0.08493856 0.11096469 -0.1107355 -0.06445445
0001b0 1e 96 ca bd f5 98 00 bc 9c 9b c3 3d f5 51 c3 bd
       -0.09891914 -0.007848968 0.095511645 -0.095371164
0001c0 7d 9b 7d 3d 6c ee 43 bc 3f 99 ca bd 89 99 8a 3b
       0.061915863 -0.0119587 -0.098925106 0.0042297286
0001d0 11 09 e0 bb cf 17 79 bd 04 e1 99 bd 7f e5 a8 3d
       -0.0068370183 -0.06081372 -0.075136214 0.08246898
0001e0 87 33 29 3c 07 d2 ba bc 64 f7 d4 bc 43 ec c9 bc
       0.0103272265 -0.022805227 -0.025996871 -0.024648791
0001f0 3d be 48 bd 44 a0 a8 bd 62 0a 88 3d ee 4d 44 3c
       -0.04900955 -0.08233693 0.06642605 0.0119814705
000200 b4 b9 c0 bd c6 67 56 bd e5 fe 78 3b f8 56 3a bd
       -0.0941042 -0.05234506 0.0037993726 -0.045493096
000210 70 92 16 3d df 73 0e 3e ce 79 75 bd 83 e7 87 bc
       0.036760747 0.13911389 -0.059930615 -0.016589886
000220 df 70 ea 3d 99 77 06 bd 50 71 79 bd 52 4d 5c 3d
       0.1144731 -0.0328289 -0.06089908 0.053784676
000230 75 73 2e 3c e1 41 25 bc 62 28 cf 3d d1 a1 b6 bd
       0.010647644 -0.010086508 0.10115124 -0.08917583
000240 fb b9 32 bd 83 d7 c8 3d 65 f7 7a bd 8b 69 9f bc
       -0.043634396 0.098067306 -0.06127109 -0.019459506
000250 0a bc b2 3d 8d a5 27 bd 4f 28 78 bd 34 06 80 bd
       0.08727272 -0.040929366 -0.060585316 -0.06251183
000260 e3 8e ff bd d4 ef bb bd 9f 01 f3 bc 19 c9 eb bd
       -0.12478425 -0.09176603 -0.029663859 -0.11512966
000270 c7 62 55 bd 92 f9 ca 3c a4 e3 d7 3d 06 6d fc 3d
       -0.052096155 0.024777208 0.10541466 0.12325482
000280 40 ee 02 3e fe c1 33 3d 57 c9 89 3d d6 24 02 bc
       0.12786198 0.043886177 0.06727856 -0.007943353
000290 ce 9d 9c bd 15 f0 37 3d a8 83 a9 3d 19 82 8c 3d
       -0.07647286 0.044906694 0.082770646 0.06860752
0002a0 90 51 b3 3d ce 60 27 bd 3c ad fc 3d 1b 64 9b 3d
       0.08755791 -0.040863805 0.12337729 0.07587453
0002b0 9e a0 8e bc 13 8b 05 3e cc 83 38 3d 7f 53 45 3c
       -0.017410573 0.13041334 0.045047566 0.012043833
0002c0 88 eb f1 3c c9 56 f0 3d 1f b3 ef 3c ee 6f de 3c
       0.029531255 0.11735303 0.029260216 0.027152982
0002d0 23 43 f0 3d 73 80 1a 3c ee 08 f1 3d 81 f3 25 bd
       0.11731555 0.009430039 0.11769281 -0.040515427
0002e0 a6 c1 62 3c 71 7f 19 3d 24 9f 11 3d 26 cc ae bd
       0.013840115 0.037475053 0.03555216 -0.08535032
0002f0 8c 57 12 3e e9 cc 81 bd 12 e8 fd 3d dd 90 4c bc
       0.14291209 -0.06337912 0.123977795 -0.01248571
000300 5f ae 85 3d 16 57 88 bd f2 a6 0b bd a6 1c 38 3d
       0.06527399 -0.06657235 -0.03409476 0.044949196
000310 a5 bf cb 3d ad 92 2c bd 14 f1 88 3d c6 23 1a bd
       0.09948663 -0.04213207 0.06686607 -0.037631772
000320 9b 08 a1 3d b8 d4 44 3c 5f a2 b5 39 18 6f a6 3d
       0.078629695 0.012013607 0.00034643986 0.08126658
000330 11 12 a8 bc 03 37 34 bd 71 44 0b bc 3f fa b7 3d
       -0.020516427 -0.043997776 -0.008500204 0.089832775
000340 24 74 2f 3e f4 71 e9 3d 6e 9d bd 3d 06 7c 06 bd
       0.17134148 0.11398688 0.09258543 -0.03283312
000350 55 f4 12 3e d0 43 94 3d 41 a6 78 3d 65 60 09 bd
       0.14351018 0.07239497 0.060705427 -0.033539195
000360 2a ea f5 bc 06 7a c0 3c 9b ac 2c 3c 12 b5 49 bd
       -0.030018885 0.023495685 0.010539199 -0.049244948
000370 84 9d 3d bd f3 86 ec 3d fa 91 5b 3d c0 8c 86 3c
       -0.046292797 0.11549177 0.05360601 0.016424537
000380 4a 28 a1 3c e3 5a c4 3d 69 ab 9b bd 07 43 ff 3c
       0.019672532 0.09587648 -0.07601053 0.03115989
000390 72 d2 e6 3d 6d 2f 5a bd c5 ac b4 bd 4b 6f 05 bd
       0.11270608 -0.053267885 -0.08822016 -0.03257684
0003a0 c2 3f ac 3d ee 47 59 3d 88 fd e3 3d 37 7e 2c bd
       0.08410598 0.053047113 0.111323416 -0.042112555
0003b0 1d 5f d5 bc 02 e1 b9 bd 50 4c 0d 3c cf 4a f2 3b
       -0.02604633 -0.0907612 0.008624151 0.007394172
0003c0 f1 02 01 3e 97 a0 10 bd ff ad 43 bd 9c c9 a2 3d
       0.12598778 -0.0353094 -0.047773357 0.0794861
0003d0 49 6d 87 bc 65 0e 10 bc 7d 9c 31 3e cd 86 e8 3d
       -0.016531603 -0.008792494 0.17344852 0.11353836
0003e0 40 50 ce bd c8 41 87 3c 25 11 37 3d 0a 1a e8 3d
       -0.100739 0.01651086 0.044694085 0.113330916
0003f0 37 da 4c bd 16 4a c1 3d f5 10 bc bd bd 33 d2 bd
       -0.050012793 0.09437959 -0.09182922 -0.102637745

mean.bias f4 [4]
000000 a4 59 9c bd 68 c0 ef bd 60 ca 84 3c cb 64 03 3e
       -0.07634285 -0.117066205 0.016209781 0.12831418

log_std.weight f4 [4, 64]
000000 c2 cd bf 3c 3d d9 b0 bd 07 97 c8 3c 7e 0a 54 bd
       0.023413543 -0.08635185 0.024486078 -0.05176782
000010 a0 83 d2 3d 85 e0 12 3d 43 f4 10 3e 8e 3c 25 3e
       0.10279012 0.03585865 0.14155678 0.16136381
000020 53 01 15 3e 99 20 af 3d cc 23 14 3e dd bd 71 bd
       0.14551286 0.085511394 0.1446678 -0.05901896
000030 cf e3 08 3d 4f 9f ca 3d a6 91 a3 3d b1 68 e9 3d
       0.03342038 0.09893667 0.079867646 0.113969214
000040 34 f4 db 3c b7 8a 42 3d e7 82 b6 3d c5 e5 0b 3e
       0.026849844 0.04749557 0.089116864 0.13661869
000050 5e 3e db 3d 1e dc b2 bd 24 f3 95 3d 77 98 1e 3c
       0.10705255 -0.0873339 0.07321766 0.009679905
000060 e2 7f 6f 3d 81 dc ba 3d d6 54 cd bc 7f c1 de 3d
       0.058471568 0.09124089 -0.025064867 0.1087675
000070 a4 28 10 3e ee 5e 59 3d b2 b2 89 bd c0 f9 2a 3b
       0.14078003 0.053069048 -0.067235366 0.0026088804
000080 c9 8f 03 3e dc 4e 93 3d 91 8d 09 3e ce a5 08 3d
       0.12847818 0.071927756 0.1343291 0.03336125
000090 02 10 70 bd 49 4d 91 3d 6a da 57 3d dd a3 dc 3d
       -0.058609016 0.07094819 0.05269853 0.10773442
0000a0 6b c0 2b bd 3d 33 2c bd 90 e5 cf 3d 87 5b 3e 3d
       -0.04193155 -0.042041052 0.101512074 0.046474006
0000b0 9c 99 0b 3e ab f3 9f bd f8 98 6b bd 55 40 9d 3d
       0.13632816 -0.07810148 -0.05751893 0.07678286
0000c0 0d 40 07 bc bb 4b d1 3d a5 04 01 3e 44 21 49 3e
       -0.008255017 0.102195226 0.12599428 0.19641596
0000d0 d8 16 5c 3d 99 1e e3 bd 45 96 8d bb f6 72 99 3d
       0.053732723 -0.110898204 -0.004320892 0.0749263
0000e0 a1 2a 76 bc 90 6a 81 3d 95 e2 75 3c a7 3a e2 3d
       -0.015024812 0.06319153 0.015007635 0.11046343
0000f0 6d 01 e8 3d cb f4 f9 3d 39 ac c3 3d 38 25 3a bd
       0.11328397 0.12204894 0.09554333 -0.04544565
000100 fa 0e 42 bc 47 37 c8 bc 61 51 eb 3d 7a 6e 0d 3d
       -0.011844391 -0.02444042 0.11490131 0.034529187
000110 d1 5b cd 3d 36 f6 37 3d 4e 67 92 3c 7e d3 8e 3d
       0.10027278 0.04491254 0.017871525 0.06973933
000120 a0 f8 69 3d 51 a5 ec 3d c1 41 04 bd ec da b3 3c
       0.057121873 0.11554969 -0.03228927 0.021954976
000130 ae 26 4e 3e dc 5a 8f 3d 2e fd 94 bd f2 20 f3 3d
       0.20131943 0.06999752 -0.07274853 0.11871518
000140 8b 61 1b bd cc 88 dd 3d fc 88 20 3d eb 16 37 3e
       -0.03793482 0.108171076 0.03919314 0.17879836
000150 e2 5c 0b 3e aa ed f3 3c 30 c5 0c 3e 18 ff 6a 3e
       0.1360965 0.029776413 0.13747096 0.22948873
000160 41 b6 03 bd 8a d8 96 3d 60 0d e5 3d d3 d3 2a 3c
       -0.032156233 0.0736552 0.11184192 0.010426479
000170 a9 7a 27 3e 26 79 02 3e b3 0e 3e bd cc 95 8b 3d
       0.16355385 0.12741527 -0.046400737 0.06815681
000180 6a 88 8a bd ad cf 0f 3e 9f a9 2a bd 70 f0 c3 3b
       -0.067643 0.14044066 -0.04166567 0.00597959
000190 f6 73 39 3d f2 ca d7 bd 74 9a 67 3d 25 b1 ae 3c
       0.045276605 -0.105367556 0.056543782 0.021324703
0001a0 6c b1 92 3d 1f 7e 4e 3d 15 39 ac bd 2f ab ee bc
       0.07162747 0.050413247 -0.08409325 -0.029134361
0001b0 07 94 9b 3d e6 a4 b1 3d 7c 27 92 bd a3 55 9f 39
       0.07596593 0.0867403 -0.07136437 0.00030390648
0001c0 78 27 35 3e f7 26 4e bd 68 45 86 3b 97 84 74 bd
       0.17690837 -0.05033013 0.0040976293 -0.05969676
0001d0 98 b7 81 3c 51 66 be bd c0 a0 f1 3c b2 39 36 3e
       0.015834615 -0.09296859 0.029495597 0.17795447
0001e0 bd d4 c3 3d 1b ef 3a bd a1 e5 36 3e b6 b2 c8 bd
       0.09562061 -0.045638185 0.17861034 -0.097997114
0001f0 73 20 7c bb bf 0a 12 3e a5 52 d8 3d 92 94 08 3e
       -0.003847149 0.14261912 0.10562638 0.13337925
000200 48 12 07 3c 07 16 db bd 22 52 de bd 49 f1 63 3c
       0.008244105 -0.10697561 -0.10855509 0.013912507
000210 a0 57 dd bd 05 ed f0 bc 9b 00 bb 3d cb 14 5e 3d
       -0.10807729 -0.029409895 0.09130975 0.05421905
000220 1e 0e f2 3d 26 8d 72 bd 34 82 5d 3d cb 85 d4 3d
       0.11819099 -0.05921664 0.05407925 0.103770815
000230 e0 7e 9c 3d 5f 0f 18 3d 1c 3d 0e bd 7e 81 b2 bd
       0.07641387 0.037124034 -0.034726247 -0.08716105
000240 2c 56 ca 3d 33 0e c1 bd 88 af 8f 3b 6c 35 8f bd
       0.09879717 -0.094265364 0.0043849386 -0.06992611
000250 61 0c d4 3c 81 60 eb bd c2 13 68 3d 45 fe f3 3c
       0.025884809 -0.11493016 0.056659468 0.029784331
000260 c8 d1 69 bd aa 59 a2 bc 8a e4 07 bd 76 23 61 bd
       -0.05708483 -0.019818146 -0.033176936 -0.05496546
000270 86 f4 af bb 1b 06 a2 3c 66 c3 53 bd 50 37 01 3d
       -0.0053697256 0.019778302 -0.05170002 0.03154689
000280 20 eb 9e bd f7 99 0d 3e 6b fa 68 bd c9 46 96 3d
       -0.0775969 0.13828264 -0.056879442 0.0733772
000290 5e 54 81 bd e0 c8 94 bd 91 94 9b bc a6 1b 4f bd
       -0.0631492 -0.07264876 -0.01899174 -0.050563477
0002a0 8b 84 08 bc 66 23 db bb 44 06 32 bc 1a 43 b2 bd
       -0.008332382 -0.0066875694 -0.010865752 -0.08704205
0002b0 cf 9e 0f 3e 90 d7 ab 3d 98 e7 36 bd 54 91 16 3e
       0.14025424 0.08390725 -0.04465446 0.14703876
0002c0 47 d8 1e bc b7 8d 9d bd 92 46 3a 3d 46 11 8a 3b
       -0.009695119 -0.076930456 0.045477457 0.004213485
0002d0 18 6a c6 3d 1e a9 aa bc d7 b8 66 bd 71 b8 03 3e
       0.096882045 -0.020832594 -0.05632862 0.12863328
0002e0 0a 57 dc 3c c4 ee 2c 3d aa 83 83 3c 20 b5 b6 bd
       0.026896972 0.042219892 0.016053993 -0.089212656
0002f0 81 3f a0 3d 42 e9 27 3d 8b 6a 42 bd 68 df a6 3d
       0.078246124 0.040993936 -0.04746489 0.0814808
000300 47 d3 cf bd 0b 0b 94 bd b3 a2 20 3c a9 19 e2 bd
       -0.1014772 -0.07228669 0.0098044155 -0.110400505
000310 dc c0 d0 bd f7 44 78 3c 92 7f f6 3b 95 c5 3d 3e
       -0.10193035 0.015153161 0.007522532 0.18532403
000320 5c 35 dc 3d 36 1a 3b 3e 78 f5 4b 3d 7b 3f 91 3c
       0.10752365 0.18271717 0.049794644 0.017730465
000330 a2 e4 b4 3d 73 a9 c5 bc 13 2d d0 bd 09 0d c9 bd
       0.08832671 -0.024128651 -0.10164847 -0.098169394
000340 78 d6 2b 3d a0 f0 36 bd 32 42 76 bc 9b 65 ee 3d
       0.04195258 -0.04466307 -0.015030431 0.116404735
000350 b1 b7 1d bd 30 8d 90 3d ff 4d b2 3c f7 ca ec 3d
       -0.03850526 0.070581794 0.021765707 0.1156215
000360 ba 1b a0 bd 71 34 d0 3d 60 17 77 bd 7f 9d db bd
       -0.078177884 0.101662524 -0.060325027 -0.10723399
000370 bb bf 0b 3e 28 a8 71 bd 7b f2 1c 3e 10 6a 63 3d
       0.13647358 -0.058998257 0.15326874 0.05552107
000380 12 dc 93 3d cd 4d ef 3c f2 24 21 3d 2a 9f 79 3d
       0.072197095 0.029211903 0.039341874 0.060942806
000390 9e 67 34 bd 6b cb ca 3d 0f fe df 3d e2 26 02 3d
       -0.04404413 0.0990208 0.1093713 0.031775363
0003a0 23 b1 82 3d 96 3c 38 3d 58 85 26 bd 91 ee a2 bd
       0.063814424 0.044979654 -0.04065451 -0.07955659
0003b0 bf ed 8a bc 76 98 b9 bd 3c 03 21 bd 1e 9c d3 3d
       -0.01695907 -0.09062283 -0.039309725 0.10332511
0003c0 4d 35 53 3e ac 90 ee bd d3 ce a1 bd e3 22 32 3e
       0.20625801 -0.11648688 -0.07900777 0.1739612
0003d0 19 b4 6e bc 1c fa 7e bb c7 73 9a 3d a4 a1 22 3e
       -0.014569306 -0.00389064 0.07541614 0.15881974
0003e0 7a 07 8a 3d 05 6c 3c 3d f1 28 19 3d f7 8e 7b 3c
       0.06739707 0.046001453 0.03739256 0.01535391
0003f0 d4 2c 5c 3d ca b5 ce bd 9e c5 9f bd 63 fc eb 3d
       0.05375369 -0.10093267 -0.07801364 0.11522748

log_std.bias f4 [4]
000000 a4 e5 89 bd d9 34 07 3e c6 70 f0 3d ee e2 f5 3d
       -0.067332536 0.13203754 0.1174026 0.12006174
