results/ppo_BipedalWalker-v3_20250602_205753/ppo_critic_step_50000.pth (torch, 26132 bytes, 5 tensors)

net.0.weight f4 [64, 24]
0	0x3d242ff4	0.040084794
1	0xbcbd4391	-0.023103507
2	0x3e5a73f3	0.21333294
3	0xbf05a1cb	-0.522
4	0x3d44312b	0.047898453
5	0xbe085c84	-0.13316542
6	0x3d821492	0.0635158
7	0x3ca5a127	0.020218445
8	0xba1e2847	-0.00060332235
9	0xbeb9d779	-0.36297205
10	0xbdaac894	-0.083390385
11	0xbe7fe905	-0.24991234
12	0x3bf3e8e0	0.0074435323
13	0x3d8dc86b	0.06922992
14	0x3e11dd52	0.14244583
15	0x3e8dd626	0.27702445
16	0x3e81c068	0.25342107
17	0xbd1752ca	-0.03694419
18	0x3e9960ba	0.2995661
19	0x3dec1627	0.11527663
20	0x3e8cea00	0.27522278
21	0x3e134ac6	0.14383993
22	0x3d80f1de	0.062961325
23	0x3e647f60	0.22314215
24	0xbe28a86a	-0.16470495
25	0xbd730f39	-0.05934069
26	0x3d8c52a0	0.06851697
27	0xbf241693	-0.64096946
28	0x3d3e4f55	0.046462376
29	0x3e336e6d	0.17522593
30	0xbcae0a75	-0.02124522
31	0x3de4fd15	0.11181084
32	0xbbf36c32	-0.0074286694
33	0xbdc9f950	-0.09862006
34	0x3d909a13	0.07060637
35	0xbed68e3b	-0.41905388
36	0xbe49802d	-0.19677801
37	0xbe7a0c0e	-0.24418661
38	0xbd4c7a45	-0.049921293
39	0xbca1d814	-0.019756354
40	0x3e169227	0.1470419
41	0x3eafbb25	0.34322467
42	0x3c9406cf	0.018069653
43	0x3e72046e	0.23634502
44	0x3d6c46c8	0.05768469
45	0x3e9e27d0	0.3088975
46	0x3e8d1266	0.275531
47	0x3e3f106a	0.18658605
48	0x3e35a0c4	0.17737108
49	0xbe3d413f	-0.1848192
50	0xbd194343	-0.03741766
51	0xbf380694	-0.7188504
52	0x3df66646	0.12031226
53	0x3e14aa34	0.14518052
54	0x3ddd5699	0.10807533
55	0x3d883d8c	0.06652364
56	0xbe1095aa	-0.14119592
57	0xbec762f6	-0.3894269
58	0x3d8fb62a	0.07017167
59	0xbeb12ed8	-0.3460605
60	0xbce323a4	-0.027726956
61	0x39e47783	0.00043576592
62	0x3e85b690	0.26115847
63	0x3e1f35a0	0.155478
64	0x3dc929e2	0.09822442
65	0x3d9ed11e	0.0775473
66	0x3e0395a1	0.12850048
67	0xba11eb37	-0.0005566361
68	0x3e9bc849	0.30426243
69	0x3e9cd4a3	0.3063098
70	0x3cadda12	0.021222148
71	0x3e4d936a	0.20075765
72	0xbe026ea7	-0.12737523
73	0xbe67b8c7	-0.2262908
74	0x3e331e04	0.17491919
75	0xbf2a068b	-0.66416234
76	0x3e81b224	0.25331223
77	0xbc3d5a67	-0.011557198
78	0xbdc621e2	-0.096744314
79	0xbdb8d125	-0.09024266
80	0xbcfd0cb8	-0.030889854
81	0xbd9f9b1e	-0.07793258
82	0xbafdbdd2	-0.0019358939
83	0xbe52c9ff	-0.20584868
84	0xbd337115	-0.043809015
85	0xbdc93d33	-0.09826126
86	0x3e844b37	0.25838634
87	0x3ceb8ca1	0.02875358
88	0x3da5cabf	0.080953114
89	0xbe074f29	-0.13213791
90	0x3deaad11	0.11458791
91	0xbcca6310	-0.02470544
92	0x3c70a044	0.014686648
93	0xbd393473	-0.045216035
94	0x3e8072fc	0.25087726
95	0x3e22abb2	0.15885809
96	0xbdcdd08d	-0.100495435
97	0xbdcf164e	-0.10111676
98	0x3e3f1d94	0.18663627
99	0xbf10b662	-0.56528294
100	0xbc7e4bc9	-0.015520998
101	0x3da4fad7	0.080556564
102	0x3c8e4b06	0.017369758
103	0x3d8ab910	0.06773579
104	0xbe44f20f	-0.19232963
105	0xbed4ca04	-0.41560376
106	0x3cc8126e	0.02442285
107	0xbe4bff87	-0.19921695
108	0xbcb40431	-0.021974655
109	0x3d24aa3f	0.04020142
110	0x3de992d1	0.11404956
111	0x39b4abfc	0.00034460414
112	0x3ddc2790	0.107497334
113	0x3d2c586a	0.042076506
114	0x3d87ba90	0.06627381
115	0xbcfe3e4f	-0.03103557
116	0x3e99ba6c	0.3002504
117	0x3ea23e84	0.3168832
118	0xbd20467b	-0.039129715
119	0x3e5e72ca	0.21723476
120	0x3d234a80	0.03986597
121	0xbdda40c1	-0.10656882
122	0x3da34eac	0.0797399
123	0xbf0f2feb	-0.5593249
124	0x3db9a53a	0.090647176
125	0x3dcdc140	0.10046625
126	0x3e24e7af	0.16104005
127	0x3d6b3b3f	0.05742955
128	0x3d5889a1	0.05286563
129	0xbea861bf	-0.32887074
130	0xbc075dea	-0.008262137
131	0xbea71bad	-0.32638302
132	0x3d19c188	0.03753808
133	0xbd1ec123	-0.03875841
134	0x3b8426e1	0.004032955
135	0xbce69216	-0.028145831
136	0x3db240f1	0.08703793
137	0x3d4eb323	0.050463807
138	0x3d3616dc	0.044455394
139	0xbd4ca1d0	-0.049959004
140	0xbb03c49c	-0.0020106202
141	0x3e984567	0.2974045
142	0x3cf1c34e	0.029512074
143	0x3e3b49a8	0.18289816
144	0x3db9a6e7	0.09065037
145	0x3de14bb2	0.11000766
146	0x3dd8e018	0.105896175
147	0xbecb0bf5	-0.3965756
148	0x3d518518	0.05115232
149	0xbdb63744	-0.0889726
150	0x3d83f6e6	0.064435765
151	0x3d444512	0.047917433
152	0xbe0ba6ff	-0.13637923
153	0x3d824142	0.06360103
154	0xbe816db7	-0.25279018
155	0x3c9e9745	0.01935924
156	0xbe146fea	-0.14495817
157	0xbe1c776f	-0.15279935
158	0xbd8bd9b9	-0.06828637
159	0x3e3ce261	0.18445732
160	0xbdea5bfc	-0.11443326
161	0xbd269042	-0.04066492
162	0x3dae6ddd	0.085170485
163	0xbce57bcc	-0.028013133
164	0x3d93e5a7	0.07221537
165	0x3e73890a	0.23782745
166	0xbe0242f6	-0.12720856
167	0xbde7c69c	-0.113171786
168	0xbe4e2fbf	-0.20135401
169	0x3e19488f	0.14969085
170	0x3e262c1a	0.16227761
171	0xbf4ff9f0	-0.8124075
172	0xbe69e896	-0.2284263
173	0x3e1b8119	0.15185966
174	0x3d19f23a	0.03758452
175	0xbdf72dc8	-0.12069279
176	0xbe07ac41	-0.13249303
177	0xbe4778bb	-0.19479649
178	0x3e151c70	0.1456163
179	0xbe7f6dba	-0.24944201
180	0x3dfac5d0	0.12244761
181	0x3d4db424	0.050220624
182	0x3e51a77c	0.20474046
183	0x3d3caa78	0.04606101
184	0x3ddc67a1	0.10761953
185	0x3e2d1297	0.16901623
186	0xbd15d016	-0.0365754
187	0xbc601df4	-0.013679016
188	0xbdf17118	-0.11789149
189	0x3e675540	0.22591114
190	0xbc96e995	-0.018421927
191	0x3e4f91fb	0.20270531
192	0xbdae4577	-0.08509343
193	0xbe1f05e5	-0.15529592
194	0x3e919192	0.28431374
195	0xbf37a700	-0.71739197
196	0xbdae25ba	-0.085032895
197	0xbc25bb49	-0.010115453
198	0xbe59e46a	-0.2127854
199	0x3af73784	0.001886115
200	0xbe859133	-0.2608734
201	0xbe7af9a5	-0.24509294
202	0x3d185340	0.03718877
203	0xbe9ceef6	-0.30651063
204	0x3ce6a328	0.02815397
205	0xbe4daed9	-0.2008623
206	0xbd85147e	-0.06498049
207	0x3e267adf	0.16257809
208	0x3cbbe7e7	0.022937728
209	0x3d030d4d	0.031995106
210	0x3e7518c7	0.23935233
211	0x3e7b599c	0.24545902
212	0xbdda39e6	-0.106555745
213	0x3e894b1a	0.2681511
214	0x3e8d53eb	0.27603087
215	0xbdcb6b5a	-0.09932585
216	0xbe34b3a1	-0.17646648
217	0xbe4a57a4	-0.19759995
218	0x3d2777fd	0.040885914
219	0xbf26aab2	-0.6510421
220	0x3e1c2e8b	0.1525213
221	0x3de70ab6	0.1128134
222	0x3d198cf9	0.037487958
223	0xbe51e9f5	-0.20499404
224	0x3e0a20af	0.1348903
225	0xbd5e3b27	-0.05425563
226	0x3df9c1dc	0.12195179
227	0xbe007069	-0.12542881
228	0xbe176098	-0.14782941
229	0xbc48bd6c	-0.012252193
230	0x3cbc2df0	0.022971123
231	0x3eb65595	0.3561217
232	0xbc527126	-0.0128443595
233	0x3eaf32db	0.34218487
234	0x3eb8ba8f	0.36079833
235	0x3d8f978b	0.070113264
236	0xbc52a5ab	-0.012856881
237	0x3e770843	0.24124245
238	0x3bacff93	0.0052794903
239	0xbd9abae5	-0.075551786
240	0xbe14e7d7	-0.14541565
241	0x3dc2c4d6	0.095102
242	0x3b8dd298	0.0043280832
243	0xbf3b2f0c	-0.7311866
244	0xbc78855f	-0.015168517
245	0x3e0f8337	0.14014898
246	0x3cbb06cf	0.022830395
247	0x3dea71f3	0.11447515
248	0xbe366c2c	-0.17814702
249	0xbec41359	-0.3829601
250	0x3d906522	0.070505396
251	0xbd8772c9	-0.066136904
252	0x3dffeaa1	0.12495924
253	0xbe9650ed	-0.29358616
254	0xbd2ad901	-0.041710857
255	0x3e77afa8	0.24188101

net.0.bias f4 [64]
0	0x3e36e161	0.17859413
1	0xbd9f4a29	-0.07777817
2	0xbd5359dc	-0.05159937
3	0x3d717a8b	0.058954757
4	0xbd45dbab	-0.048305195
5	0x3dd2320e	0.102634534
6	0xbd4dc9fe	-0.050241463
7	0x3e72700b	0.23675554
8	0xbbb8d5ae	-0.005640707
9	0x3e429528	0.19002211
10	0x3dc68116	0.0969259
11	0x3e94392e	0.28949875
12	0x3d8d21dd	0.068912245
13	0x3e1ff055	0.15619023
14	0xbd980816	-0.07423417
15	0xbe24624f	-0.16053127
16	0x3e1e20e1	0.1544223
17	0x3e27f996	0.16403803
18	0xbce6c1ec	-0.028168641
19	0x3e4eca5a	0.20194378
20	0x3dfcc675	0.1234254
21	0xbd1faf20	-0.03898537
22	0x3dee6fb1	0.11642397
23	0x3ea250f8	0.317024
24	0x3cb7413e	0.022369977
25	0x3e4be181	0.19910242
26	0x3d871abc	0.06596896
27	0xbe2e6b18	-0.1703304
28	0xbdc94eaa	-0.09829457
29	0xbb94a541	-0.0045363014
30	0x3e890b57	0.26766464
31	0x3e21981f	0.15780686
32	0x3e451eb4	0.19249994
33	0x3e3db3b7	0.18525587
34	0x3d8afe35	0.067867674
35	0xbdac2005	-0.08404545
36	0xbe4e10db	-0.20123617
37	0x3d0a989b	0.033836942
38	0xbcb6f03b	-0.022331348
39	0x3e81baf2	0.2533794
40	0xbb62c031	-0.0034599418
41	0x3d3529d3	0.04422934
42	0x3df8510d	0.12124834
43	0x3e42470f	0.18972419
44	0x3d979fcd	0.074035265
45	0x3e282b45	0.16422756
46	0xbd943954	-0.07237497
47	0xbe18f903	-0.1493874
48	0x3c8a0a26	0.016850542
49	0x3e18e80b	0.14932267
50	0x3e58f0ed	0.21185656
51	0x3dc3a629	0.09553177
52	0x3e6c2972	0.23062685
53	0xbdf1866f	-0.11793219
54	0x3df9e59f	0.12202
55	0x3e596de8	0.21233332
56	0x3d0e07ed	0.034675527
57	0x3e57a5fd	0.21059413
58	0xbd464ba8	-0.048411995
59	0x3e2a5d9e	0.16637275
60	0x3e2f00a4	0.17090088
61	0x3e4755dd	0.19466348
62	0x3d7c108b	0.061539214
63	0xbd3489c7	-0.044076707

net.2.weight f4 [64, 64]
0	0x3d5f2570	0.054479063
1	0x3ea6bdfa	0.32566816
2	0x3e293bd5	0.1652673
3	0x3db7b115	0.089693226
4	0x3e5247e9	0.20535244
5	0x3e7d5109	0.24737944
6	0x3b8062a0	0.003918007
7	0x3ce460f8	0.02787827
8	0x3e60685b	0.21914808
9	0x3e4b7b37	0.19871221
10	0x3e4eae4a	0.20183674
11	0x3e01cb83	0.1267529
12	0x3e4df7c5	0.20114048
13	0x3e043f11	0.12914683
14	0x3e73380c	0.23751849
15	0x3de8fc71	0.113762744
16	0x3e8dacd6	0.27670926
17	0x3ddf577c	0.10905358
18	0x3e7e4f44	0.24834925
19	0x3e4b2ccb	0.19841306
20	0x3d526f32	0.051375575
21	0x3e678ebc	0.22613043
22	0x3dfd9e61	0.12383724
23	0x3e16dc8b	0.14732568
24	0x3e4b7758	0.19869745
25	0x3e3a8ac5	0.18216999
26	0x3e4b2914	0.19839889
27	0x3e061236	0.13092884
28	0x3eaa3a86	0.33247775
29	0xbc88d9ee	-0.01670548
30	0x3e2dbd6a	0.16966787
31	0x3de8f201	0.113742836
32	0x3da17163	0.07882955
33	0x3e4091fd	0.1880569
34	0x3e53f72d	0.20699759
35	0x3e140374	0.14454442
36	0x3e5e7c8d	0.217272
37	0x3e94bce6	0.29050368
38	0x3e21b932	0.15793303
39	0x3ce6e45d	0.028185064
40	0x3e1808f0	0.1484716
41	0x3e8cf9b4	0.27534258
42	0x3d2cdad4	0.04220088
43	0x3e923fab	0.285642
44	0x3e88f627	0.267503
45	0x3e070fcf	0.13189624
46	0x3e3bd786	0.18343934
47	0x3e7ab868	0.24484408
48	0x3dc77753	0.09739556
49	0x3e158e7b	0.14605133
50	0x3dfec35c	0.124396056
51	0x3e566a89	0.20939077
52	0x3d9430fe	0.07235907
53	0x3de37fa1	0.11108328
54	0x3e7c87cd	0.24661179
55	0x3e50de92	0.20397404
56	0x3ee6e520	0.45096684
57	0x3ea4ea98	0.3221023
58	0x3e5ad38c	0.21369761
59	0x3e4942a0	0.19654322
60	0x3e20a155	0.15686543
61	0x3e7e4f76	0.24835
62	0x3e9f3db6	0.3110177
63	0x3e5a203a	0.21301356
64	0x3e034cbc	0.1282224
65	0x3ea096f8	0.3136518
66	0x3e8252d6	0.25453824
67	0x3e487d06	0.19578943
68	0x3e227321	0.1586423
69	0x3e490610	0.19631219
70	0x3d0caa6d	0.03434222
71	0x3d6d4457	0.057926502
72	0x3e8f043f	0.27932927
73	0x3e8b82f6	0.27248353
74	0x3e870882	0.26373678
75	0x3e1d3b5d	0.15354677
76	0x3e836f9f	0.25671098
77	0x3e084360	0.13306952
78	0x3e84bd4a	0.25925666
79	0x3d9133bd	0.070899464
80	0x3e431221	0.19049884
81	0x399b46eb	0.00029616742
82	0x3e61428a	0.21998039
83	0x3e7862c3	0.24256425
84	0x3e8098ad	0.25116482
85	0x3dcae150	0.09906256
86	0x3e3afed5	0.18261273
87	0x3e8a9c89	0.27072552
88	0x3ddd14e8	0.10795003
89	0x3e8f8b17	0.28035805
90	0x3eb1e416	0.34744328
91	0x3e852e01	0.2601166
92	0x3e33cdac	0.17558926
93	0x3e4c0cc1	0.1992674
94	0x3db9dc1f	0.09075188
95	0x3c4a81f3	0.012360084
96	0x3e14e2a3	0.1453958
97	0x3df925d7	0.121654205
98	0x3ecbf46f	0.39834926
99	0x3e4fdde2	0.20299485
100	0x3e965087	0.29358312
101	0x3e3d382a	0.18478456
102	0x3e904b60	0.28182507
103	0x3e877d41	0.2646275
104	0x3d88870e	0.06666385
105	0x3e945191	0.2896848
106	0x3e0f1ac9	0.13975061
107	0x3e71c842	0.23611549
108	0x3e7eca46	0.24881849
109	0x3e648248	0.22315323
110	0x3e4422e0	0.19153929
111	0x3de35a84	0.11101249
112	0x3d50d083	0.050980102
113	0x3d4c19e0	0.049829364
114	0x3dedf126	0.11618261
115	0x3e0573b6	0.13032421
116	0x3e82b4f7	0.2552869
117	0x3dcaebc7	0.09908252
118	0x3e7cf73d	0.24703689
119	0x3d0087d4	0.031379536
120	0x3f0c8f99	0.5490661
121	0x3e630bbc	0.22172445
122	0x3e148d71	0.1450708
123	0x3e3ea4df	0.18617581
124	0x3e1f1430	0.15535045
125	0x3d8b1d3b	0.06792685
126	0x3e7f5545	0.24934871
127	0x3e095433	0.13411026
128	0x3e2bcf5c	0.1677832
129	0x3ea95509	0.3307269
130	0x3daa3637	0.08311122
131	0x3e82db98	0.25558162
132	0x3e28b8bd	0.16476722
133	0x3e2f3c03	0.17112736
134	0x3e179a70	0.14805007
135	0x3db35bb7	0.087577276
136	0x3e3d1970	0.18466735
137	0x3e0e5bc3	0.13902192
138	0x3e7cd5c3	0.24690919
139	0x3e4d023f	0.20020388
140	0x3e98e890	0.2986493
141	0x3e4778a0	0.19479609
142	0x3cfacf8c	0.030616544
143	0x3dcb6812	0.09931959
144	0x3e2c4f66	0.16827163
145	0x3dd70242	0.104984775
146	0x3dfd4757	0.123671226
147	0x3e527548	0.20552552
148	0x3e4f8f83	0.20269589
149	0x3d8f5a56	0.06999652
150	0x3e142845	0.14468487
151	0x3e92c832	0.28668362
152	0x3e4a387e	0.19748113
153	0x3e1daa2b	0.15396945
154	0x3ea55bd1	0.32296613
155	0x3e829a15	0.2550818
156	0x3df1b93e	0.1180291
157	0xbb8e058c	-0.0043341573
158	0x3e259f54	0.1617406
159	0x3e219302	0.15778735
160	0x3dc6733d	0.09689949
161	0x3d940d4f	0.07229101
162	0x3e4a0883	0.1972981
163	0x3e3309ac	0.17484158
164	0x3eace068	0.33764958
165	0x3ea98783	0.331112
166	0x3da94720	0.08265519
167	0x3e7a6509	0.24452604
168	0x3e08d969	0.13364185
169	0x3d9132b6	0.070897505
170	0x3e4cfaa6	0.2001749
171	0x3e986db5	0.297712
172	0x3e45853a	0.19289103
173	0x3dee62a0	0.11639905
174	0x3e5efa39	0.2177514
175	0x3e4d5f36	0.20055851
176	0x3e1b7222	0.15180257
177	0x3d89fc5e	0.06737588
178	0x3e097d07	0.134266
179	0x3e73525f	0.23761891
180	0x3e505215	0.20343812
181	0x3e5d16aa	0.21590677
182	0x3e22963d	0.15877624
183	0x3e39c15f	0.18140171
184	0x3f03181e	0.51208675
185	0x3e21fa94	0.15818244
186	0x3ebadbcb	0.36495814
187	0x3df12560	0.11774707
188	0x3e09ae3c	0.13445371
189	0x3e7c111b	0.246159
190	0x3e29231f	0.16517304
191	0x3d462104	0.04837133
192	0xbc8a74fa	-0.016901482
193	0x3dbe76a4	0.09299973
194	0xbdcd0fd1	-0.10012782
195	0x3cb13ce3	0.021635478
196	0xbded00ad	-0.115723945
197	0x3d3c0aee	0.04590886
198	0x3dad66b8	0.08466858
199	0xbcf22114	-0.029556789
200	0xbdeecc00	-0.11660004
201	0xbe0d7569	-0.1381432
202	0xbda8e267	-0.08246308
203	0xbd549b1b	-0.051905733
204	0xbd95735a	-0.07297392
205	0x3d409486	0.047016643
206	0x3c417dec	0.011809807
207	0xbdd7a84e	-0.105301484
208	0xbc0d0034	-0.008606005
209	0xbe02faae	-0.12790939
210	0x3d8e9622	0.06962229
211	0xbc5f2d23	-0.013621601
212	0x3dc529d7	0.09627121
213	0x3db2e2e7	0.087346844
214	0xbda15d06	-0.07879071
215	0x3d9fd444	0.07804158
216	0xbdf9b8a8	-0.121934235
217	0xbdf7db85	-0.12102417
218	0x3d8bbca9	0.068230934
219	0xbd8def3c	-0.06930396
220	0xbdc4a2e8	-0.096013844
221	0xbdcde8e1	-0.10054184
222	0xbdb87562	-0.09006764
223	0xbdfc3436	-0.12314646
224	0x3c2ee70b	0.010675202
225	0xbe0899dc	-0.13339943
226	0xbd0f0730	-0.034918964
227	0x3d93d390	0.07218087
228	0xbdd0412d	-0.10168681
229	0x3d8ccde2	0.068752065
230	0x3dd43574	0.10361758
231	0xbccde226	-0.02513225
232	0xbc9f1f9b	-0.01942425
233	0xbe0444c4	-0.12916857
234	0x3db848cb	0.08998259
235	0x3dc20692	0.094739094
236	0xbce8e1d3	-0.028427994
237	0x3d8d1df0	0.06890476
238	0xbde89f16	-0.11358468
239	0xbdcbfdf1	-0.09960545
240	0x3df08cba	0.117455915
241	0xbe072287	-0.13196765
242	0xbd130e9f	-0.035902616
243	0xbd921d4d	-0.07134495
244	0xbdfc13f3	-0.123084925
245	0x3c7b2f30	0.015331075
246	0xbd818684	-0.06324485
247	0x3c9de557	0.019274397
248	0xbd3f3300	-0.046679497
249	0x3d168ae5	0.036753554
250	0x3bea8a5e	0.007157608
251	0xbe04db6f	-0.12974332
252	0x3d94be7a	0.07262893
253	0x3d934ef0	0.071927905
254	0xbde50406	-0.11182408
255	0x3cef1f03	0.029189592

net.2.bias f4 [64]
0	0x3e267f95	0.16259606
1	0xbbf70206	-0.007538083
2	0x3c8bdcc0	0.017073035
3	0x3dd0e4f0	0.10199916
4	0x3e0e6af3	0.13907985
5	0xbc535c5d	-0.012900439
6	0xbd8de95e	-0.06929277
7	0x3e0e0860	0.13870382
8	0x3e0dfed0	0.13866735
9	0x3d102462	0.035190947
10	0x3df2ac82	0.118493095
11	0x3d996033	0.07489052
12	0x3da8aa6e	0.08235632
13	0x3bee9e72	0.0072820717
14	0x3e09e145	0.1346484
15	0x3d1e8068	0.038696676
16	0x3e135237	0.14386831
17	0x3c6ed8cd	0.0145780565
18	0x3d8fd5ea	0.07023223
19	0x3d01675b	0.031592708
20	0x3d94c92d	0.07264934
21	0x3e0dbfc0	0.13842678
22	0x3dc647d6	0.0968167
23	0x3b0a3d22	0.0021093567
24	0x3e56eb7b	0.20988266
25	0xbd82d690	-0.06388581
26	0x3e371240	0.17878056
27	0x3e2b55a7	0.16731893
28	0xbdff7a14	-0.124744564
29	0x3e32b7f1	0.1745298
30	0x3da45488	0.080239356
31	0x3e3baefc	0.1832847
32	0xbe3d3d68	-0.18480456
33	0x3dd1031f	0.102056734
34	0xbd3e1fe8	-0.046417147
35	0x3df2d002	0.118560806
36	0x3d1697d9	0.036765907
37	0x3cddb331	0.027062984
38	0x3d9e6e54	0.07735887
39	0xbd67f3ed	-0.05662911
40	0x3df7a00e	0.12091075
41	0x3e491227	0.19635831
42	0x3d882e57	0.066494636
43	0x3d9c76e1	0.07639862
44	0x3e15f11b	0.14642756
45	0x3e32a1fb	0.17444603
46	0xbe004640	-0.12526798
47	0xbce4338e	-0.027856614
48	0xbdfb99da	-0.12285204
49	0xbcf260e2	-0.029587213
50	0x3d64f776	0.05590006
51	0xbdaae1c6	-0.08343844
52	0x3e0b3966	0.13596115
53	0x3db01703	0.08598139
54	0x3d1f803f	0.038940664
55	0x3dbb5d48	0.09148651
56	0x3e1cde2f	0.15319131
57	0xbd624d1d	-0.055249322
58	0x3dd64be6	0.10463695
59	0x3d969d85	0.07354263
60	0xbc0f9a7a	-0.008764857
61	0x3e35548d	0.17708035
62	0x3d362300	0.044466972
63	0x3df63d09	0.1202336

net.4.weight f4 [1, 64]
0	0xbe68f271	-0.22748734
1	0xbe7fc1fd	-0.24976344
2	0xbe94a49f	-0.29031846
3	0x3d3b0c8b	0.04566626
4	0x3e814401	0.25247195
5	0x3e8ca642	0.27470595
6	0x3d45365d	0.048147548
7	0xbe6de652	-0.23232391
8	0xbe93f65b	-0.28898892
9	0xbe1e6da1	-0.15471508
10	0xbe52f51e	-0.20601317
11	0x3dfd09c1	0.12355376
12	0x3d99aa6f	0.07503211
13	0xbe533abd	-0.20627876
14	0xbe845996	-0.258496
15	0x3e8d6dab	0.27622733
16	0xbe673530	-0.22578883
17	0xbe18e4d0	-0.14931035
18	0xbe801540	-0.25016212
19	0x3eb4d729	0.35320404
20	0x3d71a8c4	0.058998838
21	0xbe8420f7	-0.258064
22	0x3c935a24	0.017987318
23	0xbe698de8	-0.22808039
24	0xbe4b0be3	-0.19828753
25	0x3e2160e6	0.1575962
26	0xbe4d8b95	-0.20072778
27	0xbe45eed8	-0.19329393
28	0x3ed452c7	0.41469404
29	0x3e97f924	0.29682267
30	0x3d59072e	0.052985363
31	0xbe6ac4af	-0.22926591
32	0x3e33c461	0.17555381
33	0x3d5d6964	0.054055586
34	0xbd941cc6	-0.072320506
35	0xbe896b29	-0.2683957
36	0xbe8148b4	-0.2525078
37	0xbeb07516	-0.3446433
38	0x3c264d3d	0.010150251
39	0x3e1f0f9d	0.155333
40	0xbe79818c	-0.24365824
41	0xbea07b00	-0.31343842
42	0x3d8d09c8	0.06886631
43	0xbea2bb61	-0.31783584
44	0x3e8fbf28	0.28075528
45	0xbe4ba87f	-0.19888495
46	0x3d783387	0.060596015
47	0x3dbc411c	0.09192106
48	0x3d95545c	0.07291481
49	0xbe9cd0b2	-0.30627972
50	0xbe892ea4	-0.26793396
51	0x3eb2519f	0.34827897
52	0x3e267c53	0.16258363
53	0xbe75b79d	-0.23995824
54	0xbe8cd3c2	-0.27505308
55	0x3eb5cefc	0.3550948
56	0xbe50b912	-0.20383099
57	0x3e95d2f4	0.29262507
58	0xbe813346	-0.2523443
59	0x3dce7411	0.10080732
60	0x3d3496db	0.04408918
61	0xbe5ce98b	-0.21573465
62	0xbe8af758	-0.27141833
63	0x3e2e1323	0.16999488
