best_models/ppo_gae/ppo_checkpoint.pt (torch, 348230 bytes, 37 tensors)

log_std f4 [4]
000000 eb 10 a0 3e ca 35 be 3f 67 00 9c 3f 24 3a b0 3f
       0.31262907 1.4860165 1.2187623 1.3767743

policy_net.0.weight f4 [64, 24]
000000 3f b8 2a be 32 05 30 bf 36 5c 18 3e a7 e1 b5 be
       -0.16671847 -0.6875793 0.14878926 -0.35523722
000010 e3 c0 16 bf 31 ca 59 3e 2a 27 bf be fd 0e 61 be
       -0.5888807 0.21268536 -0.37334567 -0.21978374
000020 b9 2c 7f be 9d 63 a4 3d ee d4 48 bd b7 f2 5d 3f
       -0.24919404 0.08026812 -0.04903119 0.8669848
000030 62 97 3c 3e 4d 61 f0 3e f8 b2 9b be 0a 3c 9b be
       0.18417123 0.46949235 -0.3040998 -0.30319244
000040 1b 73 9e be f1 2b 55 be 76 66 71 be eb a5 2e 3c
       -0.30947194 -0.20817544 -0.23574242 0.010659675
000050 7a da 41 be 9c 88 81 be 97 6f 23 bd 88 87 1e 3e
       -0.18930998 -0.25299537 -0.039901342 0.15481389
000060 c7 54 bc 3e b7 95 c6 3f d2 ef 35 bf 72 60 4a bf
       0.3678343 1.5514439 -0.7106906 -0.79053414
000070 12 7e 05 be e0 60 df be 68 5f 46 3f e2 c2 89 be
       -0.13036373 -0.43628597 0.7748933 -0.26906496
000080 d8 fd 93 3e f4 9f d5 bd 8e f1 dd 3c 38 6f a6 3e
       0.28904605 -0.10430899 0.027092721 0.32506728
000090 96 11 7c 3e 44 bb dc 3c 09 06 91 3e 85 20 4e bd
       0.24616084 0.026944764 0.28324917 -0.05032398
0000a0 b4 d7 b0 3c c7 28 d3 bd c8 b0 37 3e 09 d2 34 3e
       0.02158723 -0.10310512 0.1793853 0.17658247
0000b0 52 0f 9a bd 1e 84 a1 3d d4 c5 4d bd 82 a7 10 be
       -0.07522453 0.078865275 -0.05023749 -0.14126399
0000c0 2e 12 51 3f ff 0d 71 3e a1 33 5c be 33 b6 05 bf
       0.81668365 0.23540495 -0.2150407 -0.5223114
0000d0 8d fe 30 3d 61 70 d3 3e 89 73 10 bf 1b 13 a0 bc
       0.04321151 0.41296676 -0.5642629 -0.01954036
0000e0 f9 e8 df 3d 80 8c 8f 3d 87 cc 17 3f a3 ff 27 bf
       0.10933108 0.0700922 0.5929646 -0.65624446
0000f0 a0 1f a9 bd ba 2f cd bd 4e 0f e6 bd 00 ab 65 be
       -0.08257985 -0.10018869 -0.11233388 -0.22428513
000100 f8 26 aa bd 0f cd 98 3c 37 02 43 be 73 b5 5c be
       -0.08308214 0.018652467 -0.19043814 -0.21553592
000110 2c 5b 6e 3d 9b 87 c0 3c 20 d7 4c bd 84 6a 0c bd
       0.058192417 0.023502162 -0.050009847 -0.03428127
000120 3c ca 22 3d 15 70 7b bf af 9d d4 3e ec b9 88 be
       0.039743647 -0.982179 0.41526553 -0.26704347
000130 b5 83 14 be e1 15 24 3e d7 27 b2 be 02 b7 18 bd
       -0.14503367 0.16023971 -0.3479602 -0.037283905
000140 b8 d4 e6 bd 8d 69 17 3d a8 d4 7a 3e 11 c6 8e 3f
       -0.11271042 0.036965895 0.24495184 1.1154195
000150 28 2d 4a bd b3 4c d8 3e 7b e8 fc 3c 0f fe ea 3b
       -0.04935947 0.42246017 0.030872574 0.0071713994
000160 97 f3 98 be 14 f1 4c be 6e 84 b7 bd a9 ea 19 be
       -0.29873344 -0.20013839 -0.08960806 -0.15030922
000170 d6 7a 9e be 6b 73 9f bc 6d 70 f7 bc 5d 74 a1 3e
       -0.3095309 -0.019464215 -0.030204976 0.3153409
000180 bf 5f f6 be 38 c0 96 bf bc c8 3f 3f aa 3f b9 3f
       -0.48119923 -1.177741 0.7491567 1.4472554
000190 d9 b4 4e bf 7d 3f 73 3d 14 e4 64 3f 8a 8b 2e be
       -0.807447 0.05938672 0.8941052 -0.17045417
0001a0 e4 e5 22 be 20 b8 e8 3d e6 81 91 be 4b d9 ab 3e
       -0.15908009 0.11363244 -0.28419417 0.3356422
0001b0 23 8a a2 be 85 c8 88 3d 84 c1 10 3e 88 08 3b 3e
       -0.31746015 0.06678871 0.1413632 0.18264973
0001c0 14 30 3c 3c c0 53 46 3e 50 25 10 be 55 63 47 3e
       0.011486072 0.19367886 -0.14076734 0.19471486
0001d0 55 4a bc bd c5 7a 01 bd 4f 95 4d 3c 2e fa 0c 3e
       -0.09193865 -0.031611223 0.012547805 0.13767311
0001e0 55 8f 87 bf a6 ca 14 bf ae 5b b9 3e 73 10 e5 3d
       -1.0590616 -0.58121717 0.3620276 0.11184778
0001f0 01 44 89 be 3b b8 5a be 08 8f 4c 3f f8 cb 29 3f
       -0.26809695 -0.21359341 0.7990575 0.66326857
000200 95 b1 f2 3d 82 93 60 be 47 32 e1 be 30 a2 63 be
       0.11850277 -0.2193127 -0.4398367 -0.22229838
000210 a1 d8 31 be d8 d0 49 3e 28 9d 72 be ae a1 85 3d
       -0.17367794 0.19708574 -0.23692763 0.065249786
000220 0f 41 87 3d 6a d4 ba 3d fb 90 66 bc 24 4f 0f 3d
       0.06604206 0.09122546 -0.014072652 0.034987584
000230 50 fb 64 be fc 34 fc bd a2 24 58 be 88 9e cd 3d
       -0.22361493 -0.123147935 -0.21107724 0.10040003
000240 df 04 71 3f d2 81 c7 3f 92 1d 4c bf 97 61 a7 3e
       0.9414806 1.5586493 -0.7973262 0.32691643
000250 14 75 63 3f 9e 1d 87 3c ab 92 7d be ef f3 d9 ba
       0.8885052 0.016493615 -0.2476298 -0.0016628484
000260 d2 cc d8 3d 70 0d 4f be 12 29 c5 be 3e 12 fa 3e
       0.105859414 -0.2021997 -0.38507897 0.48842043
000270 56 aa eb bc 57 76 dd 3e f3 0e 58 3d f8 23 5b 3e
       -0.028767746 0.4325435 0.05274863 0.2140044
000280 02 1b 55 3e 42 d8 d6 bd a2 96 12 be 81 80 f6 3d
       0.20811084 -0.10490467 -0.14315274 0.12036229
000290 b2 62 2b 3e 02 e2 35 3e 3c 7c 92 3e a9 3a a9 3d
       0.16736868 0.17761996 0.28610408 0.08263142
0002a0 b3 8b a9 be 7d 2f 29 3f 7d bf b0 3d cf 36 3b bf
       -0.33114395 0.66088086 0.086302735 -0.73130506
0002b0 df d9 ba bd 2e b9 ae 3c 7d df 62 be b2 12 62 3e
       -0.09123587 0.021328535 -0.22155567 0.22077444
0002c0 a6 9a e0 be 38 0e 03 3e 4c df 0f 3e 6f 79 25 bf
       -0.43867987 0.12798393 0.14050025 -0.6463842
0002d0 05 c7 ac 3e 28 16 9e 3c fa d7 da bd 50 66 50 bd
       0.3374559 0.019297674 -0.106857255 -0.050878823
0002e0 a1 90 a8 be d1 ba 7c 3d 86 2b 71 bc ee d7 6b be
       -0.32922843 0.0617016 -0.014719849 -0.2303159
0002f0 47 5a ed bd 8c 16 5c bb cc 49 b4 bd f7 ef 21 be
       -0.11589485 -0.0033582775 -0.08803138 -0.15814196
000300 ca 55 34 3d 26 0c ca 3c 29 58 c2 3e c2 2b bf bf
       0.044027127 0.024663996 0.37957886 -1.4935229
000310 df a3 a2 be 29 b5 06 be 17 23 b4 be 78 7b 0e 3e
       -0.3176565 -0.13155045 -0.3518302 0.13914287
000320 ed 2f 30 3e 26 ad 82 3d 2b 7f 85 3e 1f 05 1a bf
       0.17205782 0.06380682 0.26073584 -0.60164064
000330 51 10 1c bf a4 0e c0 3c ee 34 32 bc 32 5e 5e 3d
       -0.60962397 0.023444481 -0.010876877 0.05428905
000340 23 de 3b be 92 ab 46 be 05 cc 41 be 57 ec 14 3d
       -0.18346457 -0.19401386 -0.18925484 0.036358204
000350 bf 1a c1 bc 88 b4 53 bd da 11 ff bd 6e 15 09 be
       -0.023572324 -0.05168584 -0.12454577 -0.13387081
000360 a0 ee 17 3e 4b aa cb be fb 23 16 bf 9a ed 68 be
       0.14837122 -0.3977836 -0.5864865 -0.22746888
000370 bb 04 58 3e d2 e6 9e 3e ae 5b 84 3e 24 10 31 3e
       0.21095555 0.31035477 0.25851196 0.17291313
000380 46 9a c8 be b4 c4 e2 bd ea 19 1d be 11 91 28 3e
       -0.391802 -0.110726744 -0.15341917 0.16461588
000390 df f3 1b 3e e9 ca 6b be 53 8b 68 bd 3e 52 40 bd
       0.15229748 -0.23026623 -0.056773495 -0.046953432
0003a0 60 5b 9d bd a6 ee a4 be e0 61 9b be 07 14 81 be
       -0.07683444 -0.32213324 -0.3034811 -0.25210592
0003b0 c4 b9 18 be 11 18 5c 3c a8 f1 b1 be 8c b2 19 be
       -0.14914614 0.013433472 -0.34754682 -0.15009516
0003c0 90 35 88 3f db 1d 11 40 79 60 9e be b3 a3 0c be
       1.0641346 2.2674472 -0.30932978 -0.13734321
0003d0 66 de 89 3e 28 3a 54 3d 39 b0 10 3d c7 7e 80 be
       0.2692749 0.051813275 0.03532431 -0.25096723
0003e0 d0 5d 96 3e d2 ef 82 be 66 8e 19 bf 31 db 9d be
       0.29368448 -0.25573593 -0.5998291 -0.30831292
0003f0 fb 78 32 bc 1c c7 20 3e 50 a2 44 3d 11 2c 8b 3d
       -0.010893102 0.15700954 0.048006356 0.067955144

policy_net.0.bias f4 [64]
000000 8c 9e 60 3e c5 03 39 bc c7 eb 5e be 99 73 82 3e
       0.21935481 -0.011292403 -0.2176963 0.2547882
000010 29 38 b9 bd cc 67 3b be bc 76 3d 3e 91 24 43 be
       -0.09043915 -0.18301314 0.18502325 -0.19056918
000020 1f a3 df bd 1b 36 bd be 3c d7 9c bb 55 8c a4 3d
       -0.10919785 -0.36955342 -0.0047864 0.08034579
000030 45 44 a8 bd 7f 4f a0 bd 1f 15 bf 3c 6e 32 f0 3d
       -0.082161464 -0.07827663 0.023325501 0.11728369
000040 3d c1 0a bd ea fa b5 bd 4a 7b f5 3d 90 be 7e 3e
       -0.033875693 -0.08885749 0.11986406 0.24877381
000050 db d3 0f be 18 33 e5 bc d2 91 a3 3d e2 3d ad bd
       -0.1404566 -0.027978465 0.079867974 -0.08459069
000060 71 01 41 3e b0 1f 2f bb 87 6c 13 bc df f6 b9 3c
       0.18848206 -0.0026721768 -0.008998043 0.022700725
000070 41 72 97 be be 68 91 be 1c ba 7e be 60 b6 09 be
       -0.29579356 -0.28400224 -0.24875683 -0.13448477
000080 6f 74 e0 3d 80 61 d8 bb 3c 45 24 3e 57 84 38 3d
       0.10959708 -0.00660342 0.16042036 0.045048084
000090 e3 c5 01 3e 6d 6d c4 bd c8 40 3e be c7 e6 85 be
       0.12673144 -0.09591184 -0.185794 -0.26152632
0000a0 85 c4 18 3d bc 75 06 bb ce ce 07 3e 48 b6 80 be
       0.03729679 -0.0020516952 0.13262483 -0.2513907
0000b0 6b f4 e6 3c c3 cb 82 be c1 51 6f be fe 24 f2 bd
       0.02819272 -0.25546083 -0.2337103 -0.11823462
0000c0 f3 dd 03 bd ca de 63 be 2c 68 b6 bd 1a 3f 04 be
       -0.03219409 -0.22252956 -0.08906588 -0.12914696
0000d0 6b 2d c9 3d 82 32 a1 3d e2 91 d5 bb 78 e9 44 be
       0.09823116 0.07870962 -0.0065176347 -0.19229686
0000e0 f5 a2 9b 3e b1 75 4e be 73 fd 7d bd a8 20 1f be
       0.30397764 -0.20162083 -0.062009286 -0.15539801
0000f0 36 50 14 3e ef 9f 27 bd e0 18 89 3d 1a d9 2b 3d
       0.14483723 -0.04092401 0.06694198 0.04195509

policy_net.2.weight f4 [64, 64]
000000 3d fd 28 be 7a f8 9d be 62 4c 68 3e cf 39 eb be
       -0.16502853 -0.30853635 0.22685388 -0.45942542
000010 e4 8d 29 be a9 83 b4 be 34 a7 06 bf 7c 61 70 3d
       -0.16558033 -0.352567 -0.5259888 0.05868672
000020 83 6d 0e 3f aa e2 ad 3d 50 62 6a 3e 0b 85 4f 3e
       0.5563585 0.08490498 0.22889066 0.20265596
000030 c8 60 de 3d d0 9d 2b be 36 d0 66 be ef 6c ae be
       0.10858303 -0.1675942 -0.22540364 -0.34067485
000040 1f 29 40 be cb 9a 6b 3e d7 cb cf 3e 3e 16 ac 3e
       -0.18765686 0.23008268 0.40585205 0.3361072
000050 57 6d 67 3e 14 a5 5a 3d e0 55 a6 3d 36 62 64 3e
       0.22600304 0.053380087 0.08121848 0.2230309
000060 4c 53 89 bd 55 28 92 be 2e 4c 8d be 53 83 0f 3e
       -0.06705341 -0.28546396 -0.27597183 0.1401494
000070 3a 1a 59 3e af 62 34 3e 07 34 36 bd 88 37 ab 3c
       0.21201411 0.1761577 -0.04448321 0.020900503
000080 17 64 5d 3e 84 c3 cb 3e 43 31 9c 3e d6 20 73 3c
       0.21620212 0.39797604 0.30506334 0.014839372
000090 54 39 bd 3c 1b bd b9 bc af 08 c3 3e c1 00 1b 3d
       0.023098625 -0.02267318 0.38092563 0.037842516
0000a0 c9 5c b8 3d 88 e5 41 bf 22 28 b3 be 38 85 5b 3d
       0.09002072 -0.7574086 -0.34991556 0.053593844
0000b0 c4 c2 b8 be 4f 98 d4 bb 45 22 a7 be 5e 08 33 bf
       -0.36086094 -0.006487883 -0.32643333 -0.6993464
0000c0 fe 35 b5 bd 51 2b 5a 3e 3f 52 b5 be b8 9c 2c 3f
       -0.08848189 0.21305586 -0.3541431 0.67426634
0000d0 a0 10 3f be b4 7c ed 3e 02 9b 4c bf 79 1a 6e 3e
       -0.18658686 0.46384203 -0.79924023 0.23252286
0000e0 f1 2e 89 be 39 be 33 3e e8 77 06 3d 62 1c 6c be
       -0.26793626 0.17553033 0.032829195 -0.23057702
0000f0 75 dc 0a bf 45 f4 7d 3c 5c 97 2d bf 48 6b 7d be
       -0.5424264 0.015500133 -0.6780908 -0.24747956
000100 a2 0e d8 3e 99 20 49 bd 20 aa c6 3d 8d 9a 47 3f
       0.42198664 -0.049103353 0.097004175 0.779702
000110 d6 d5 4e be 8a d5 b4 3d 6f e0 9c 3e 18 76 80 3d
       -0.2019876 0.08829792 0.3063998 0.062725246
000120 a6 0c a0 3d 1e 0a dc 3e 23 fd 8f bd a3 b7 03 3f
       0.078149125 0.4297647 -0.07030704 0.5145208
000130 4a 85 e5 3c 9f fe 0a 3e 89 f6 00 3f 08 49 63 3e
       0.028017659 0.13573693 0.5037618 0.22195828
000140 76 ec 9d 3e be 74 3c 3e f5 39 04 bd 3e 6e e7 3e
       0.30844468 0.18403909 -0.032281835 0.45201296
000150 c2 57 8b bd 1c a7 8e be 37 a6 87 be e5 f9 e8 3d
       -0.06803848 -0.2786187 -0.26494 0.113757886
000160 24 c0 7a be e0 ce 89 3e b9 2d ea 3e 6a dd 12 be
       -0.24487358 0.26915646 0.4573801 -0.14342275
000170 37 8b 71 bf 86 8c 3a bf e7 1f dc 3e b9 86 14 bf
       -0.9435305 -0.7287067 0.4299309 -0.5801807
000180 0a 35 22 3e ca b4 c2 be cd ec 23 3f 34 7d 10 3f
       0.15840545 -0.38028556 0.64033204 0.56441045
000190 35 09 4c 3e eb 95 1f 3e 74 a4 99 be 67 e1 35 bf
       0.19925387 0.15584533 -0.3000828 -0.7104706
0001a0 48 3c b8 be 94 e5 47 bf e1 48 16 bd 2c 47 56 be
       -0.3598349 -0.78084683 -0.036690596 -0.20925587
0001b0 72 4c 84 bd b0 09 9b 3d c0 90 af be c8 53 0f bd
       -0.06459893 0.07570207 -0.34290123 -0.03499201
0001c0 d1 d4 32 3d ae 8b 28 3c 54 86 74 3e eb a7 b1 be
       0.04365999 0.0102872085 0.23879367 -0.34698424
0001d0 7b e1 0f bf 57 1a 07 be 7c a0 46 3e 51 04 5f 3e
       -0.5620343 -0.13193642 0.19397157 0.2177899
0001e0 0a 7e 30 3e f5 e6 a8 be ab c0 52 bd c2 87 a9 3e
       0.1723558 -0.32988706 -0.051453274 0.33111387
0001f0 91 3a 55 3f 9b f6 13 be fe 12 83 3e ad d6 c4 3e
       0.8329249 -0.14449541 0.25600427 0.38445035
000200 38 20 0a 3e c7 d6 a5 3d 2d 93 10 3e 7c 08 6f 3d
       0.13488853 0.08097606 0.14118643 0.0583577
000210 44 a3 3a 3e 0d 95 b2 3e 07 e7 a9 be 64 7d d8 3e
       0.18226343 0.34879342 -0.33184072 0.42283165
000220 96 a5 e0 3e b9 de dd be e6 9a f1 bd 56 9d 1b 3d
       0.43876332 -0.43333986 -0.11797123 0.037991844
000230 14 cf 83 be 58 08 2f 3e 54 67 c9 bd 76 7a ee be
       -0.25743926 0.17093027 -0.098341614 -0.46577805
000240 48 4e 8e 3e 90 d4 47 3d 4f 88 b0 bb fa e1 58 3e
       0.277941 0.0487867 -0.005387343 0.21179953
000250 57 0e 68 3e e2 9b 58 be 8a cc e8 3c 3c 17 72 3e
       0.2266172 -0.21153215 0.028417844 0.23641676
000260 75 54 cd bd 7c 27 6e be 6c 8e b0 3d 81 d4 8d bd
       -0.100258745 -0.2325725 0.08620915 -0.069252975
000270 d5 10 aa 3e 53 bc 96 3c c6 c9 1a be 00 85 6b 3c
       0.33215967 0.018400347 -0.15116033 0.014374971
000280 a6 39 b6 3e 93 5d f2 3d 27 15 2a 3e a7 22 ba bd
       0.35590857 0.11834254 0.16609631 -0.09088641
000290 d6 0f ac 3e db e3 04 3f 28 76 bb 3e 22 f3 ec bd
       0.33605832 0.5191018 0.36613584 -0.115698114
0002a0 b6 d6 d4 bd 05 3b a3 bd ef 34 66 bd 51 cf 14 3f
       -0.10392515 -0.079702415 -0.056202825 0.5812884
0002b0 cc fc c1 be fb 7b 24 bd ff b9 0e 3d d5 bc f8 be
       -0.3788818 -0.0401573 0.03484535 -0.48581567
0002c0 18 cc 16 bc 82 51 37 3e 53 2b 07 3e dd c6 aa 3e
       -0.009203933 0.17902187 0.1320012 0.33354846
0002d0 71 d7 dd be 03 de 95 3e b4 2e 1e 3d 36 59 68 bb
       -0.4332843 0.29270944 0.03861876 -0.0035453564
0002e0 82 bc f9 bd de 03 23 3e 99 45 8b 3d 91 f4 b0 be
       -0.12194158 0.15919444 0.06800384 -0.3456159
0002f0 ec 41 00 be ba 34 ff 3d 86 13 b4 bd 6d 39 59 3e
       -0.12525147 0.12461229 -0.08792786 0.21213312
000300 25 18 fd bd 55 0f d5 3c dd 4b 38 bc d6 b2 84 3e
       -0.12358121 0.026008287 -0.011248556 0.2591769
000310 ea cc b8 bd 1a e1 e6 3d a0 89 0a be ed a0 0e bd
       -0.09023459 0.112734035 -0.13529062 -0.03482144
000320 11 7c bb be 95 93 db 3e 14 4d e7 3d 70 a9 b9 3e
       -0.36618093 0.42886034 0.11293998 0.36262083
000330 0f c6 b2 3e ca da 29 3e 43 4c ae bd aa 99 9f 3e
       0.34916732 0.16587368 -0.085106395 0.31171924
000340 93 4a 03 3e 8b 29 af be b8 ea 87 3c 6b a4 09 be
       0.12821417 -0.34211382 0.016591415 -0.13441627
000350 55 ff 91 be 9f f1 4d 3e 4d 26 2d bf cb 52 41 be
       -0.28515115 0.20111702 -0.6763657 -0.1887924
000360 aa ad 97 3e 1a 02 2f 3e c8 6f 1e bc 48 82 36 3d
       0.29624683 0.17090645 -0.009670205 0.04455784
000370 d3 71 82 be 20 fc 77 3e 19 98 06 3f f6 fb 2b be
       -0.25477466 0.24217272 0.5257583 -0.16795334
000380 42 20 8b be 7f 67 0c bf 0d d2 f1 3e 7d f3 14 be
       -0.27173048 -0.5484542 0.4723057 -0.14546008
000390 0c c2 a6 be 36 3b 69 be de f9 0c bf f9 ca b3 3c
       -0.3256992 -0.22776493 -0.5506877 0.02194737
0003a0 58 99 ab bd 52 88 d7 be fa 44 3c be 02 88 e0 3d
       -0.083788574 -0.42096192 -0.18385687 0.109634414
0003b0 4d ca d0 3d 6b 6c 30 3d 8a 1b 8b be 35 41 4d 3e
       0.10194836 0.043072145 -0.27169448 0.20044406
0003c0 77 16 c1 3d 39 3c d3 be 04 b7 4f 3e ea a9 b6 bc
       0.09428113 -0.41256884 0.20284659 -0.022297818
0003d0 eb 61 f8 bd 27 9c e3 be bd 15 f2 3e c5 d5 15 3d
       -0.12128051 -0.44455072 0.4728221 0.03658082
0003e0 82 f5 b6 3e 73 e4 ee be 76 66 29 be b4 f6 d4 bc
       0.35734183 -0.46658668 -0.16542992 -0.025996543
0003f0 ce e2 e9 bc 8f 9f 0c 3d 7c e9 9b bd 40 da 16 3d
       -0.028550532 0.034331854 -0.07612893 0.036829233

policy_net.2.bias f4 [64]
000000 2f 55 25 3e a4 ba 67 3d db 75 66 3e 30 97 5b be
       0.16145776 0.05657448 0.22505896 -0.21444392
000010 50 9b 78 3d d3 47 e7 bd 66 4f fb 3d aa 5b 98 3c
       0.060694993 -0.11292996 0.122710034 0.018598396
000020 72 95 92 be 5e 6d 9b 3e d6 f5 c5 3d 90 30 1d 3e
       -0.28629643 0.30356878 0.0966603 0.15350556
000030 3b 02 95 bc 7d e9 ad bd 04 0e 28 bd 76 53 dc bc
       -0.01818954 -0.084918 -0.04102899 -0.026895266
000040 fb d3 db 3e 89 06 36 3e ee 48 0a 3e 43 78 2b 3e
       0.42935166 0.1777593 0.13504383 0.16745095
000050 db ed 06 3e 8e 73 24 bd 80 88 08 bd 1b c7 68 bd
       0.13176672 -0.040149264 -0.0333333 -0.056830507
000060 f5 cd 5b 3e 8d 43 c9 3e 59 80 69 3e bb cf fd 3d
       0.21465285 0.3930935 0.22802867 0.12393137
000070 71 94 52 be 3c d5 82 3d 3b bc b7 3d ce 5f f2 bd
       -0.20564438 0.063883275 0.08971449 -0.118346795
000080 07 a6 f7 3e 05 2d 00 3e c2 df 5b 3e 41 79 ea bd
       0.48368856 0.12517174 0.21472076 -0.114489086
000090 4e 88 c6 bc b1 8e 0a bd 15 d3 d5 3d 09 a6 a1 bd
       -0.024234917 -0.033827487 0.10440651 -0.07892997
0000a0 8e 12 8d 3b 4f 54 16 b9 61 82 c8 3e 5d d2 6f 3d
       0.0043051904 -0.00014336522 0.3916197 0.058550227
0000b0 0b 35 84 3d de 8b 6c bd 96 b2 ac 3d ad 43 6b bd
       0.0645543 -0.057750575 0.084325 -0.057437588
0000c0 23 ec 19 be 59 e6 e9 3e 8e 84 42 be 45 a0 28 3e
       -0.15031485 0.45683554 -0.18995878 0.16467388
0000d0 af 0b 4c be 5c 3c d8 bd d7 ee 90 3e 8d 54 51 bc
       -0.19926332 -0.10558388 0.2830722 -0.012776506
0000e0 6c c4 0c 3e 5c c7 8e 3e d5 87 9e bc 97 22 f3 3e
       0.13746804 0.27886474 -0.01935188 0.47487327
0000f0 13 bf 19 3e 68 91 7b bd 29 03 f6 3c 2f c3 5c 3e
       0.15014295 -0.061417967 0.030030804 0.21558832

policy_net.4.weight f4 [4, 64]
000000 d3 d6 2b 3e 46 5e 32 bd ea 53 15 3e f1 de 09 bf
       0.16781168 -0.043546937 0.14582792 -0.53855807
000010 df 45 c4 bc f1 a1 08 3e 8b 65 ac 3e 02 12 67 be
       -0.023959098 0.13343026 0.3367122 -0.22565463
000020 ef b4 21 bf 33 e9 40 3e 66 90 89 3d 67 e8 00 bf
       -0.6316671 0.18838958 0.06716995 -0.5035462
000030 a4 b4 a4 3e 84 cf 40 bd e4 fc 93 3e f4 0c 0f be
       0.32169068 -0.047072902 0.28903878 -0.13969785
000040 aa b0 ad bd 95 b7 e1 bd fd aa 7c bd 8e f6 c4 3c
       -0.084809616 -0.110213436 -0.061686505 0.024043348
000050 eb 5a 97 be 0d b3 3b be fe 64 8d 3e 1f 31 af be
       -0.29561552 -0.18330021 0.27616113 -0.34217164
000060 40 47 b7 be 68 29 41 be 7c 32 52 3e ab b3 8d 3d
       -0.35796547 -0.18863451 0.20527071 0.069190346
000070 64 77 2a 3e 35 67 0f be ff 72 28 bd 00 12 c9 3d
       0.16647106 -0.14004214 -0.041125294 0.09817886
000080 83 08 ef bd 65 ba 8f 3d 9b a6 d0 3e 3d d9 da 3c
       -0.11671545 0.07017974 0.4075211 0.026714915
000090 6b 32 89 bd e7 09 93 be 51 97 c0 3d e0 8c 64 3d
       -0.066990696 -0.28718492 0.09403861 0.05579841
0000a0 f9 dc a3 be 80 4c d1 bd 18 c1 e5 3c bf cb 81 be
       -0.32004526 -0.10219669 0.028046176 -0.25350758
0000b0 24 f6 d1 bd 42 c1 ba 3d 3b be 6a 3d cf 9c d5 bd
       -0.10252026 0.09118892 0.057310324 -0.104302995
0000c0 45 f4 dc 3d 8a 23 51 bd 4d b3 22 3d 00 6f 22 bb
       0.10788778 -0.051059283 0.039721776 -0.00247854
0000d0 ae d9 ea 3d 4e f0 7d ba d8 24 57 be 63 6d f0 bd
       0.114673 -0.0009686992 -0.21010149 -0.11739614
0000e0 c0 a0 b7 be 49 34 b7 3e e0 db 16 3c f2 ab 86 bd
       -0.3586483 0.35782078 0.009207696 -0.06575765
0000f0 68 e5 de 3b 51 91 21 3e 58 82 a6 bb 4b d7 cc 3d
       0.0068022497 0.1577809 -0.005081456 0.100020014
000100 a2 32 e1 3d 08 bf 3f be dc ff 7a be fd 9e 97 3e
       0.109959856 -0.18725216 -0.24511665 0.29613486
000110 ef ce bf be d9 8e 48 be 85 78 15 bf 73 c8 b6 be
       -0.37462565 -0.19585742 -0.58387023 -0.35699806
000120 e4 61 38 bd b7 f1 fe be e1 ea d2 bd 65 e9 ee 3e
       -0.04501523 -0.4979379 -0.10298706 0.4666244
000130 b1 17 f0 3e 92 61 30 bf 4c 0e a1 3d 04 9d 1b bd
       0.46893075 -0.6889888 0.07864055 -0.03799154
000140 07 fd 10 3e be 5d 1d bf bd f9 15 bf df 79 42 be
       0.14159022 -0.61471164 -0.58584195 -0.18991803
000150 08 c4 18 3f e6 45 46 3e 54 d2 92 bd 85 f2 5a be
       0.5967412 0.19362602 -0.07169023 -0.21381576
000160 af df 5f bd 13 31 26 3f e3 b8 4a 3f 7f ae 13 bf
       -0.05465668 0.6491863 0.79188365 -0.57688135
000170 50 a9 67 bd 9b 7f 63 bd c5 e9 23 3f de 08 0e 3e
       -0.056557953 -0.055541616 0.6402858 0.1387057
000180 b6 d8 17 3f 25 4f 31 3f 55 4b 2e bf 90 93 da 3b
       0.5931505 0.6926139 -0.680837 0.006670423
000190 3a 9e 65 be 66 a6 ff bc 1c 44 f9 be cb 51 ab bd
       -0.2242364 -0.031207275 -0.48684776 -0.0836521
0001a0 61 8b 0c 3e b7 3b cc bc a9 1a 2f 3f 50 06 a6 3d
       0.13725044 -0.024930818 0.68400055 0.08106673
0001b0 df 5b 14 bf 63 c4 75 bd 86 ac 14 3e 51 c4 a7 3d
       -0.57952684 -0.060001742 0.14518937 0.08191741
0001c0 5b 2b 3a be 15 81 2e 3f 91 f6 0e 3f f4 19 12 3e
       -0.18180601 0.68165714 0.5584498 0.14267713
0001d0 f6 61 92 3e e7 20 d7 3d 05 9d 27 3f 2d 07 8d 3d
       0.28590363 0.105043225 0.6547397 0.06886134
0001e0 1e 2f 96 3c c4 77 41 be bf ce 1d bf a2 11 19 3f
       0.018333014 -0.18893343 -0.61643595 0.5979253
0001f0 f7 b0 56 3e 06 2f 06 be 0a 60 64 bc 64 54 fe bd
       0.20965944 -0.13103876 -0.013938913 -0.1241844
000200 8b 45 18 3e cd 66 a5 be bd 9a 9d be c4 7d 4c 3e
       0.14870279 -0.32304993 -0.30782118 0.19969851
000210 fd 86 f0 bd eb 26 01 3e 18 bf 8f bd b8 05 1e 3f
       -0.11744497 0.12612502 -0.0701887 0.61727476
000220 7f d5 0a 3f 63 9b ca be d6 a0 e2 3e ae bd a2 3e
       0.5423202 -0.39571676 0.44263333 0.3178534
000230 80 88 2b bd cb 2d 32 3c 38 d7 29 3f 53 dc 1a 3d
       -0.041878223 0.010875176 0.6634402 0.037807774
000240 60 09 31 3f 19 f6 20 bc e3 07 fc bc 50 4a 99 3c
       0.6915493 -0.009824299 -0.03076548 0.018712193
000250 88 43 72 3e 3d f3 bb 3d 37 f9 f8 bd 71 3f 8f 3e
       0.23658574 0.091772534 -0.12156909 0.2797809
000260 df 08 31 3f ef 81 9e 3e 87 b1 a6 3e 61 7a 20 bf
       0.6915416 0.30958506 0.32557318 -0.62686735
000270 78 8d 51 be f8 e4 8f be 8d 84 49 be 81 f7 2b be
       -0.20464122 -0.28104377 -0.1967947 -0.16793634
000280 35 ef 6e 3e 08 5c 8b 3e e5 2d 29 be d6 81 a6 bd
       0.23333438 0.27218652 -0.16521414 -0.08130233
000290 60 5a 0d 3f cb 96 e3 be 45 03 c8 be d7 85 8c 3d
       0.55216026 -0.44450983 -0.39064994 0.068614654
0002a0 54 08 30 bf e6 d5 b2 bd 5e 8b 48 3e bf 59 34 3f
       -0.6876271 -0.08732204 0.19584414 0.7044944
0002b0 3d 1b e6 3e 50 99 e6 3e 53 6d 21 3f de 9a 52 3b
       0.44942656 0.45038843 0.6305744 0.0032135765
0002c0 40 57 a6 3e d4 83 9c 3e 9b a3 6c 3f 82 cc 3d 3e
       0.3248844 0.30569327 0.9243714 0.18535045
0002d0 e8 10 80 be d8 a4 83 bf da 4d 00 be 58 32 60 bf
       -0.25012898 -1.0284681 -0.12529698 -0.8757682
0002e0 72 70 5e 3d c8 7e 1e bf 60 54 4c 3e 40 09 f9 3d
       0.054306455 -0.619122 0.19954062 0.121599674
0002f0 7f 2e 32 bf 2c 5f ee 3d 87 6d e7 be 71 5a cb be
       -0.696022 0.11639246 -0.4520075 -0.3971744
000300 b4 0b 31 3f ed 7f 72 bf 80 1f a5 3e ad f9 dd be
       0.6915848 -0.9472645 0.32250595 -0.4335455
000310 7c 3e da be 98 65 a1 3d 2b 33 94 3e 42 67 77 bf
       -0.42625797 0.078807056 0.28945288 -0.96641934
000320 cf 46 90 be dd 29 b0 be 15 0b 01 bf 55 5d b9 3e
       -0.28179023 -0.3440694 -0.50407535 0.3620402
000330 bb 7e 8b 3e 72 1a 8c bf a0 9d d4 be 8b d0 cd bc
       0.27245125 -1.094557 -0.41526508 -0.025123855
000340 a9 0e 25 3e 97 e8 e5 be b9 85 85 3e 23 f0 7d 3f
       0.16118874 -0.44904014 0.26078585 0.99194545
000350 0b 6a 1b 3d ba 9f 23 bf 07 22 61 be 6e 9c 79 3d
       0.037942927 -0.639156 -0.21985637 0.0609402
000360 75 1c 8a 3d 16 ab 3a 3e 8d 11 85 3e 56 ef 0e 3e
       0.06743709 0.18229327 0.25989953 0.13958487
000370 03 f7 cd 3e c4 22 31 bf 74 e3 8b 3b 38 4a 46 bd
       0.40227517 -0.69193673 0.004269058 -0.048410624
000380 b1 bf 12 3f 8e 5b 58 3e 1e 10 0d bf c2 3b 5a 3d
       0.5732375 0.21128675 -0.5510272 0.053279646
000390 d9 97 d2 bd dc f2 3b be 11 a3 0c 3f 6f 66 63 3e
       -0.10282869 -0.18354362 0.5493632 0.22207044
0003a0 67 5e 8e 3e a1 0e 84 bd a8 0f 81 3e c3 d0 f8 be
       0.27806398 -0.06448103 0.25207257 -0.48596773
0003b0 b8 98 ea 3e 01 d1 ae be cc 53 c0 bd a9 3e 99 bd
       0.4581964 -0.34143832 -0.09390983 -0.074826546
0003c0 cf cf 9c 3e a6 6e 9d 3e 5a a0 1f bf 68 fe 3f 3f
       0.30627295 0.3074848 -0.6235405 0.7499757
0003d0 c1 8b 1c 3e 1b 30 22 3f 29 ee d7 bd 55 2e 11 3e
       0.15287687 0.63354653 -0.10543472 0.1417783
0003e0 cf 91 df 3e 8e ea 23 3c 63 a3 d2 be 9a 1c 10 3f
       0.4366593 0.010004653 -0.4114028 0.5629364
0003f0 a6 65 73 3f 50 04 17 3d e7 9b 06 3f 72 a4 52 bf
       0.9507698 0.036869347 0.5258164 -0.82282174

policy_net.4.bias f4 [4]
000000 d5 ac 88 3d be 35 be bc 27 29 24 3d a7 9b ec 3d
       0.0667359 -0.023218986 0.04007831 0.11553126

value_net.0.weight f4 [64, 24]
000000 73 03 a3 3e 86 d9 91 3f 07 87 8e bf 1a 28 2c c0
       0.3183857 1.1394508 -1.1134957 -2.6899476
000010 42 fb 90 3d c8 2f ec 3d 19 44 2d 3e 8d 45 86 3b
       0.070791736 0.11532551 0.16920508 0.0040976466
000020 62 52 b0 bd 02 19 6f be 7d 1e 08 bd 7e d7 1a 3e
       -0.08609463 -0.23349383 -0.0332322 0.15121266
000030 bc 3c 81 bd a9 bd f3 bd 02 2c 93 3e 74 59 b4 3d
       -0.06310412 -0.11901409 0.28744513 0.08806124
000040 9f 1e e5 bc ce 90 62 bd 46 06 9f bd 0b da 3d bd
       -0.027968703 -0.055313878 -0.077648684 -0.04635052
000050 92 55 71 3e bc 0a dd 3e 50 64 40 3e cc c9 df 3e
       0.23567799 0.43172252 0.18788266 0.43708646
000060 c1 12 a3 bf 42 6f 17 c0 cd 60 40 3f 1d 4b 19 3f
       -1.2740098 -2.3661656 0.75147706 0.5988024
000070 eb 9a 50 3e 59 1a b1 bd ff 16 3c 3d 82 ff 7b bd
       0.20371597 -0.086476035 0.04592037 -0.061522968
000080 59 ef 04 3e 6f bc 2e be e2 04 2b be 60 23 01 bf
       0.12981929 -0.17064069 -0.16701081 -0.504446
000090 60 30 84 bc 89 50 8b bc 1a e3 8c 3d 86 05 3a 3e
       -0.016136348 -0.017006176 0.06879254 0.1816617
0000a0 59 1e 0a 3e 9d 10 d1 3d 33 48 8a be ec 4f 23 be
       0.13488139 0.10208247 -0.2700821 -0.15948457
0000b0 7a c4 c1 be 9a c4 d5 be b5 a3 0d 3c 6e d4 01 be
       -0.37845212 -0.41751558 0.008644988 -0.12678692
0000c0 f4 5b 01 3f 2c 8e f5 3f 70 db aa bf 63 a9 25 3f
       0.50530934 1.9184012 -1.3348217 0.6471159
0000d0 c2 1a 1c 3f fa d2 4d 3d 2d 6d db 3e e4 2a 95 3d
       0.6097833 0.05025003 0.42856732 0.07283571
0000e0 91 1f 51 3d 46 d2 03 3e cd 70 3b 3d 18 f3 9c be
       0.051055495 0.12873182 0.045761872 -0.30654216
0000f0 f5 c7 42 3d 82 60 b4 bc 03 6e 84 bd 12 fc 0b 3e
       0.047553975 -0.022018675 -0.064662956 0.13670376
000100 8a df a8 bd f8 1e 1c be fc 05 20 bc 7c a0 0c be
       -0.08245762 -0.15246189 -0.009767052 -0.13733095
000110 3c de 3b be 21 70 6d 3e aa 22 b1 3d 69 76 16 bd
       -0.18346494 0.23187305 0.0864919 -0.03673402
000120 44 aa 1c 3f cd 41 17 40 40 e3 d0 be 1d 54 75 3e
       0.61197305 2.3633912 -0.40798378 0.23957868
000130 32 42 e7 3d 42 0c d5 3b e6 a1 3e 3e 34 d3 aa bd
       0.11291923 0.0065017054 0.18616447 -0.08341065
000140 5a b8 e5 bd 27 3e 1e be 49 51 a4 3d db 4e 99 3e
       -0.11216803 -0.15453397 0.080233164 0.29942974
000150 21 a7 00 3c 8e 2f 80 be 97 a0 9c 3d 2a 2a b3 3c
       0.007852347 -0.2503628 0.076478176 0.021870691
000160 22 35 0f be 93 11 5f 3d 84 da 35 be 53 a8 0a be
       -0.13985112 0.05446012 -0.17759138 -0.13540773
000170 ed ee 8e 3d eb 22 50 3c 02 ba 6d be 30 41 8d be
       0.06979165 0.012703638 -0.23215488 -0.27588797
000180 9b cf 2f bf 5c dd 82 be 67 45 48 3f 11 a4 7f bf
       -0.68676156 -0.2555951 0.782309 -0.9985972
000190 bf ca 80 3e 6b 3b 8b 3d b9 e9 10 3e 0b ea 25 bd
       0.25154683 0.067984425 0.14151658 -0.040506404
0001a0 36 e3 2f 3c 11 12 fe be 64 34 11 be 97 36 01 bf
       0.010735324 -0.4962316 -0.14180142 -0.5047392
0001b0 c6 6d 66 3c 5a b2 1d 3d ce c8 59 3e 6e 30 7e 3d
       0.014064258 0.038500167 0.21268007 0.062057905
0001c0 11 ca c7 3d 02 c7 21 be ca d2 29 be 72 55 bf be
       0.09755338 -0.15798572 -0.16584316 -0.37369877
0001d0 87 69 75 be 3d 45 8b be 09 77 8e be ff 9f a9 3e
       -0.23966037 -0.27201262 -0.27825192 0.3312988
0001e0 e0 cf 96 bf 6d d2 45 c0 ce 41 f4 3e 3b 8f b0 3e
       -1.1782188 -3.0909684 0.47706455 0.34484276
0001f0 93 cf c8 3e 28 d1 20 3d ad da 90 3d 97 66 0a bd
       0.39220867 0.039261967 0.07072959 -0.033789244
000200 90 1c 57 3b 3e 73 84 be cb 8b c0 bd 3e 39 46 be
       0.003282342 -0.25869173 -0.094016634 -0.19357774
000210 1e b5 b9 bd 15 71 5b 3b 41 5a c9 bd 07 e1 7b 3e
       -0.090677485 0.003348415 -0.09831668 0.2459756
000220 f1 fe 10 be b2 05 85 3d 95 7d 86 bc fe ea 69 be
       -0.14159752 0.06495227 -0.016417304 -0.22843549
000230 2b 19 18 be b4 1e 5c be 4f 2e 1a bc 06 8a 7d be
       -0.14853351 -0.21496087 -0.009410455 -0.24759683
000240 b1 87 5d 3e f1 e3 4b bf 05 e2 4e bf 76 15 22 40
       0.21633793 -0.79644686 -0.8081363 2.5325599
000250 8f 23 61 3e 2c 7b 39 bd 3b bc c6 3c ef ad 09 bd
       0.21986221 -0.04528348 0.024259677 -0.03361314
000260 16 a9 80 bd f4 12 04 be 36 a1 d3 3c 61 94 05 3d
       -0.062822506 -0.12897855 0.025833707 0.03261221
000270 15 3e 45 bc 06 01 b8 bc 53 33 a9 3e 99 83 78 3e
       -0.012038727 -0.022461426 0.3304697 0.2426895
000280 34 a1 c5 3e d1 45 8b 3e e1 66 e7 3d 76 5d 4d 3e
       0.3859955 0.27201703 0.112989195 0.20055184
000290 3d 98 8f 3e 5f a5 80 3e 45 e3 dd 3d 33 23 c6 be
       0.28045836 0.25126168 0.10834364 -0.3869873
0002a0 9e c2 59 3f 65 54 94 3f 47 b5 a2 bf 7d 71 82 3f
       0.8506259 1.1588255 -1.2711571 1.0190884
0002b0 2d fd 24 3f 78 75 b6 3a 22 d8 67 3f bd f2 24 bd
       0.64448816 0.0013920506 0.9056417 -0.040270556
0002c0 24 f3 af bd d4 32 10 bf bd 42 cb 3d af 00 a6 3d
       -0.08591297 -0.5632756 0.09924839 0.08105599
0002d0 eb 78 5e bd 5d 97 da be 78 6d 6b 3e 31 fe 43 3e
       -0.054314535 -0.42693606 0.22990978 0.19139935
0002e0 7c 83 9e bc cc 98 be 3c 87 ff 84 3d 67 59 4e bd
       -0.019349806 0.023266219 0.064940505 -0.05037823
0002f0 81 d1 2d bd 68 39 65 3e d0 f0 7c be 46 0d 87 bc
       -0.042436127 0.2238518 -0.24701238 -0.016485821
000300 4b 86 49 3c db 99 5f 3f 14 9c af be c4 5f 41 3e
       0.012300084 0.8734414 -0.34298766 0.18884188
000310 1f dc c1 3e 56 21 b8 ba c2 4d eb bd 86 cd 13 bc
       0.37863252 -0.0014048021 -0.114894405 -0.009021169
000320 8a 03 ab bd 1c aa e6 be 49 a0 88 3d a9 5a ff bd
       -0.083502844 -0.45051658 0.06671197 -0.12468464
000330 c6 f3 6d bd 07 65 fc bc 05 48 27 3e b4 50 20 be
       -0.05809381 -0.030809892 0.16336067 -0.15655786
000340 cd b2 da 3d 46 7f c0 bd 27 a4 f5 3c cd 82 a3 3d
       0.10678635 -0.093992755 0.0299855 0.07983933
000350 bd 1c 1e 3e c7 3e 4d 3e 60 0a 1b 3e b2 1c e5 bb
       0.1544065 0.20043479 0.15140676 -0.006991946
000360 25 79 a3 bf a4 cc 65 c0 00 d5 f0 3d 47 05 36 be
       -1.2771345 -3.5906153 0.117593765 -0.1777545
000370 ba df e3 bc e2 62 22 3a f4 1b 14 be b1 4e f3 bc
       -0.027816642 0.0006194544 -0.14463788 -0.029700609
000380 b1 a3 6c bd e4 06 b2 be 8d 01 4c be 1c 53 27 bf
       -0.057773296 -0.34770882 -0.19922467 -0.6536119
000390 bb 81 72 bd f5 70 e5 bc 1a c2 02 3f ed d1 e1 3e
       -0.059205752 -0.028007964 0.51077425 0.44105473
0003a0 e6 e3 7f 3e 98 8d 99 3e 60 0f a5 bd b1 6c 38 be
       0.2498928 0.2999084 -0.08059573 -0.18010212
0003b0 5d fd a4 be 3f 36 e4 be 3e e3 7c be 2a 7b 8d 3e
       -0.3222455 -0.44572636 -0.24696061 0.2763303
0003c0 cf c0 a2 bf b1 0a 8a bf 02 40 3c be 82 4d 87 3f
       -1.271509 -1.0784513 -0.18383792 1.0570529
0003d0 df 06 61 be c3 6a b7 bc 72 db ba 3d ec ac 13 bd
       -0.21975277 -0.022389775 0.09123887 -0.036053583
0003e0 74 93 21 be b2 70 90 be 7e 54 11 be 16 50 93 bf
       -0.15778905 -0.2821098 -0.14192387 -1.1508815
0003f0 c6 2d ce bc 2a 5e b2 3d e5 d2 2a bc 63 d4 90 3d
       -0.02516831 0.087093666 -0.010426258 0.070717596

value_net.0.bias f4 [64]
000000 31 6a d5 3e d5 9f 8e bd a5 3c ad be 99 d9 0a bf
       0.4168258 -0.06964079 -0.3383533 -0.5423828
000010 9d 4e e7 3e e8 11 4e be 4e e2 eb bd 96 db 93 3e
       0.45177165 -0.20124018 -0.115177736 0.28878468
000020 8b 54 7d bb bc 48 70 3d 98 b1 06 be a9 4d 2d be
       -0.0038655128 0.058663115 -0.13153684 -0.16924156
000030 79 26 c7 bb 0b 1b 27 3e 93 50 49 3d 93 49 58 be
       -0.0060775843 0.1631891 0.049149107 -0.21121816
000040 85 15 fe 3d 9e e6 cc be 29 71 9f bd e5 ed 32 3e
       0.12406448 -0.40019697 -0.077852555 0.17473562
000050 51 c5 84 be 3f ae b3 3c 70 43 4b be 09 e6 8e 3e
       -0.2593179 0.021933673 -0.19849944 0.27909878
000060 8d ce 68 be 8c 8b 58 be bc f5 d8 3e cf 43 91 be
       -0.22735043 -0.21146983 0.4237498 -0.28372046
000070 d8 27 6f 3d bc a8 31 3d ae 59 1f 3e 27 7a c2 be
       0.058387607 0.04337381 0.15561554 -0.3798382
000080 ba a4 f2 3b 7a 27 bc 3b d0 e0 41 be 8e da d3 39
       0.007404891 0.0057420107 -0.18933415 0.00040407892
000090 77 dd 17 be 63 b0 29 3d 9a 30 97 be b7 12 e8 bd
       -0.14830576 0.04142798 -0.29529268 -0.113316946
0000a0 a2 bc dc 3d b1 d7 34 bd bc 27 f2 3c ea c2 82 3e
       0.10778166 -0.04415101 0.029559962 0.25539333
0000b0 9c b4 01 be 8f b2 95 3c 12 ae 97 bd 8c 65 85 3e
       -0.12666553 0.01827362 -0.07406248 0.26054037
0000c0 cb c2 a2 bc 6b 58 7c 3e cd a5 ad 3e 08 0c 36 be
       -0.019868275 0.24643104 0.33915558 -0.17778027
0000d0 90 f9 3c 3e e4 d4 f2 be 17 3b 34 3e c0 91 8c be
       0.18454576 -0.47428048 0.17600666 -0.27454948
0000e0 4a e5 be 3e ae f4 32 be 9a 30 97 3e b2 b9 be bd
       0.3728431 -0.1747615 0.29529268 -0.09312762
0000f0 b7 f3 1b be 85 97 2c be 8d b9 a0 3d 22 4f ef 3b
       -0.15229689 -0.16854675 0.07847891 0.0073031345

value_net.2.weight f4 [64, 64]
000000 28 9b a8 3d dc 58 73 3e 8b f8 af 3e 0f e0 e6 3e
       0.08232719 0.23764366 0.3436931 0.45092818
000010 2e 4f 6c 3f e5 22 0d bd fa c0 f9 3e 76 ab ab bf
       0.9230832 -0.034457106 0.48780042 -1.3411701
000020 2d 29 fa bd 57 38 7e 3f ea e7 81 bf 45 67 b0 3b
       -0.12214885 0.9930472 -1.01489 0.0053834044
000030 5d 8f 12 3c 01 f2 81 3f 6d 8d 33 3e b1 ac 3b 3d
       0.008945313 1.0151979 0.17534418 0.04581899
000040 64 9e 01 3f 3e 86 86 3e 69 27 ee bc 0a 31 bc 3d
       0.5063231 0.26274294 -0.029071527 0.09189041
000050 34 10 40 3f af 15 e1 be 96 be 0f bf b5 66 6d 3e
       0.75024724 -0.43961856 -0.56150186 0.23183711
000060 71 cb 4c 3f ee 8e ce 3e 51 34 21 be a7 0f 8b bf
       0.79997927 0.40343422 -0.15742613 -1.0864152
000070 d4 71 88 3f b8 9f 91 3d c3 53 25 3e a5 37 22 3f
       1.0659738 0.07110542 0.16145234 0.63366157
000080 b1 d4 c9 3e 03 af ef 3d cc b9 81 3b 1c 0e 08 bf
       0.39420083 0.11703303 0.0039589163 -0.5314653
000090 28 87 86 3e ce 2c f1 3e 2a 00 24 3e bd d5 ab bd
       0.2627499 0.47104496 0.16015688 -0.08390377
0000a0 78 5c 8b 3f 1b bf 69 3c 5e 5a 78 3e d2 7b 95 3e
       1.0887594 0.0142667545 0.24253222 0.2919603
0000b0 df ad 7c 3d f3 06 98 be 1f 4b 30 3f 81 15 cb bf
       0.061689254 -0.29692802 0.68864626 -1.5865937
0000c0 b9 b0 18 3e af 6f e0 bc 9e 24 0f 3d db e3 63 3f
       0.14911164 -0.027397005 0.03494703 0.89019555
0000d0 17 f3 fa 3e 1e de 80 3f 14 33 d9 3e 1f 84 a0 3b
       0.49013588 1.0067785 0.42421782 0.0048985626
0000e0 d6 be 9f be 57 06 8c 3e 97 93 d7 3e e4 53 76 3e
       -0.31200284 0.27348587 0.4210479 0.24055439
0000f0 6b 3f ba 3e 4b 30 7e be ce a2 bf 3d ef 1a 2c 3f
       0.3637651 -0.2482311 0.093572244 0.672286
000100 e2 8a 1f bd 02 88 8d 3e dd b3 14 3f 16 64 00 3f
       -0.03895081 0.27642828 0.5808695 0.5015272
000110 6f ad 83 3f 39 25 41 be d1 cf 9c 3e 09 af c1 bf
       1.0287303 -0.18861856 0.306273 -1.5131541
000120 eb 8f 66 bd f6 36 6b 3f a5 d9 82 bf 86 ee d2 bc
       -0.056289595 0.9188074 -1.022267 -0.025748502
000130 21 d3 1d bd 85 e7 9a 3f 3e 63 18 3e 22 15 6d 3d
       -0.038531426 1.2101904 0.14881608 0.057881482
000140 7f 2c 03 3f e4 19 2f 3e 22 43 b5 3d cb a7 76 3d
       0.5123977 0.1709972 0.08850695 0.060218614
000150 ad 3d 8d 3f 34 2b ae be b4 ae d5 be 18 6d fc 3e
       1.1034447 -0.34017336 -0.4173485 0.49301982
000160 17 2d 6c 3f b8 d8 b8 3e 6c d3 83 be 1d e2 8d bf
       0.922563 0.36102843 -0.2574724 -1.1084629
000170 36 e7 7c 3f a9 e1 e6 3d e1 84 92 bb 25 d8 02 3f
       0.987903 0.1127351 -0.004471407 0.5111106
000180 59 1c fb 3e a5 c2 76 3e d5 5c 41 3d 1d 17 10 bf
       0.49045065 0.24097688 0.047207672 -0.5628527
000190 2f 43 b3 3e 68 ba a4 3e 29 85 c4 3d bd 01 f2 3d
       0.35012195 0.32173467 0.09595711 0.11816738
0001a0 48 98 96 3f dd b2 30 be d5 c9 2f 3e ac 3d 7f 3e
       1.1765223 -0.17255731 0.17166837 0.2492587
0001b0 82 bf 31 3d a5 f8 09 be ec 7f 4f 3f 88 eb c8 bf
       0.043395527 -0.13473757 0.8105457 -1.5696878
0001c0 f0 43 7f 3e 81 a2 eb bc ac 02 07 3e 8a 51 73 3f
       0.2492826 -0.028764011 0.13184613 0.95046294
0001d0 69 9f 05 3f 81 36 74 3f fb 8c 11 3e 3a 21 5e 3e
       0.52196366 0.95395666 0.14213936 0.21692362
0001e0 f5 0a 72 be e3 ec 70 3e f6 15 9c 3e 07 1b b0 3e
       -0.23636992 0.23527865 0.30485505 0.3439562
0001f0 5f de 97 3e a3 20 7d be 24 49 4a 3e 2f b8 26 3f
       0.29661843 -0.24719481 0.19754463 0.6512479
000200 a3 8a f3 3e bf 17 b2 3d 5e 5c b0 3d 1c df 14 3e
       0.4756671 0.086959355 0.08611368 0.14538234
000210 bb e6 74 3e de 93 b1 be 0a a7 ae 3e 49 1d 5e be
       0.23916142 -0.34683126 0.34111816 -0.21690859
000220 a2 05 8d 3e b1 3d 0c 3e ed 7f f4 3d 88 8a 38 3d
       0.2754336 0.13695408 0.119384624 0.04505399
000230 3d 8a dd 3e 98 6f 95 3d ff f9 d9 3d d2 91 8d 3d
       0.4326953 0.072966754 0.10643386 0.06912579
000240 d9 6c 7d 3e 05 4b 0f 3e 70 02 a3 3e 8d b4 9f 3e
       0.24748553 0.13993461 0.31837797 0.31192437
000250 db 13 43 3d 3d 68 95 3e 75 d7 36 3e e3 1c 80 3d
       0.047626358 0.2918109 0.17855628 0.0625551
000260 50 6b e0 bd 86 b3 db 3d 2f 0a ee 3d 2d 6c a9 be
       -0.10957968 0.10727601 0.11623036 -0.33090344
000270 83 87 98 bd b5 e7 1b 3e 95 0f a8 3e 19 d0 02 be
       -0.07447722 0.15225108 0.32824388 -0.12774695
000280 03 68 03 3e 23 78 df 3c af 00 56 3d 7f 14 3e bf
       0.12832646 0.027278965 0.052246746 -0.74250025
000290 6f 1d 1e bd 18 49 80 3e 0d 1b 84 3c 6d f5 2e 3d
       -0.03860229 0.25055766 0.01612618 0.042714525
0002a0 0b 72 11 be d1 99 23 3e 89 0d 44 bd 6c ee 0b bc
       -0.1420366 0.15976645 -0.04786447 -0.008540731
0002b0 33 e8 cb bd 19 68 e8 3e 31 a9 fc 3e d8 72 82 3e
       -0.09956398 0.4539192 0.49347833 0.25478244
0002c0 c7 3d f5 bd 69 15 0a 3f 14 22 93 bd 7e dc c5 3e
       -0.11974674 0.5393892 -0.07184234 0.38644785
0002d0 db ac 9e 3e 3d 16 51 3f 6e dd 8b 3e 69 2a b2 bb
       0.30991253 0.8167456 0.27317375 -0.0054371846
0002e0 ee b9 30 3e 9a 53 90 be 61 15 b5 bc e8 6b 6c 3c
       0.17258427 -0.28188783 -0.02210492 0.014430024
0002f0 04 90 ce bb 04 67 b9 be 9b 84 43 3c 65 52 78 3d
       -0.006303789 -0.36211407 0.011933471 0.060625453
000300 8c b4 0a 3e 2b 1d af 3e bd 7c 01 3f 85 87 b5 3e
       0.13545436 0.3420194 0.5058096 0.35454956
000310 4e bb 83 3f 93 07 e3 bd c2 14 d3 3e 55 0c c5 bf
       1.0291536 -0.11085429 0.41226774 -1.5394388
000320 d9 95 1a bd a9 2c 7d 3f b8 fb 8f bf bf 38 16 3d
       -0.037740562 0.9889627 -1.1248693 0.03667521
000330 ab 8c 4a bd c8 7a 90 3f c0 7f 30 3e ae 62 a9 3d
       -0.049450558 1.128747 0.17236233 0.08270775
000340 03 8e f9 3e 1b 04 23 3e 02 9b 1f bd e9 f8 9d 3c
       0.4874116 0.15919535 -0.038966186 0.019283729
000350 29 0f 87 3f e8 df a1 be a4 39 f4 be a9 2a be 3e
       1.0551502 -0.3161614 -0.47700226 0.37141922
000360 4f d9 88 3f 02 8c e2 3e 83 a8 ad be 77 74 93 bf
       1.0691317 0.44247442 -0.33917627 -1.1519917
000370 31 6a 7f 3f 26 4a c8 3c cc 3c 50 3e b6 ce 19 3f
       0.9977141 0.02444942 0.20335692 0.6008104
000380 f7 7e d9 3e ed e7 93 3d 68 46 fd 3c f9 31 30 bf
       0.4247968 0.07221971 0.030917361 -0.6882625
000390 ae 1a a0 3e a6 82 00 3f ae 3a f7 3d d4 77 75 bd
       0.31270355 0.50199354 0.12071739 -0.05992873
0003a0 38 e8 8d 3f c7 d7 98 3c 5b 6c 3d 3e 22 c1 b0 3e
       1.1086493 0.018657578 0.18498366 0.3452235
0003b0 90 4c ff 3c 4a f4 9d be 75 a6 29 3f c5 e1 c3 bf
       0.031164438 -0.3085044 0.6626962 -1.5303274
0003c0 9b ba 90 3e 2a fc ab bc 0f 7a 70 3c 90 4d 6c 3f
       0.2826737 -0.020994265 0.014677539 0.9230585
0003d0 d9 be fd 3e 3b 2f 5b 3f 36 8d 60 3e 3a 76 15 3e
       0.49559668 0.8561894 0.21928868 0.14595881
0003e0 37 67 b6 bd e2 e3 47 3e d3 30 9a 3e 5b 47 ca 3e
       -0.089064054 0.19520524 0.30115375 0.39507565
0003f0 93 ce d1 3e da 47 7b bd 34 5f 53 3e f4 42 42 3f
       0.40977916 -0.06134782 0.20641786 0.7588341

value_net.2.bias f4 [64]
000000 72 cc a4 3d 39 2b 24 3d 85 ac 6b 3d d8 11 ef 3d
       0.08046807 0.040080283 0.057537574 0.11673325
000010 f0 fa 44 be f6 88 c3 3e f7 2c b0 bb f5 9d cb bd
       -0.1923635 0.3819043 -0.005376454 -0.09942237
000020 df fd 5a 3c 2d a2 b2 3e 3c 62 bc 3e 61 70 15 3d
       0.013366192 0.34889355 0.36793697 0.036484126
000030 c6 a1 6e 3d fa 6a 03 3e 47 b8 07 3f 13 dd aa 3d
       0.058259748 0.12833777 0.5301556 0.08342948
000040 e4 76 a4 bb 01 82 4a 3e a4 81 e1 bd 7e 61 71 bc
       -0.0050190557 0.19776155 -0.11011055 -0.014732717
000050 67 e9 10 3d e6 21 20 3d 77 b1 fd bd 9f 51 c1 3e
       0.03537884 0.039094828 -0.12387364 0.37757584
000060 af 41 b9 3d 86 8e 5e 3e fa c6 02 3f 22 94 ed 3e
       0.09045731 0.21734056 0.51084864 0.4640208
000070 01 33 0f be fd 40 43 bd e7 3d b1 3d 47 47 1a be
       -0.139843 -0.0476694 0.08654385 -0.15066253
000080 46 f3 8e bd 74 56 6c 3c db 78 38 3e 71 61 ca bb
       -0.069799945 0.014424909 0.18014853 -0.0061761667
000090 f3 29 7d 3d 56 0d 26 bd 6b 17 01 bd 68 7d d4 bc
       0.061807584 -0.040540062 -0.031516474 -0.025938705
0000a0 40 4d d9 3e d6 2b 0b 3a 91 8f f3 bc bd 59 ee 3d
       0.4244175 0.0005308961 -0.029731544 0.1163821
0000b0 53 31 d1 bd 87 b4 ec be c5 0d 04 bf 9d f2 6d 3d
       -0.10214486 -0.4623148 -0.5158351 0.058092702
0000c0 4c ec 0d 3f 5b 45 2a 3d 59 d5 84 3d 60 2b 9b 3d
       0.55438685 0.04157005 0.06486005 0.075766325
0000d0 91 ea b8 3d 02 b8 b5 3c 5e 8b e4 3e 3d d5 c0 3e
       0.09029115 0.022182468 0.4463758 0.37662688
0000e0 6a b6 00 3f e6 af 2a 3e ac 82 89 3e 84 a2 f6 bd
       0.5027834 0.16668662 0.26857507 -0.12042716
0000f0 16 9e 1a 3e 4d 84 7c 3e 29 4e 7c 3e d4 d0 ac 3d
       0.15099367 0.24659844 0.2463919 0.08438268

value_net.4.weight f4 [1, 64]
000000 e4 02 61 bf c7 0f 74 bf 05 06 9e be ad 25 84 bf
       -0.87895036 -0.95336574 -0.30863968 -1.0323998
000010 ec f9 8d 3f 8f bd 96 3f 09 ca 90 be 08 ed c3 3c
       1.1091895 1.1776599 -0.2827914 0.023916736
000020 6b 54 a6 be c8 0c 94 3f 3a 38 96 3f 90 4f ad be
       -0.3248628 1.15664 1.1735909 -0.33849764
000030 26 fa 86 bf 51 8e 8b bf c5 db 97 3f 49 85 80 bf
       -1.0545089 -1.0902807 1.1863943 -1.0040675
000040 e2 ad c0 be a4 a1 7e bf e6 85 84 be c4 d6 70 be
       -0.37632662 -0.99465394 -0.25883406 -0.23519427
000050 b7 18 aa bd f0 76 8a bf 98 b1 82 be cf be 9d 3f
       -0.08305495 -1.0817547 -0.25526118 1.2323855
000060 81 5e a4 be 18 ba 7b bf 60 54 92 3f a6 6b 8e 3f
       -0.3210335 -0.9833083 1.1431999 1.1126602
000070 1c 7f 92 be 0e 52 01 bc e1 5b 4b 3d dc 82 c8 be
       -0.28612602 -0.0078930985 0.04964817 -0.39162338
000080 4a a6 c7 be 9d 14 bc be 97 d0 6f bf 8e d2 8f bf
       -0.38994056 -0.36734477 -0.9367766 -1.1236131
000090 7c a8 9c bf bc 17 8c be 5b 12 b4 be 15 d1 b7 be
       -1.2238917 -0.27361858 -0.35170254 -0.35901704
0000a0 dc 18 a6 3f 91 65 a9 be 40 42 b1 be 57 51 83 bf
       1.2976336 -0.33085302 -0.34620857 -1.0259198
0000b0 51 5c 1b 3e ce af d3 3f f1 4f 35 40 9b 06 8e bf
       0.15171935 1.6538026 2.8330042 -1.1095766
0000c0 05 93 8b 3f 58 4d 95 be 87 c7 cf 3d d8 78 83 bf
       1.0904242 -0.2916057 0.10145479 -1.0271254
0000d0 90 7b 76 bf 32 f4 87 bf 60 65 9a 3f e7 7a c1 3f
       -0.9628229 -1.0621397 1.2062187 1.5115632
0000e0 85 06 90 3f cd c4 72 bf 64 8c 1b 3f f6 83 af be
       1.125199 -0.94831544 0.60761094 -0.34280366
0000f0 93 93 84 bf 4f 06 7b bf 3b 12 8c 3f 32 2f c3 be
       -1.0357536 -0.980565 1.0943063 -0.38121945

exp_avg f4 [4]
000000 6c d8 1a bd e2 a8 a6 bc 0a 40 46 3e c2 cd d1 3c
       -0.037804052 -0.020344201 0.19360366 0.025610808

exp_avg_sq f4 [4]
000000 38 66 d2 3e 86 4f b6 3e 20 bb ae 3e e7 ba dd 3e
       0.41093612 0.35607547 0.3412714 0.43306658
