best_models/a2c_gae/a2c_actor_step_3000000.pth (torch, 84564 bytes, 7 tensors)

action_log_std f4 [1, 4]
0	0xc070380a	-3.7534204
1	0xc078d015	-3.8877003
2	0xc068c7fb	-3.6372058
3	0xc0717068	-3.7724857

affine_layers.0.weight f4 [128, 24]
0	0xbfbd429c	-1.4785953
1	0x40042501	2.0647585
2	0xbf61b0d9	-0.88160473
3	0xbef1ba25	-0.4721233
4	0x3daa2d30	0.083094
5	0xbf5f480b	-0.87219304
6	0xbd96e1f3	-0.07367315
7	0x3e06bf10	0.13158822
8	0xbcbd38d8	-0.023098394
9	0xbf7fff7b	-0.9999921
10	0x3f5df07a	0.86695063
11	0x3f0126d1	0.50449854
12	0x3ef7b323	0.48378858
13	0xbfd35e32	-1.6513121
14	0x3e1120ba	0.1417264
15	0x3e5a9b2c	0.21348256
16	0x3e87a9bb	0.26496682
17	0x3e90dfb2	0.28295666
18	0xbb346231	-0.0027524347
19	0x3cabae71	0.020957204
20	0x3e2596b8	0.16170776
21	0x3e74f5ea	0.23921934
22	0x3d2a8538	0.041630954
23	0x3e4c0194	0.19922477
24	0xbf1d4f23	-0.6144888
25	0xbecebd67	-0.40378878
26	0x3f27a763	0.65489787
27	0x3fb0e785	1.3820654
28	0xbebbc921	-0.36676887
29	0x3e963242	0.2933522
30	0x3e0f171c	0.1397366
31	0xbd8ff7d0	-0.07029688
32	0xbe613a5c	-0.21994919
33	0xc00080c6	-2.0078597
34	0xbf811699	-1.0085021
35	0xbf3f2ffb	-0.7468259
36	0xbf05545d	-0.52081853
37	0xbf163cd1	-0.5868655
38	0x3e970491	0.2949567
39	0x3e9505bd	0.2910594
40	0x3e4250af	0.18976091
41	0x3d6c2ce2	0.05765999
42	0x3e380f3a	0.17974558
43	0xbd6f3800	-0.058403015
44	0xbcae92c2	-0.021310214
45	0x3c1523d7	0.009102783
46	0x3df4a445	0.119453944
47	0x3dfaf078	0.12252897
48	0xbfd71ed6	-1.6806285
49	0x3f6c2d54	0.92256665
50	0x3fa941fb	1.3223261
51	0x3fd1cd2e	1.6390741
52	0xbd3d24e2	-0.046177752
53	0xbf01df29	-0.5073114
54	0x3f06c9f0	0.5265188
55	0x3af25a72	0.001849009
56	0xbca8855a	-0.0205714
57	0xbf69ff4e	-0.9140519
58	0x3f00222e	0.50052154
59	0xbcaa0472	-0.020754073
60	0xbd5b6eb1	-0.05357236
61	0xbe95f80d	-0.2929081
62	0x3eacde42	0.3376332
63	0x3f012ba6	0.5045723
64	0x3f098911	0.5372477
65	0x3ec0f8f3	0.37689933
66	0x3ec68244	0.3877126
67	0x3eced355	0.4039561
68	0x3eef4072	0.46728855
69	0x3f041c09	0.5160528
70	0x3c1a28eb	0.00940917
71	0xbdd7dbbb	-0.10539957
72	0x3e3f631b	0.1869015
73	0x3fbdc8b9	1.4826881
74	0xbf4060fa	-0.75147974
75	0xc022b070	-2.542019
76	0x3e3f43a4	0.18678147
77	0xbe5df876	-0.21676812
78	0xbc91b052	-0.017784271
79	0x3e8cf838	0.27533126
80	0xbfc75af0	-1.5574627
81	0x3eb7a657	0.35869095
82	0x3c2526e4	0.010080073
83	0x3e15cc09	0.14628614
84	0x3f1f1908	0.6214757
85	0x3f68b979	0.9090801
86	0xbe33d190	-0.1756041
87	0xbe72688d	-0.23672695
88	0xbd82eb2e	-0.06392513
89	0xbe85aad4	-0.26106894
90	0xbd822a52	-0.06355728
91	0xbd0d93b9	-0.034564707
92	0x3c2fe03d	0.010734615
93	0xbd6ed74a	-0.058310784
94	0xbe119e96	-0.14220652
95	0xbd47fdd8	-0.04882607
96	0x3fc353c3	1.5259937
97	0x3e980bec	0.29696596
98	0x3ea52d30	0.32261038
99	0x3e23ca95	0.15995248
100	0xbdf63db0	-0.12023485
101	0x3fc36213	1.5264305
102	0xbf08cd4e	-0.5343827
103	0xbd199c5e	-0.03750264
104	0xbf3ef651	-0.745946
105	0x3fafc1f6	1.3731067
106	0xbf0b249e	-0.5435275
107	0xbec24a03	-0.3794709
108	0x3cd3c15a	0.025849033
109	0xbbc054b2	-0.0058694715
110	0xbde30716	-0.11085336
111	0x3de6bad8	0.11266106
112	0xbde26cba	-0.11055894
113	0x3e65fb43	0.2245913
114	0x3e521d38	0.20518959
115	0xbdadf214	-0.08493438
116	0x3d490283	0.04907466
117	0x3df7def0	0.12103069
118	0xbb34d21a	-0.002759105
119	0xbe086f25	-0.13323648
120	0x403f31a1	2.987404
121	0x3f8d960b	1.1061414
122	0xbe54a7cd	-0.20767136
123	0xbfd8aa32	-1.692694
124	0x3edca5d1	0.43095258
125	0x3e706d49	0.23479189
126	0x3e240d05	0.16020592
127	0xbe2103c4	-0.15724093
128	0xbd0dff6a	-0.03466741
129	0x3f2ffb4b	0.6874282
130	0xbeba5628	-0.36393857
131	0xbf320436	-0.69537675
132	0xbf13b5b5	-0.5769914
133	0x3d963440	0.07334185
134	0xbecc745b	-0.39932522
135	0xbf0d1b8a	-0.55120146
136	0xbf01c523	-0.5069143
137	0xbf02009e	-0.5078219
138	0xbed96e68	-0.42467046
139	0xbe9fa587	-0.31180975
140	0xbe680244	-0.22657114
141	0xbe86f3c3	-0.2635785
142	0xbdcd9c1d	-0.10039542
143	0xbe77e8fd	-0.24209972
144	0xbe8ce6d7	-0.27519867
145	0x3e87178e	0.26385158
146	0xbe40fa4f	-0.18845485
147	0xbf868634	-1.0509706
148	0xbf47f904	-0.7811434
149	0xbf1351a4	-0.5754645
150	0xbfa07898	-1.2536802
151	0x3ee65b85	0.449917
152	0xbf3a7052	-0.7282764
153	0xbea0ddfe	-0.31419367
154	0x3f16686d	0.5875309
155	0xbfa19e62	-1.262646
156	0x3ef41d1b	0.47678456
157	0xbf25a065	-0.6469787
158	0xbcdd92af	-0.027047483
159	0xbd9d9c46	-0.076958224
160	0xbd3a44f2	-0.045475908
161	0xbd7a241d	-0.061069597
162	0xbe5f0093	-0.21777563
163	0xbe61d0a0	-0.2205224
164	0xbda035f2	-0.07822789
165	0xbd786000	-0.060638428
166	0xbdc19b13	-0.09453406
167	0x3db6410d	0.08899126
168	0xbfc8721e	-1.5659826
169	0x3ec8734b	0.39150462
170	0xbdf7a9de	-0.120929465
171	0x4005ee68	2.0926762
172	0x3e9020ca	0.28150016
173	0xbf03c761	-0.51476103
174	0x3ea516ae	0.32243866
175	0x3dd6c9cd	0.10487709
176	0xbf84ffbc	-1.0390544
177	0xbeb032ce	-0.3441376
178	0x3cd2ffff	0.025756834
179	0x3e0410cc	0.12897032
180	0xbd4fd6a6	-0.050741814
181	0xbe2a9f8d	-0.16662426
182	0x3f2fa2db	0.6860787
183	0x3f1511aa	0.5823008
184	0x3f1b2080	0.60596466
185	0x3f0e7752	0.5565082
186	0x3ed29157	0.4112651
187	0x3ec91ce3	0.3927985
188	0x3e7d4d03	0.24736409
189	0x3efb30b4	0.49060595
190	0x3efce825	0.49395862
191	0x3e25ea09	0.16202559
192	0x3edcdfc3	0.43139467
193	0xbfaca7bd	-1.348869
194	0xbf4ff221	-0.81228834
195	0x40438d5f	3.0555036
196	0xbf186ef0	-0.5954428
197	0x3ea8a544	0.32938588
198	0xbfb00091	-1.3750173
199	0x3eb02e1c	0.3441018
200	0x3f90f101	1.1323549
201	0xbe8e478f	-0.2778897
202	0xbe8fb964	-0.2807113
203	0xbf3b6a40	-0.73209
204	0xbe8e7514	-0.278237
205	0xbf5a6672	-0.8531257
206	0x3ca9d8be	0.020733234
207	0x3e8c3add	0.2738866
208	0x3e395d4b	0.18101995
209	0x3e0ae521	0.13563968
210	0x3dea1999	0.114306636
211	0x3dbc7036	0.0920109
212	0x3e3172aa	0.17328897
213	0x3de67e6a	0.1125458
214	0x3d7d768f	0.061880644
215	0xbd9b8e2b	-0.07595476
216	0x3e0dcc4b	0.13847463
217	0xc0624f99	-3.5361083
218	0xbf996889	-1.1985027
219	0x407c0d16	3.9382987
220	0xbec2fae5	-0.38082042
221	0x3e1aa994	0.15103751
222	0xbf556015	-0.83349735
223	0x3d9b1d4b	0.075739466
224	0xbe0d5bdc	-0.13804573
225	0xbd5b365a	-0.05351863
226	0xbe8cd785	-0.27508178
227	0x3d1114b4	0.035420135
228	0x3d0d8011	0.03454596
229	0xbeff041c	-0.49807823
230	0x3de621b4	0.11236897
231	0x3e92f69a	0.28703767
232	0x3e1af64c	0.15133017
233	0x3e9fe0d3	0.31226215
234	0x3e861f14	0.26195586
235	0x3cca69c2	0.024708632
236	0x3e809089	0.25110272
237	0x3c53efaa	0.012935558
238	0x3d3fc9ef	0.04682344
239	0x3dc6e39f	0.09711384
240	0xbf4af5b2	-0.7928115
241	0x3cbc5740	0.022990823
242	0x3f513705	0.8172458
243	0x3d8a7ce5	0.06762103
244	0xbfa5c04b	-1.2949308
245	0xbdd951a4	-0.10611275
246	0xbf895ed4	-1.0732064
247	0x3dab8d44	0.08376554
248	0xbf048372	-0.5176307
249	0x3f64d34f	0.8938493
250	0x3eded36a	0.4352067
251	0xbeaf24a4	-0.34207642
252	0xbc32e3d4	-0.010918576
253	0xbd39f58f	-0.0454002
254	0xbb904fa1	-0.0044040238
255	0x3d32e570	0.04367584

affine_layers.0.bias f4 [128]
0	0xbcd8111c	-0.026375346
1	0x3c0db196	0.008648297
2	0xbea90f2b	-0.33019385
3	0x3e46fff7	0.1943358
4	0xbda68999	-0.081317134
5	0xbe98250c	-0.29715765
6	0x3e5e3c2b	0.2170264
7	0xbe6a6f00	-0.22893906
8	0xbeb7d940	-0.35907936
9	0xbe9315fb	-0.28727707
10	0x3e4ded75	0.20110114
11	0xbd399167	-0.045304682
12	0x3dde70f2	0.10861386
13	0x3ce82e74	0.028342463
14	0xbd004c2d	-0.031322647
15	0xbe72bd01	-0.23704912
16	0xbeaada99	-0.33369902
17	0x3e2ffe79	0.17186917
18	0xbe6fed43	-0.23430352
19	0x3e9abf07	0.30223867
20	0xbd6ca53f	-0.05777478
21	0xbed216a6	-0.41032904
22	0xbe44a48d	-0.19203396
23	0xbe8f3313	-0.27968654
24	0x3df6b470	0.120461345
25	0xbd791ee7	-0.060820486
26	0xbe7c5551	-0.2464192
27	0x3e9d8a53	0.30769596
28	0x3d9d70e7	0.0768755
29	0x3e862c00	0.26205444
30	0x3f14ebd1	0.5817233
31	0x3e5785db	0.21047156
32	0x3e2f8656	0.17141089
33	0xbd6c8c37	-0.057750907
34	0xbe87f5f5	-0.26554838
35	0x3d8ff0d4	0.07028356
36	0xbd5e9ef8	-0.054350823
37	0xbde1d3b7	-0.110267095
38	0xbda3afd8	-0.07992524
39	0xbeaaaace	-0.3333344
40	0x3ede3247	0.43397734
41	0xbb90f6ce	-0.0044239527
42	0x3d8bd8cd	0.06828461
43	0xbc8fb725	-0.017543385
44	0xbe136ab6	-0.14396176
45	0xbe140353	-0.14454393
46	0x3e3ab65c	0.18233627
47	0xbe0c5a66	-0.1370636
48	0x3e15a643	0.14614205
49	0x3e033138	0.12811744
50	0xbdada088	-0.084778845
51	0xbe9ba586	-0.30399722
52	0x3cd123c3	0.025529748
53	0xbc27b8a3	-0.010236892
54	0xbcbbef38	-0.022941217
55	0x3c71088a	0.0147115085
56	0x3ca8ad36	0.020590406
57	0x3e87802c	0.26464975
58	0xbe9a48d4	-0.30133688
59	0xbd9e9585	-0.07743362
60	0x3f41007a	0.7539135
61	0xbe50a10c	-0.20373935
62	0x3d898ae0	0.067159414
63	0x3e8e6fce	0.27819675
64	0xbe273310	-0.16328073
65	0x3befe3bc	0.007320849
66	0xbe1cc6e7	-0.1531025
67	0xbf24c552	-0.64363587
68	0x3dcc38a4	0.09971741
69	0x3ec1ead5	0.37874475
70	0xbccbcd62	-0.024878208
71	0x3e38624f	0.18006252
72	0x3e9010ab	0.28137717
73	0xbe5bbe35	-0.21459277
74	0xbecf6a06	-0.40510577
75	0xbba67da8	-0.0050808974
76	0xbe397fe8	-0.18115199
77	0xbe3fec02	-0.18742374
78	0x3e00d3c7	0.12580787
79	0xbe550cfb	-0.20805733
80	0xbebdd14d	-0.37073746
81	0xbd7c9ad0	-0.06167108
82	0x3e3957d3	0.18099909
83	0x3e090a71	0.1338289
84	0x3ee01bb6	0.43771142
85	0xbd886b5b	-0.066611014
86	0xbe0e38f6	-0.13888916
87	0xbe98ca09	-0.2984164
88	0x3eb3fcb0	0.35153723
89	0xbe18f16f	-0.1493585
90	0xbe8a68d8	-0.27033114
91	0xbc4530ad	-0.012035531
92	0x3d88cdd7	0.06679886
93	0xbdd6e3a0	-0.10492635
94	0x3e015afe	0.12632367
95	0xbddb8210	-0.10718167
96	0xbef3c6d9	-0.47612646
97	0x3e93f95f	0.28901193
98	0xbee8722b	-0.45399603
99	0xbe1eb8bc	-0.15500158
100	0x3d1ab878	0.03777358
101	0xbd4a6769	-0.049415026
102	0xba9d1a60	-0.001198601
103	0xbea8be03	-0.32957467
104	0xbe655aed	-0.22397967
105	0x3ea23a50	0.31685114
106	0xbe3ddaad	-0.1854045
107	0xbf65b22c	-0.89724994
108	0x3e826958	0.25470996
109	0x3c1d2a20	0.009592563
110	0xbe4d9485	-0.20076187
111	0x3dbb176b	0.09135326
112	0x3e2f75e9	0.17134823
113	0x3dcb2ea5	0.09921006
114	0x3eaba25b	0.33522305
115	0xbddf08bd	-0.108903386
116	0xbea01ecb	-0.31273493
117	0xbe518da8	-0.20464194
118	0xbdd4f29a	-0.10397835
119	0xbe51d0c8	-0.204898
120	0x3dd6e8f0	0.10493648
121	0x3f442221	0.76614577
122	0x3e3a06a9	0.18166603
123	0x3ebea633	0.37236175
124	0xbe6d2626	-0.23159084
125	0x3d6c7014	0.057724074
126	0x3e94b22c	0.29042184
127	0xbead16dc	-0.33806503

affine_layers.1.weight f4 [128, 128]
0	0xbd1b6bfe	-0.037944786
1	0x3f338674	0.70127034
2	0x3dba4a29	0.09096176
3	0xbc3d5efe	-0.011558292
4	0xbf199a3d	-0.60000974
5	0xbee08e2e	-0.43858474
6	0x3e41deee	0.18932697
7	0xbe1636e1	-0.14669372
8	0xbed20c08	-0.41024804
9	0x3db9b3d6	0.09067504
10	0xbd3a73ac	-0.04552047
11	0xbf217719	-0.63072354
12	0x3da1f236	0.07907526
13	0x3d966c9f	0.073449366
14	0xbe90d567	-0.28287813
15	0xbea6794a	-0.3251441
16	0xbf027d15	-0.5097211
17	0x3f54804d	0.8300827
18	0xbdefee5d	-0.11715386
19	0x3e57efba	0.21087542
20	0x3ecb7026	0.39734
21	0xbdb933f0	-0.090431094
22	0x3e5fc9ea	0.21854368
23	0x3f2cde7f	0.67527
24	0x3f1508a9	0.5821634
25	0x3e1a6a51	0.15079619
26	0x3eb343b2	0.35012585
27	0xbed988fe	-0.4248733
28	0x3f42b867	0.76062626
29	0xbf939fb8	-1.1533117
30	0x3e5fad84	0.21843535
31	0xbdc48e53	-0.09597459
32	0x3f06e00c	0.5268562
33	0x3ee28121	0.44239143
34	0xbdc8e2e7	-0.09808903
35	0xbe7d7df5	-0.2475508
36	0x3f680c06	0.90643346
37	0xbefe5819	-0.49676588
38	0x3e335981	0.17514612
39	0xbe864bc7	-0.2622969
40	0x3eb3fb94	0.35152876
41	0x3ed3dbb2	0.41378552
42	0x3dcaafa7	0.09896784
43	0xbf6271d2	-0.88454926
44	0x3ed565da	0.4167927
45	0x3e8603ad	0.2617468
46	0x3e4faacc	0.20279998
47	0x3f33ab1d	0.70182973
48	0xbe7cc825	-0.24685724
49	0xbdccd1b2	-0.10000934
50	0x3edb0f59	0.42785147
51	0x3ea6954b	0.32535776
52	0xbf4f3a98	-0.8094878
53	0x3eadb5b9	0.33927706
54	0x3efeb145	0.4974462
55	0x3fb92c06	1.446656
56	0xbded3d6c	-0.11583981
57	0xbc7f4c86	-0.015582209
58	0xbe8eac7b	-0.27865967
59	0xbf04b499	-0.5183807
60	0x3f94b47f	1.1617583
61	0xbec191f8	-0.37806678
62	0xbf09d48a	-0.53839934
63	0x3d919874	0.07109156
64	0xbed85822	-0.4225474
65	0xbf991421	-1.1959268
66	0xbf261bf5	-0.6488641
67	0xbe7f0f73	-0.24908237
68	0x3f346ca5	0.7047828
69	0xbd17ef2b	-0.037093323
70	0xbede7d18	-0.43454814
71	0x3f428488	0.75983477
72	0x3d23f14c	0.04002504
73	0xbe33bb6c	-0.17551965
74	0x3dc16de7	0.0944479
75	0xbf04aa92	-0.5182277
76	0x3e6e59f9	0.2327651
77	0xbf8253b2	-1.0181792
78	0xbe7c044b	-0.24611013
79	0x3f1e7191	0.6189204
80	0x3eb62792	0.35577065
81	0x3f1fa3f7	0.62359565
82	0xbe770f27	-0.24126874
83	0x3e511fed	0.20422335
84	0xbe3c71d7	-0.18402801
85	0xbf2af012	-0.6677257
86	0x3e806c30	0.2508254
87	0xbf9a19a4	-1.2039075
88	0x3e9bf5b9	0.3046091
89	0xbe84b932	-0.25922543
90	0x3e73c507	0.23805629
91	0xbd507368	-0.05089131
92	0x3e6f740e	0.23384115
93	0x3e1add90	0.15123582
94	0xbe13f8bc	-0.14450353
95	0xbe80235b	-0.25026974
96	0x3d6a4595	0.057195265
97	0x3e973f50	0.2954049
98	0xbe71aebb	-0.2360181
99	0x3e8a6844	0.27032673
100	0xbf4e5d7f	-0.80611414
101	0xbe9f246e	-0.3108248
102	0x3ea764a4	0.3269397
103	0xbecc72e2	-0.399314
104	0x3f20c6b4	0.62803197
105	0x3e26e22c	0.16297215
106	0xbc503a7f	-0.012709259
107	0xbf783bf4	-0.9696648
108	0x3fa5bdb3	1.2948517
109	0x3e80703a	0.25085622
110	0xbde30bef	-0.110862605
111	0x3f0af9a8	0.54287195
112	0x3ed2ad3e	0.41147798
113	0xbf2e65e6	-0.68124235
114	0x3e976bbd	0.29574385
115	0x3b8057b1	0.0039167036
116	0x3edf2360	0.43581676
117	0x3e4796d0	0.19491124
118	0x3e20d3ea	0.15705839
119	0x3f1dbd9d	0.6161745
120	0x3eca4aaf	0.39510104
121	0x3e36f58d	0.17867108
122	0x3e7d6186	0.24744233
123	0x3ed10678	0.40825248
124	0x3f12c7d4	0.57336164
125	0xbe85d3a9	-0.26138046
126	0x3e758fb9	0.23980607
127	0x3e797ce8	0.24364054
128	0xbd714714	-0.058905676
129	0xbefe921a	-0.49720842
130	0xbf1ace15	-0.60470706
131	0x3e634172	0.22192934
132	0x3d32d95f	0.043664332
133	0x3e21824b	0.15772359
134	0x3eb32b63	0.3499404
135	0xbeca490e	-0.3950886
136	0x3ea4c270	0.32179594
137	0x3e713415	0.23555024
138	0x3f3d96a8	0.7405801
139	0xbe30533f	-0.17219256
140	0xbda2b331	-0.07944334
141	0xbd9bed38	-0.07613605
142	0xbe655d51	-0.22398879
143	0xbd1a5656	-0.037679993
144	0xbdb4b7be	-0.088241085
145	0xbf840297	-1.031329
146	0xbf81b1ac	-1.0132346
147	0x3f25bcd3	0.6474125
148	0xbdf4ca7d	-0.11952684
149	0x3e90d263	0.28285512
150	0xbf72ca9e	-0.9484042
151	0xbf7da10a	-0.9907385
152	0xbe08ca8d	-0.13358517
153	0xbe610a5e	-0.21976611
154	0xbcf09c0e	-0.029371288
155	0xbcd3d053	-0.025856173
156	0xbea458a7	-0.32098886
157	0x3f187b80	0.59563446
158	0x3e40bfe4	0.188232
159	0x3f81d6de	1.0143697
160	0x3ddb6c16	0.10713975
161	0x3de336b4	0.11094418
162	0xbf3c0038	-0.73437834
163	0xbf1ccf1f	-0.6125354
164	0xbf335007	-0.7004399
165	0xbdd61197	-0.10452574
166	0x3e86d56e	0.2633471
167	0x3e6c1467	0.23054658
168	0x3e86ac3b	0.26303276
169	0xbe9d3367	-0.3070328
170	0x3e90132e	0.28139633
171	0x3f7a059b	0.97664803
172	0x3e329f0c	0.17443484
173	0xbece587d	-0.40301886
174	0xbf30dfb5	-0.6909135
175	0xbf670172	-0.9023658
176	0x3ed8cd56	0.4234416
177	0x3f65c1a9	0.89748627
178	0xbe9757ff	-0.29559323
179	0x3cb5f00b	0.022209188
180	0x3f58dd61	0.847128
181	0xbf9f51be	-1.2446821
182	0xbde5df58	-0.1122424
183	0xbf1bc928	-0.60853815
184	0x3dc9b500	0.09848976
185	0x3dec20f6	0.11529724
186	0xbed79f40	-0.42113686
187	0x3ed398d3	0.41327533
188	0xbeef1c84	-0.46701443
189	0xbf01d80b	-0.5072028
190	0xbd893dfd	-0.067012765
191	0xbdc48908	-0.09596449
192	0x3cd842b1	0.026398988
193	0x3d788169	0.06067029
194	0xbed12513	-0.40848598
195	0xbe95a556	-0.29227704
196	0xbf2ed257	-0.68289703
197	0x3f333228	0.6999841
198	0xbdaa1c42	-0.08306171
199	0xbe6e1d80	-0.23253441
200	0x3f4b4bcd	0.7941254
201	0x3f0a64e0	0.54060173
202	0xbf5df1c9	-0.8669706
203	0x3dcf7095	0.10128895
204	0x3e8c7eee	0.2744059
205	0x3ed5f253	0.4178644
206	0xbeb765d0	-0.35819864
207	0xbea2de53	-0.31810245
208	0xbf3b8723	-0.7325308
209	0xbd3ca3e3	-0.046054732
210	0xbed8be54	-0.4233271
211	0x3f1e3749	0.6180311
212	0x3f194277	0.5986704
213	0xbd87d73d	-0.0663285
214	0x3ed42fbe	0.41442674
215	0x3e7f7837	0.24948202
216	0x3ed557c6	0.41668528
217	0x3e80d722	0.25164133
218	0xbe2b667b	-0.16738312
219	0xbe99689d	-0.29962626
220	0x3dcf5fe7	0.10125714
221	0xbf30b2c5	-0.6902278
222	0x3eec23ac	0.46120965
223	0x3e944520	0.28958988
224	0xbf0d1451	-0.55109125
225	0x3e758be6	0.23979148
226	0x3e0dff4f	0.13866924
227	0xbf096c15	-0.53680545
228	0x3e745540	0.23860645
229	0x3f5e96f0	0.8694906
230	0xbde6a44f	-0.11261808
231	0xbcaf138e	-0.02137163
232	0xbd243955	-0.04009374
233	0x3ea4809b	0.32129368
234	0xbe63bcd2	-0.22239998
235	0x3eefd2c2	0.46840483
236	0xbf0e0dbc	-0.55489707
237	0xbf37cbe2	-0.71795475
238	0xbe9331d6	-0.2874896
239	0xbe2a901c	-0.16656536
240	0xbbfa6390	-0.0076412633
241	0x3ed74292	0.42042977
242	0xbf18dff4	-0.59716725
243	0xbeda4c03	-0.42636117
244	0xbf737e4b	-0.9511458
245	0xbe3baaa6	-0.18326816
246	0xbf298935	-0.66224986
247	0xbf883b22	-1.0643046
248	0xbf255092	-0.64576066
249	0x3ed3991a	0.41327745
250	0xbf2528a8	-0.6451516
251	0xbe30edd2	-0.17278221
252	0xbf0bb2e8	-0.54569864
253	0xbebf7f0e	-0.37401623
254	0xbdc743b6	-0.09729712
255	0xbe6301ab	-0.22168605

affine_layers.1.bias f4 [128]
0	0xbdcdd8b5	-0.10051099
1	0xbe99f256	-0.300677
2	0xbe83094f	-0.2559304
3	0xbef46f88	-0.47741342
4	0x3edf5587	0.4361994
5	0xbe5da4b0	-0.21644855
6	0x3ebefb29	0.37300995
7	0x3de0cb47	0.10976272
8	0x3dbf6a7e	0.09346484
9	0xbda897ed	-0.082321025
10	0xbe8bc1da	-0.27296335
11	0x3f10b9b1	0.5653334
12	0x3e17a0f9	0.148075
13	0xbec3d0ae	-0.38245147
14	0x3eba2fac	0.36364496
15	0x3d9d7404	0.07688144
16	0x3f189d10	0.5961466
17	0xbe0c0814	-0.13674957
18	0xbe3e42ae	-0.18580124
19	0x3e2b4190	0.16724229
20	0xbded1e92	-0.115780964
21	0xbe8b9215	-0.2725989
22	0xbf0258b0	-0.50916576
23	0x3c06e6e5	0.0082337605
24	0xbec30c0b	-0.38095126
25	0x3c0557dc	0.008138623
26	0xbe7bdb7c	-0.24595445
27	0xbeede0a4	-0.4646045
28	0x3e0559e8	0.13022578
29	0xbe65e6cb	-0.22451322
30	0xbdf7b92d	-0.12095866
31	0x3f27b4c8	0.65510225
32	0x3da124dc	0.078683585
33	0x3d380910	0.044930518
34	0x3d9331e0	0.07187247
35	0x3ecd3c89	0.40085247
36	0xbe17020a	-0.14746872
37	0xbec67ffe	-0.38769525
38	0xbd480249	-0.048830304
39	0xbe9eb4bd	-0.30997267
40	0xbea23437	-0.31680462
41	0x3eeaab69	0.458339
42	0xbe09ecd5	-0.1346925
43	0x3f1883ac	0.59575915
44	0xbf2c339c	-0.6726625
45	0x3ec99cb7	0.39377376
46	0xbd0ef0b5	-0.034897525
47	0xbf040a63	-0.5157835
48	0xbd67aa40	-0.056558847
49	0xbe4de868	-0.20108187
50	0x3ecf5bc1	0.4049969
51	0xbe1ed2fc	-0.15510172
52	0x3f0b0aa8	0.54313135
53	0x3dc4f73e	0.0961747
54	0xbef9f371	-0.48818544
55	0x3dcf0e19	0.10110111
56	0xbd7b9258	-0.06141886
57	0x3ea328fc	0.31867206
58	0xbf029fcc	-0.5102508
59	0x3ed710c5	0.42004982
60	0x3e95fa93	0.29292735
61	0x3d982095	0.074280895
62	0xbf2b12fb	-0.66825837
63	0x3f1a6f24	0.6032584
64	0xbf16d047	-0.58911556
65	0x3db255bc	0.08707759
66	0x3e3693d3	0.17829828
67	0xbe3023ee	-0.17201206
68	0xbef1895f	-0.47175118
69	0x3d679935	0.056542594
70	0x3f0fc4e2	0.56159794
71	0xbdd95740	-0.10612345
72	0x3ee96a57	0.45588943
73	0xbf10f9de	-0.5663127
74	0x3f11ba1b	0.569246
75	0xbe470c0f	-0.19438194
76	0x3f176411	0.59137064
77	0x3e07acdb	0.13249533
78	0x3cc7f053	0.024406588
79	0xbee5327f	-0.44765088
80	0xbf4563c9	-0.77105385
81	0x3ea3fbd6	0.32028073
82	0xbc8508ca	-0.016239543
83	0xbda01283	-0.07816031
84	0xbce2352d	-0.027613247
85	0xbde9c5b5	-0.11414663
86	0xbf2aff62	-0.66795933
87	0x3f026d5a	0.5094811
88	0x3dca21e1	0.09869743
89	0xbe8cfc0c	-0.27536047
90	0x3e1aba65	0.15110166
91	0x3f16ba6a	0.58878195
92	0x3f0757d9	0.5286842
93	0xbf069df8	-0.5258479
94	0x3e86e5e4	0.26347268
95	0x3ea248d3	0.31696185
96	0xbddeece5	-0.10885028
97	0x3d459b5a	0.048243858
98	0x3ddce484	0.107857734
99	0xbf155573	-0.5833351
100	0xbe04551c	-0.12923092
101	0xbdecdcbe	-0.11565541
102	0xbeefebab	-0.46859488
103	0xbefd528f	-0.4947705
104	0x3e068184	0.13135344
105	0x3e3ec567	0.1862999
106	0xbefda5f6	-0.4954068
107	0xbcbc68ad	-0.022999132
108	0xbeca8d80	-0.3956108
109	0x3e22f511	0.15913798
110	0xbededb82	-0.43526846
111	0x3d7db1f0	0.061937273
112	0x3e8c30d3	0.27381
113	0x3eb4ee44	0.35338032
114	0xbe775b7c	-0.24155992
115	0x3e649802	0.22323611
116	0x3e6946a2	0.2278085
117	0x3e860772	0.26177555
118	0x3f07ecf8	0.5309596
119	0xbe0db96e	-0.13840267
120	0x3e205f08	0.15661252
121	0xbe9760c5	-0.29566017
122	0x3e9468a6	0.2898609
123	0x3e82ef2a	0.25573093
124	0x3e1d8d1a	0.15385857
125	0x3eb7471b	0.35796437
126	0x3dd69ace	0.104787454
127	0xbf3bf078	-0.734138

action_mean.weight f4 [4, 128]
0	0xbf668d61	-0.9005948
1	0x3e61152e	0.21980736
2	0x3e8e907c	0.27844608
3	0x3e6e8688	0.23293507
4	0x3ec56b5a	0.38558465
5	0x3ea04830	0.31305075
6	0x3edab18e	0.42713588
7	0xbdc771d2	-0.097385064
8	0x3f86e681	1.0539094
9	0x3f1a120e	0.601838
10	0xbf1571ab	-0.5837657
11	0x3f255e59	0.6459709
12	0xbd8b390e	-0.06797992
13	0xbf54443a	-0.82916605
14	0x3f08f16f	0.534934
15	0xbe9a0275	-0.3008
16	0x3f311d4d	0.69185334
17	0xbf762a22	-0.9615804
18	0xbd9da910	-0.07698262
19	0x3f460c61	0.7736264
20	0x3e7934ec	0.24336594
21	0x3d12fc2b	0.035885017
22	0x3e6d214c	0.23157233
23	0x3f7e8e87	0.9943623
24	0x3f6a7fcd	0.9160126
25	0xbf39d570	-0.72591305
26	0x3e383cf3	0.17992
27	0xbe84e41e	-0.2595529
28	0xbef6c0ff	-0.4819412
29	0x3e9b7ec2	0.30370146
30	0x3f03c8b5	0.5147813
31	0x3e906311	0.28200582
32	0x3fa67f9d	1.3007694
33	0x3c7a1967	0.015264845
34	0xbf005286	-0.5012592
35	0xbee2e580	-0.4431572
36	0xbf16f8e1	-0.5897351
37	0x3e6fa5cf	0.23403095
38	0x3f58e76b	0.84728116
39	0xbe82d258	-0.25551105
40	0x3f4d7f32	0.8027221
41	0x3f227d28	0.63472223
42	0x3daa991f	0.08329987
43	0xbe5a8635	-0.21340258
44	0x3e122b74	0.14274389
45	0xbf0bb02d	-0.545657
46	0xbe44030a	-0.19141784
47	0xbe40d9af	-0.1883304
48	0x3f5ec15e	0.87013805
49	0xbf93e88a	-1.155534
50	0x3e907c50	0.28219843
51	0x3fac7a0d	1.3474747
52	0xbf9492a0	-1.1607246
53	0xbe381284	-0.17975813
54	0x3e9f5748	0.31121278
55	0xbfc0fa10	-1.5076313
56	0xbf0b89fa	-0.5450741
57	0xbeaf9a0f	-0.34297225
58	0xbed0c5bc	-0.4077586
59	0x3d31ec3a	0.043438174
60	0xbf39d146	-0.7258495
61	0xc01da450	-2.4631538
62	0xbe99fe94	-0.3007704
63	0x3f970d10	1.1800861
64	0x3ed07cb4	0.4072014
65	0xbf4ef1f1	-0.80837923
66	0xbfd14680	-1.634964
67	0x3f26a9ca	0.6510283
68	0x3dc138c8	0.09434658
69	0x3febf7cb	1.8434995
70	0x3f287a32	0.65811455
71	0xbe822303	-0.25417337
72	0x3ef514c7	0.47867414
73	0xbee4d107	-0.44690725
74	0x3e34965f	0.17635487
75	0x3ee2b6b4	0.44280016
76	0x3f9c9071	1.223158
77	0xbed0683f	-0.40704533
78	0x3f23964c	0.6390121
79	0x3ef6afc3	0.4818097
80	0x3f4a8c03	0.7911989
81	0x3f304321	0.6885243
82	0x3eea5629	0.4576886
83	0x3f1a3ab4	0.60245824
84	0xbf02e70e	-0.5113381
85	0xbf175781	-0.59117895
86	0xbf0146dd	-0.50498754
87	0xbed2c847	-0.41168424
88	0x3d46b611	0.048513476
89	0x3f4a033c	0.78911185
90	0x3efabae7	0.4897072
91	0x3e8daef5	0.27672544
92	0x3bc6dd97	0.006068896
93	0x3e732fb4	0.23748666
94	0xbeda29ce	-0.4261002
95	0x3edd9282	0.4327584
96	0xbf87f40e	-1.0621355
97	0x3f7c99f9	0.98672444
98	0x3da46770	0.08027542
99	0xbf252df5	-0.6452325
100	0xbf9d5590	-1.2291737
101	0x3f0dedff	0.5544128
102	0xbe772796	-0.24136195
103	0x3d8a8aee	0.0676478
104	0x3fad26a6	1.352742
105	0xbd3dc09e	-0.046326272
106	0xbf5a32e8	-0.85233927
107	0x3f43d506	0.7649692
108	0xbf11bbec	-0.5692737
109	0x3f9fdb5b	1.2488817
110	0x3eb509e0	0.35359097
111	0xbf4b6002	-0.7944337
112	0x3f2566c8	0.64609957
113	0x3f8e16ee	1.1100748
114	0x3e771573	0.24129276
115	0xbf935555	-1.1510416
116	0x3f185074	0.5949776
117	0x3e9cf2c9	0.3065398
118	0x3f3bd63d	0.73373777
119	0xbd9b7534	-0.07590714
120	0xbf4866c2	-0.78281796
121	0xbe88edee	-0.26744026
122	0xbfaf604e	-1.3701265
123	0xbe76b5df	-0.24092816
124	0x3d8baa1e	0.06819557
125	0xbe234c10	-0.15946984
126	0xbe7e9135	-0.2486008
127	0xbef8ed1a	-0.48618394
128	0xbf4c6a7e	-0.79849994
129	0x3eadcaa2	0.3394366
130	0xbf1df468	-0.6170106
131	0x3efcc2df	0.49367425
132	0xbe06d8ae	-0.13168594
133	0xbf26cd28	-0.65156794
134	0xbefee53d	-0.4978427
135	0xbdc59647	-0.09647804
136	0x3dcfc8b1	0.10145701
137	0xbeafddf3	-0.3434902
138	0xbe4b8802	-0.19876102
139	0x3e0e966d	0.1392457
140	0xbefd6209	-0.49488857
141	0xbf83dee8	-1.03024
142	0xbed6068e	-0.41801876
143	0x3c824984	0.015904196
144	0xbecf718e	-0.40516323
145	0xbf7b8d9b	-0.9826295
146	0xbeb83fe9	-0.3598626
147	0x3f832c4b	1.0247892
148	0x3fcd628a	1.6045697
149	0xbed6a103	-0.41919717
150	0x3f0867f9	0.5328365
151	0x3f99e5d7	1.2023267
152	0xbf67ec01	-0.9059449
153	0xbeadafd3	-0.33923206
154	0x3f7ac6d8	0.9795966
155	0xbd4998d2	-0.049218006
156	0xbf6917d4	-0.91051984
157	0x3edd961c	0.43278587
158	0x3f0e9fa3	0.55712336
159	0x3e0601b4	0.13086587
160	0xbf07551e	-0.52864254
161	0xbcaaf286	-0.020867597
162	0xbf027e4c	-0.50973964
163	0xbf854fce	-1.041498
164	0x3e4c41dc	0.19946998
165	0x3f199f9f	0.6000919
166	0xbcc843c9	-0.024446385
167	0x3e02106b	0.12701575
168	0xbf01be47	-0.50680965
169	0xbea14c9f	-0.3150377
170	0x3e98d539	0.29850176
171	0x3c07bcbd	0.008284745
172	0x3f79ab2f	0.9752683
173	0xbf56c7ff	-0.8389892
174	0xbe0f4e3a	-0.13994685
175	0xbe17e7fe	-0.14834592
176	0xbf054614	-0.52060056
177	0xbed6dfda	-0.4196766
178	0x3ec83860	0.3910551
179	0x3fbc5bb8	1.471549
180	0xbf4df967	-0.8045868
181	0xbea51a08	-0.32246423
182	0x3f6009af	0.87514776
183	0xbda0916a	-0.078402355
184	0xbecbb13b	-0.39783654
185	0xbf3393bd	-0.70147306
186	0x3e8fc240	0.28077888
187	0x3f83680d	1.0266129
188	0xbe671912	-0.22568157
189	0x3f95e142	1.1709368
190	0x3f252ac2	0.6451837
191	0xbf4e3079	-0.80542713
192	0x3f703320	0.9382801
193	0xbf03eda1	-0.5153447
194	0xbfe2876a	-1.7697575
195	0xbfa05848	-1.2526941
196	0x3ead9cae	0.339086
197	0x3f342db7	0.70382255
198	0x3f0dd33c	0.55400443
199	0x3e718de0	0.23589277
200	0x3e2c3fd1	0.16821219
201	0x3f2735aa	0.6531626
202	0x3dcd87a4	0.10035637
203	0xbe7f0b3d	-0.24906631
204	0xbf5e05e5	-0.86727744
205	0x3fa8ba1c	1.3181796
206	0xbccc5245	-0.024941573
207	0x3f5379d3	0.82607764
208	0x3ee8ac00	0.45443726
209	0xbe660cfe	-0.22465894
210	0xbe16cf65	-0.14727552
211	0xbf95362c	-1.1657157
212	0xbeb61abb	-0.3556727
213	0x3eb1c861	0.3472319
214	0x3ed39c30	0.413301
215	0xbf86cd8b	-1.0531477
216	0x3fc5ff17	1.5468472
217	0xbcb6112d	-0.022224987
218	0xbee8eb12	-0.45491844
219	0x3faafb5f	1.3357962
220	0x3f796438	0.97418547
221	0x3f86857c	1.0509486
222	0xbe96a6d3	-0.29424152
223	0x3e9d2501	0.30692294
224	0xbe23c964	-0.15994793
225	0x3d6c477c	0.05768536
226	0x3d95366d	0.072857715
227	0x3eb9f3c6	0.36318797
228	0x3e1bc6f0	0.15212607
229	0xbf923279	-1.1421653
230	0xbf433590	-0.76253605
231	0x3f0076f0	0.50181484
232	0x3fa9b019	1.3256866
233	0x3e9a14a6	0.30093879
234	0x3f1364d5	0.5757573
235	0x3dd060bd	0.10174701
236	0x3e907c0d	0.28219643
237	0x3f6e2b0f	0.9303445
238	0x3f12c59f	0.57332796
239	0x3c5e1c4d	0.013556552
240	0x3f03831c	0.5137193
241	0xbcab0e85	-0.020880947
242	0x3f17619a	0.59133303
243	0x3d84f47c	0.06491944
244	0x3f550bf9	0.83221394
245	0xbf4b51e7	-0.7942185
246	0xbedb32c5	-0.42812172
247	0xbe8031ee	-0.25038093
248	0xbf6b260e	-0.9185494
249	0xbe4f7551	-0.20259596
250	0xbfad98e9	-1.356229
251	0xbefe7b6b	-0.49703535
252	0xbe576373	-0.2103403
253	0xbea152be	-0.3150844
254	0xbf51a55e	-0.81892955
255	0xbd8b5c05	-0.06804661

action_mean.bias f4 [4]
0	0xbce00a62	-0.0273487
1	0xbcc9a68e	-0.024615552
2	0xbc808ef6	-0.01569317
3	0xbd2de93f	-0.04245877
