best_models/a2c_gae/a2c_critic_step_3000000.pth (torch, 82773 bytes, 5 tensors)

affine_layers.0.weight f4 [128, 24]
-0.47473598 0.06827077 0.6826224 -2.7634041 0.3279873 -0.084411256 0.23350582 -0.061940283
0.093330644 -0.057883203 0.056894492 0.28171337 0.04761276 -0.030628929 -0.41913864 -0.39544138
-0.23820437 -0.2641732 -0.1929779 -0.1521188 -0.41954428 -0.09099162 -0.12904719 0.19623563
-0.23230879 1.8545587 -0.7215765 2.4992068 -1.2286228 1.021985 0.7014535 -1.8076414
-0.39466697 -0.4503249 0.49596515 0.49176008 -0.57892096 0.27972856 -0.12578864 -0.021058787
-0.072776385 -0.0424851 -0.039433774 -0.22698005 -0.34995544 -0.16071776 -0.376267 -0.40528744
2.6008239 4.108102 -0.4161292 0.052490387 1.7248383 0.12922388 0.9882342 -0.057590783
-0.33666357 -0.0015612681 -0.054967847 0.6905392 -0.20265277 -0.10120817 -0.2355024 -0.33020863
0.07637868 -0.122647226 -0.20121026 0.08797483 0.21736579 -0.045908794 0.08006803 0.20588796
0.13748677 -0.85448325 -0.86479634 1.646974 -0.33312735 -0.16805634 -0.15324187 -0.037600487
0.7527754 0.59015787 0.24677917 0.09945168 0.19111882 -0.10766294 0.13606662 0.25807333
0.0851465 0.17279229 0.014433476 -0.11846983 0.11913878 0.21749707 -0.11775236 -0.36104017
2.81982 4.4005756 -2.5673566 0.21086282 0.52749604 0.2993309 0.37341115 0.10222266
-0.6849856 1.415244 0.123771384 0.61467963 0.07086958 0.05930872 -0.21617113 -0.09614302
-0.2686472 -0.1999967 -0.12256229 -0.18933378 -0.17199014 -0.115444295 -0.41259587 -0.4195021
-1.836515 -3.7704835 2.537043 -0.5422218 -0.3863374 -0.17882678 0.18602549 0.3577956
0.5283475 -1.3921415 0.19052868 -0.4582527 0.5002084 0.468742 -0.12374383 0.07682737
-0.15288053 0.043522727 0.03509538 -0.15906292 -0.0662034 0.009294494 0.15735665 0.4909569
0.8957846 -1.2479106 -0.07174683 -0.071379915 0.3666195 -0.040226303 -0.28217998 0.0027723138
0.071116276 2.216574 0.8229192 1.2972108 0.014066268 -0.64705753 -0.3358593 -0.07944843
-0.09372046 -0.08763123 -0.096839204 -0.09411249 -0.09016226 -0.13218707 -0.7027756 -0.5405606
1.8325326 1.7881466 -1.2916646 0.69063246 -0.06734368 -0.19578432 -0.32842067 -0.07595449
0.15226606 2.2830753 0.40504768 1.4562819 0.4100386 0.40328446 -0.08096266 -0.031047417
0.01300521 -0.3033662 -0.023066849 -0.10155904 -0.19325112 -0.31024483 -0.35300323 -0.6312149
0.83291024 3.1139803 0.12995824 0.42576468 0.70193124 0.37127197 0.09024868 -0.17798415
0.4267805 0.72367513 -0.15663484 0.036531217 -0.32844943 0.13603437 -0.3864777 -0.1230792
-0.21302746 0.015837051 0.031710654 -0.20562959 -0.031989995 -0.19761325 0.27862164 -0.0030200346
2.4060543 5.7727575 -0.632114 -1.8055911 0.7776759 0.13693099 0.4139945 0.13176328
0.26566872 0.19510396 0.21853621 0.18405569 0.27483684 -0.05189786 -0.2921406 -0.048988797
-0.07714939 -0.18065637 -0.30424213 -0.28895018 -0.24684349 -0.10318605 0.068970814 0.40969694
1.316278 0.47833946 0.93167686 1.7260925 0.31788725 0.12636656 -0.26374885 -0.04965493
0.083929524 0.39653727 0.14449324 0.09763567 0.066237055 0.008025128 -0.022184774 0.13514735
00000000: 9810 f3be 8cd1 8b3d 57c0 2e3f 9ddb 30c0
00000010: f4ed a73e cfdf acbd 261c 6f3e 18b5 7dbd
00000020: 2324 bf3d f016 6dbd 330a 693d bc3c 903e
00000030: 9905 433d 85e9 fabc 5799 d6be 4b77 cabe
00000040: d9eb 73be b641 87be 009c 45be 08c5 1bbe
00000050: 82ce d6be d159 babd f224 04be fef1 483e
00000060: 5be2 6dbe 2e62 ed3f 3db9 38bf 01f3 1f40
00000070: 8343 9dbf 68d0 823f 7592 333f cb60 e7bf
00000080: ca11 cabe fc90 e6be 25ef fd3e fac7 fb3e
00000090: 2a34 14bf 9538 8f3e bdce 00be 7a83 acbc
000000a0: c90b 95bd db04 2ebd 4f85 21bd 756d 68be
000000b0: 5c2d b3be 3293 24be 11a6 c0be d681 cfbe
000000c0: e673 2640 9275 8340 e30e d5be 2900 573d
000000d0: 80c7 dc3f 4453 043e ebfc 7c3f 50e4 6bbd
000000e0: 2b5f acbe 77a3 ccba f725 61bd 2dc7 303f
000000f0: 3584 4fbe 3b46 cfbd 8b27 71be 1b11 a9be
00000100: 6d6c 9c3d 782e fbbd 100a 4ebe 262c b43d
00000110: 2395 5e3e dc0a 3cbd b5fa a33d 4bd4 523e
00000120: 55c9 0c3e 6abf 5abf 4b63 5dbf 0bd0 d23f
00000130: ab8f aabe f616 2cbe 70eb 1cbe f802 1abd
00000140: e3b5 403f 9614 173f aeb3 7c3e 53ad cb3d
00000150: a7b4 433e 637e dcbd 0c55 0b3e 3022 843e
00000160: 4a61 ae3d 76f0 303e 637a 6c3c 4fa0 f2bd
00000170: 08ff f33d 8db7 5e3e 2628 f1bd 42da b8be
00000180: ee77 3440 84d1 8c40 924f 24c0 6cec 573e
00000190: fb09 073f e641 993e bf2f bf3e 1d5a d13d
000001a0: 375b 2fbf b726 b53f da7b fd3d a55b 1d3f
000001b0: 1224 913d b3ed 723d f75b 5dbe a2e6 c4bd
000001c0: 208c 89be efcb 4cbe f001 fbbd b7e0 41be
000001d0: 2f1e 30be 0f6e ecbd c43f d3be fbc8 d6be
000001e0: ec12 ebbf 9a4f 71c0 ea5e 2240 0ccf 0abf
000001f0: 04ce c5be 5e1e 37be 777d 3e3e fc30 b73e
00000200: c841 073f b131 b2bf f319 433e 19a0 eabe
00000210: a80d 003f f4fe ef3e 686d fdbd ab57 9d3d
00000220: b78c 1cbe e344 323d 2cc0 0f3d 64e1 22be
00000230: a695 87bd ef47 183c 1a22 213e b45e fb3e
00000240: 2452 653f 89bb 9fbf 01f0 92bd a22f 92bd
00000250: 8db5 bb3e 56c4 24bd e579 90be b5af 353b
00000260: 69a5 913d 59dc 0d40 d5aa 523f 010b a63f
00000270: 3476 663c 90a5 25bf c0f5 abbe dcb5 a2bd
00000280: 83f0 bfbd 0178 b3bd a253 c6bd 0dbe c0bd
00000290: fea6 b8bd 0c5c 07be 1ae9 33bf 2e62 0abf
000002a0: 6e90 ea3f fde1 e43f 4455 a5bf 4acd 303f
000002b0: 7ceb 89bd af7b 48be c126 a8be 078e 9bbd
000002c0: a2eb 1b3e e81d 1240 6962 cf3e 7267 ba3f
000002d0: 94f0 d13e 4d7b ce3e c0cf a5bd 2757 febc
000002e0: ce13 553c d152 9bbe b0f6 bcbc 30fe cfbd
000002f0: 9fe3 45be 69d8 9ebe d7bc b4be 4d97 21bf
00000300: 9b39 553f 744b 4740 c613 053e d4fd d93e
00000310: c4b1 333f 5c17 be3e 4dd4 b83d 7a41 36be
00000320: f982 da3e c642 393f e264 20be c2a1 153d
00000330: 862a a8be 984c 0b3e 68e0 c5be f310 fcbd
00000340: df23 5abe b4bc 813c 08e3 013d 9090 52be
00000350: f107 03bd 215b 4abe 7fa7 8e3e c6eb 45bb
00000360: cbfc 1940 6eba b840 39d2 21bf 9c1d e7bf
00000370: c515 473f a337 0c3e 16f7 d33e f4ec 063e
00000380: bb05 883e 55c9 473e f5c7 5f3e 1879 3c3e
00000390: 6ab7 8c3e da92 54bd 7493 95be 7aa8 48bd
000003a0: 8000 9ebd fcfd 38be a0c5 9bbe 47f1 93be
000003b0: 8ac4 7cbe 3553 d3bd 9240 8d3d ccc3 d13e
000003c0: cc7b a83f e9e8 f43e 6082 6e3f 99f0 dc3f
000003d0: 1ec2 a23e 3c66 013e 170a 87be f862 4bbd
000003e0: 3ee3 ab3d ef06 cb3e 09f6 133e 36f5 c73d
000003f0: 4ba7 873d d47b 033c d8bc b5bc 1164 0a3e

affine_layers.0.bias f4 [128]
0.8172821 -0.36615202 0.08108698 -0.4359437 -0.49298143 0.32076773 -0.17778131 -0.498369
-0.25668764 0.35239622 -0.15961233 -0.1532642 0.40062636 0.39567062 -0.7206351 -0.24183196
-0.085026436 0.22102523 -1.0633559 0.5008803 0.29982737 -0.6358819 -0.8884489 -0.304004
0.06815124 0.06478818 0.77282447 0.7015948 0.23414035 0.0137732355 -0.17875262 -0.48638797
-0.09019639 -0.006352674 -0.1261236 0.20416442 -0.53067094 0.3504574 0.41398886 -0.22815049
-0.22733991 -0.48764682 -0.032540433 -0.20359157 0.18080197 -0.55575716 0.778623 0.5343295
0.29044306 -0.12058281 -0.84250146 0.5261169 0.072683 0.55057925 -1.8487402 0.22120123
0.26269394 -0.80344045 0.0015807785 0.088567905 0.6137203 -0.11593847 0.26288357 0.42324588
-0.23783785 -2.0954566 0.29357666 -0.4667242 0.05071111 0.045598246 -0.43207863 0.55744886
-0.649731 0.5868311 0.12613128 -0.32900342 -0.3637733 0.7381298 -0.11743313 0.48556015
-0.18485956 -0.058598284 1.0714499 2.246177 0.74248636 -0.39624852 0.26628175 0.634582
-1.0554079 -0.39567754 0.2663608 0.25364912 -0.31814992 -0.75179505 2.593264 1.9941522
-0.36281052 -1.0610301 0.23810446 0.29531875 0.6271208 0.42015138 0.5688601 0.6564185
-0.13477649 0.046998803 -0.6407475 0.15021467 -0.48795894 -0.5380728 -0.14104314 -0.40151978
-0.7073054 0.17519817 0.076705985 0.5689193 0.5257197 0.43534923 -0.46370283 -0.33052033
-0.64273125 0.5816349 0.65141475 -0.37326297 -0.020237051 0.32379767 -1.8936651 0.62893134
00000000: 6639 513f 4778 bbbe ee10 a63d 0334 dfbe
00000010: 1068 fcbe ab3b a43e 4e0c 36be 392a ffbe
00000020: 906c 83be 476d b43e 6a71 23be 4af1 1cbe
00000030: e61e cd3e 5795 ca3e 8b7b 38bf cca2 77be
00000040: 5722 aebd 7054 623e 0c1c 88bf b139 003f
00000050: f982 993e 28c9 22bf 6371 63bf 6aa6 9bbe
00000060: e192 8b3d aaaf 843d d3d7 453f b89b 333f
00000070: 7dc2 6f3e 23a9 613c ed0a 37be d807 f9be
00000080: e3b8 b8bd 182a d0bb 8c26 01be 7a10 513e
00000090: 0dda 07bf 276f b33e 59f6 d33e 48a0 69be
000000a0: cbcb 68be d8ac f9be 1e49 05bd 4f7a 50be
000000b0: 2724 393e 1a46 0ebf d653 473f d1c9 083f
000000c0: f4b4 943e 1ff4 f6bd 2dae 57bf 99af 063f
000000d0: d3da 943d c3f2 0c3f 85a3 ecbf 9382 623e
000000e0: d27f 863e 46ae 4dbf 2032 cf3a 1763 b53d
000000f0: c61c 1d3f 2671 edbd ad98 863e afb3 d83e
00000100: c48b 73be f61b 06c0 ae4f 963e 79f6 eebe
00000110: 74b6 4f3d 3ac5 3a3d 6939 ddbe f8b4 0e3f
00000120: c554 26bf 903a 163f 8f28 013e 2373 a8be
00000130: 7e40 babe 13f6 3c3f c880 f0bd 579b f83e
00000140: d34b 3dbe c104 70bd 4525 893f 5dc1 0f40
00000150: 9613 3e3f 16e1 cabe 1556 883e f773 223f
00000160: 9b17 87bf 3f96 cabe 7160 883e 4cde 813e
00000170: 8ce4 a2be a475 40bf 0af8 2540 6140 ff3f
00000180: 4dc2 b9be d6cf 87bf a8d1 733e 0534 973e
00000190: fd8a 203f 151e d73e d1a0 113f 0b0b 283f
000001a0: d902 0abe d181 403d 0708 24bf e0d1 193e
000001b0: c1d5 f9be 24bf 09bf 9d6d 10be 0094 cdbe
000001c0: f711 35bf 2667 333e 0718 9d3d b2a4 113f
000001d0: 9195 063f 18e6 de3e 756a edbe f639 a9be
000001e0: 098a 24bf 06e6 143f 1ec3 263f 531c bfbe
000001f0: 2cc8 a5bc cfc8 a53e 9e63 f2bf a501 213f

affine_layers.1.weight f4 [128, 128]
-0.34411535 -0.3139728 -0.045642298 0.95096105 0.2090394 -0.24985954 0.7698606 1.0845684
-0.37117568 -0.22666758 0.0708615 -0.827198 0.24540138 -0.35837308 -0.31589746 0.29215568
0.22330771 -0.14390105 0.7413343 -0.3038175 -0.44070452 -0.4990757 -0.29445738 -0.60740966
-0.10288337 0.12189553 0.0011651462 0.163649 0.4449458 0.393985 0.081621744 0.36533174
0.37535316 1.0294251 -0.07917136 -0.5030867 0.37714487 0.31637532 0.1543894 0.08253768
-0.42994094 -0.56135464 -0.26506525 -0.1354529 0.33777854 0.21570781 -0.8814536 -0.54530394
-0.12780717 -0.15615387 0.41076294 -1.1744424 -0.33772507 -0.27878818 -0.24441244 -0.3563451
0.2996236 -0.3293661 0.20052534 -0.3149522 -0.93183637 0.26408923 -0.79111946 -0.3264074
0.13323052 -0.29121208 -0.6058266 1.2388759 -0.4793175 0.030609142 0.80643433 -0.7057688
0.16710465 -0.0077099837 0.34184948 0.5734075 0.59328544 0.23486263 -0.2877993 -0.8947374
-0.6312406 -0.36669558 -0.07581507 0.19554152 -0.47627681 -0.22463053 0.14744818 -0.7380799
-0.034956697 0.035802618 0.20550065 -0.28416643 0.60906476 0.049427047 -0.019222282 0.28829587
0.15333958 -0.062108442 0.42157194 -0.3240848 -0.32410505 0.55021006 -0.6499931 -0.27203864
-0.2051576 0.029068979 1.0325702 -0.30890667 1.0133934 0.108864866 -0.46726707 -0.056159914
1.3993618 -0.2596943 0.72381836 0.057510927 -0.29126203 0.114123024 0.5853008 0.51556414
1.018013 -0.94840163 -0.27171645 0.3495976 -0.086366266 -0.14374293 -0.46560332 -0.12188545
-0.1863116 -0.0046960777 -0.019101989 0.7030055 0.077428564 -0.23645072 0.65907335 0.65824956
-0.42822364 -0.24707082 -0.056190316 -0.12900943 -0.13568479 -0.83084226 -0.61009663 -0.29179895
0.16011448 -0.19029942 0.12006246 -0.20299777 -0.12988009 -0.45618844 -0.32222915 -0.40456882
0.5589833 -0.16416971 -0.18769598 0.16815148 0.48402566 0.44932666 0.63219815 0.47179893
0.1926189 1.0488647 -0.40881574 -0.15178141 0.23267233 0.46247357 -0.05358994 0.4792598
-0.3836127 -0.588862 -0.38631877 -0.13645624 -0.11445921 0.6482312 -0.625745 -0.63422596
-0.19377771 -0.17451546 0.07157651 -0.6282706 -0.5004253 -0.31753498 -0.22435068 -0.38406307
-0.33541587 -0.3419239 -0.05370262 -0.45898283 -0.74580437 -0.014432264 -0.5965428 -0.66106
-0.0053351754 -0.18336149 -0.8202645 0.6960119 -0.24670558 -0.37343696 0.768863 -0.5378149
0.44773465 -0.061693825 0.25547537 0.22337814 0.37886143 0.22125567 0.04912843 -0.7143564
-0.5782384 -0.29937375 0.038444247 0.15964894 -0.4313534 -0.49121782 0.035300627 -0.5857578
0.17004026 0.3371722 0.1952655 -0.48909524 1.0035744 -0.1774678 -0.07873094 0.1798885
0.19173236 -0.016028177 -0.045134224 -0.51576763 -0.42624858 0.54089975 -0.54275167 -0.6364767
-0.1846382 -0.17620514 0.44450292 -0.28697672 0.6512062 0.014370009 0.004463264 0.300835
0.46640056 0.046484027 0.66687727 0.2565808 -0.3482847 -0.12539658 0.39554447 0.45683584
0.87908536 -0.6242324 -0.72374207 0.30461502 -0.1128685 -0.28551903 -0.4461435 0.23020148
00000000: e32f b0be 0bc1 a0be 6bf3 3abd 2f72 733f
00000010: 6d0e 563e 2edb 7fbe 9615 453f 23d3 8a3f
00000020: bd0a bebe 8c1b 68be d61f 913d 40c3 53bf
00000030: 804a 7b3e ad7c b7be 50bd a1be 6e95 953e
00000040: c7aa 643e cc5a 13be 16c8 3d3f f88d 9bbe
00000050: 06a4 e1be da86 ffbe 1ec3 96be 337f 1bbf
00000060: 84b4 d2bd 5da4 f93d d2b7 983a 9a93 273e
00000070: f0cf e33e 67b8 c93e 4d29 a73d c30c bb3e
00000080: 4a2e c03e 34c4 833f 9824 a2bd 4aca 00bf
00000090: 2219 c13e f2fb a13e 4118 1e3e 8409 a93d
000000a0: 3821 dcbe f0b4 0fbf a2b6 87be 2ab4 0abe
000000b0: 4ff1 ac3e 82e2 5c3e f1a6 61bf 0a99 0bbf
000000c0: e2df 02be cde6 1fbe 854f d23e 2154 96bf
000000d0: 4dea acbe 53bd 8ebe 4147 7abe dd72 b6be
000000e0: 4468 993e aca2 a8be 8456 4d3e 6a41 a1be
000000f0: d48c 6ebf b436 873e ce86 4abf df1e a7be
00000100: 956d 083e c019 95be 7417 1bbf 7c93 9e3f
00000110: 1a69 f5be 06c0 fa3c 7b72 4e3f 44ad 34bf
00000120: 7b1d 2b3e 08a4 fcbb e506 af3e d5ca 123f
00000130: 8ee1 173f d47f 703e 6e5a 93be 830d 65bf
00000140: fc98 21bf 86bf bbbe ee44 9bbd 093c 483e
00000150: 8eda f3be 8c05 66be a8fc 163e cef2 3cbf
00000160: c12e 0fbd c4a5 123d c36e 523e 437e 91be
00000170: abeb 1b3f 0474 4a3d 0c78 9dbc 849b 933e
00000180: 0d05 1d3e 6c65 7ebd 47d8 d73e 71ee a5be
00000190: 19f1 a5be 91da 0c3f f365 26bf a648 8bbe
000001a0: d514 52be 1122 ee3c 432b 843f 0429 9ebe
000001b0: e0b6 813f 8bf4 de3d a13d efbe f007 66bd
000001c0: 4a1e b33f a7f6 84be 294c 393f 9490 6b3d
000001d0: 4c20 95be 55b9 e93d 46d6 153f 03fc 033f
000001e0: 404e 823f 73ca 72bf 6b1e 8bbe 75fe b23e
000001f0: cce0 b0bd 5931 13be 8f63 eebe 149f f9bd
00000200: 78c8 3ebe 8ee1 99bb c67b 9cbc 2bf8 333f
00000210: de92 9e3d 2320 72be 08b9 283f 0b83 283f
00000220: 2140 dbbe 2200 7dbe d127 66bd 0c1b 04be
00000230: f4f0 0abe 14b2 54bf 4b2f 1cbf ac66 95be
00000240: 0df5 233e dadd 42be 4fe3 f53d a6de 4fbe
00000250: 49ff 04be 8891 e9be 38fb a4be a523 cfbe
00000260: 8819 0f3f 1b1c 28be 6033 40be e72f 2c3e
00000270: 36d2 f73e 250e e63e bdd7 213f a18f f13e
00000280: e43d 453e 3341 863f 4c50 d1be 966c 1bbe
00000290: a841 6e3e 56c9 ec3e 2081 5bbd 8a61 f53e
000002a0: e268 c4be a9bf 16bf 93cb c5be 2fbb 0bbe
000002b0: 9769 eabd 7bf2 253f d330 20bf a25c 22bf
000002c0: aa6d 46be 2eb4 32be b596 923d 58d6 20bf
000002d0: df1b 00bf f293 a2be 2fbc 65be eaa3 c4be
000002e0: a1bb abbe a610 afbe 47f7 5bbd ccff eabe
000002f0: 09ed 3ebf 4d75 6cbc 07b7 18bf 3a3b 29bf
00000300: b2d2 aebb 1dc3 3bbe dbfc 51bf d62d 323f
00000310: 63a0 7cbe 2133 bfbe 35d4 443f 3dae 09bf
00000320: 7a3d e53e aab2 7cbd abcd 823e 3dbd 643e
00000330: 20fa c13e d990 623e e53a 493d 10e0 36bf
00000340: 6f07 14bf 8447 99be b777 1d3d 037b 233e
00000350: 5ada dcbe e780 fbbe 6497 103d 39f4 15bf
00000360: 091f 2e3e d6a1 ac3e aef3 473e b16a fabe
00000370: 2075 803f 1eba 35be b03d a1bd b134 383e
00000380: 7d55 443e 864d 83bc aade 38bd 5909 04bf
00000390: 413d dabe 6878 0a3f c6f1 0abf 23f0 22bf
000003a0: cc11 3dbe 1f6f 34be e395 e33e 9dee 92be
000003b0: 73b5 263f 3070 6b3c 9240 923b 0c07 9a3e
000003c0: 0ecc ee3e 0966 3e3d 78b8 2a3f 8f5e 833e
000003d0: 5f52 b2be f667 00be ce84 ca3e 63e6 e93e
000003e0: bd0b 613f b2cd 1fbf 2947 39bf 80f6 9b3e
000003f0: 9a27 e7bd 8d2f 92be ec6c e4be f0b9 6b3e

affine_layers.1.bias f4 [128]
-0.12213047 -0.13506933 0.35660723 -0.44474116 -0.34932613 -0.2985914 0.6025819 0.04048288
-0.42092454 0.07860221 0.13348813 -0.2035726 -1.2000335 -0.34635985 1.1102622 0.95731175
0.11020148 0.08593011 0.2783111 0.58308697 0.60140735 1.0906621 0.16814542 0.57201385
1.086576 -0.5552276 -1.0570756 1.2534554 -0.5297832 -0.97326666 0.47763407 -0.47325897
-0.119262636 -0.00012120933 -0.27026197 -0.34043226 0.54865986 -0.217545 -1.0014079 -0.2679382
-1.1149567 -0.14265512 0.2482717 0.21443142 0.4879403 0.3545291 -0.93917936 0.18211563
0.033841867 0.17853643 -1.2083485 -0.27083585 -0.31408525 -0.029510157 -0.026158154 -0.45003673
0.5848573 -0.5296735 -0.013089167 0.26200244 0.51939017 1.0885744 -0.14279133 -0.7703316
0.21721885 -0.8936784 0.27574828 0.32181767 -0.028820224 1.0717977 1.0665835 -0.042452186
0.61073977 0.36626008 -0.41313836 -0.56474334 0.5006283 -0.6688433 -1.1650784 -0.2173288
-0.47657096 -1.0091792 1.0875956 0.0109685995 0.8576006 -0.42620674 0.49801925 0.43723056
0.15982908 -1.1987184 -0.04608288 0.23070344 0.42911518 0.38009757 -0.21197852 0.1094398
0.39219317 -0.2624403 0.6405158 -0.009447658 -0.08093524 -0.025827928 -0.041521434 -0.42806587
0.30368948 0.40661132 -0.60435134 -0.2679251 -0.3277363 -0.27117002 -0.42895988 -1.0726789
-1.2034512 0.23798135 0.105387256 -0.09374394 -1.132375 0.04405088 0.6005119 -1.0030378
0.9829426 0.28359553 0.10593922 -0.49450156 -0.16467373 -1.2028863 0.3856903 -0.12326051
00000000: 8a1f fabd 9d4f 0abe 3995 b63e 1db5 e3be
00000010: e0da b2be f9e0 98be cf42 1a3f 60d1 253d
00000020: 6c83 d7be 32fa a03d 1db1 083e 5675 50be
00000030: b39a 99bf 1456 b1be 121d 8e3f 6212 753f
00000040: 50b1 e13d 20fc af3d cb7e 8e3e 3045 153f
00000050: d5f5 193f d19a 8b3f 502e 2c3e 806f 123f
00000060: ec14 8b3f 6523 0ebf 414e 87bf 3a71 a03f
00000070: df9f 07bf 0128 79bf 748c f43e 004f f2be
00000080: f83f f4bd c331 feb8 c75f 8abe 234d aebe
00000090: f974 0c3f 1ec4 5ebe 222e 80bf 322f 89be
000000a0: e7b6 8ebf 2f14 12be f03a 7e3e e993 5b3e
000000b0: 50d3 f93e d784 b53e 0f6e 70bf 857c 3a3e
000000c0: c59d 0a3d 41d2 363e 2aab 9abf ffaa 8abe
000000d0: c8cf a0be 49bf f1bc a049 d6bc 376b e6be
000000e0: 35b9 153f af98 07bf f273 56bc 2f25 863e
000000f0: c1f6 043f 6856 8b3f e437 12be 7434 45bf
00000100: 9e6e 5e3e 1cc8 64bf e12e 8d3e 49c5 a43e
00000110: 6418 ecbc ab30 893f cf85 883f 58e2 2dbd
00000120: 7159 1c3f 7186 bb3e df86 d3be 0593 10bf
00000130: 2d29 003f 5139 2bbf 4a21 95bf 718b 5ebe
00000140: 1c01 f4be c92c 81bf 5536 8b3f a4b5 333c
00000150: b78b 5b3f c537 dabe 61fc fe3e afdc df3e
00000160: 3caa 233e 9b6f 99bf 67c1 3cbd 863d 6c3e
00000170: fcb4 db3e 269c c23e e610 59be f921 e03d
00000180: 8bcd c83e 935e 86be d8f8 233f 5aca 1abc
00000190: 60c1 a5bd 1795 d3bc 6112 2abd 732b dbbe
000001a0: 307d 9b3e 5c2f d03e c5b6 1abf 7b2d 89be
000001b0: 0dcd a7be ccd6 8abe a1a0 dbbe 8b4d 89bf
000001c0: b00a 9abf 62b1 733e 46d5 d73d d3fc bfbd
000001d0: aaf1 90bf b26e 343d 26bb 193f 8b63 80bf
000001e0: 20a2 7b3f 6f33 913e a9f6 d83d 4f2f fdbe
000001f0: 3ba0 28be 2ef8 99bf 3379 c53e 0270 fcbd

value_head.weight f4 [1, 128]
0.27397203 0.42221475 -1.1437274 0.8986626 -0.9138439 0.39978534 -1.8768778 -0.3229931
1.1601347 0.7220033 -0.88400346 0.7205429 2.7476997 1.0412956 -1.9400182 -2.3230095
-1.1620916 1.9539508 1.5246149 0.7118191 -2.3522162 -2.6059713 1.1506494 -1.021823
-2.3103814 1.1043682 3.1853983 -2.5435 0.9782496 2.446249 -0.22495328 1.1706743
-0.9046679 0.36993185 0.38242757 1.0250779 1.121406 1.6346215 2.414869 0.3484983
2.9017868 0.6267411 -0.57932746 -0.76869404 -0.5482176 0.63133264 2.1817644 0.85676163
-2.4115427 0.12948792 2.775548 0.27524176 0.51893365 0.48714355 0.60702467 0.25234926
-0.7319017 0.8770045 -0.45190072 -0.35457635 -0.7553583 -2.6842327 -1.6107547 0.9297677
-0.6736297 2.8286185 -2.3886893 -0.2474806 1.2260453 -1.890001 -1.7733803 0.45919815
0.8851766 -0.7731136 0.3920335 0.23254973 -0.36025268 0.6736297 2.7204626 0.32636684
0.24471271 2.2579038 -1.9332132 0.39921194 -3.2700515 0.5048129 -0.6692679 -0.19132662
1.5765405 2.5162578 1.3066372 -0.5508575 -1.253343 -0.34740895 -1.4131708 0.68194777
-0.7620005 -1.1446749 -0.90636975 -0.40687945 -1.0410708 -0.5279406 -0.68330824 0.7501857
-5.047085 -0.69308436 1.8808334 0.7331805 0.39088342 0.98385787 0.74738264 2.0292299
2.5755746 -0.5269997 0.20590943 0.34782577 1.7175932 -0.40100265 -1.8712635 2.7126405
-2.4418516 -0.4726652 -0.5105624 -0.23195843 -1.2321056 2.7803812 -2.6559355 1.1571571
00000000: 1046 8c3e 882c d83e a965 92bf c10e 663f
00000010: adf1 69bf aab0 cc3e 883d f0bf 5a5f a5be
00000020: 4b7f 943f 35d5 383f 0d4e 62bf 8075 383f
00000030: 50da 2f40 2d49 853f 8452 f8bf 30ac 14c0
00000040: 6bbf 94bf 0f1b fa3f 9526 c33f c739 363f
00000050: b68a 16c0 3cc8 26c0 7b48 933f 19cb 82bf
00000060: 4add 13c0 f05b 8d3f 91dd 4b40 b4c8 22c0
00000070: 916e 7a3f 588f 1c40 275a 66be a8d8 953f
00000080: 5198 67bf b567 bd3e 8ccd c33e c135 833f
00000090: 3b8a 8f3f 473b d13f 378d 1a40 5f6e b23e
000000a0: e0b6 3940 1b72 203f ce4e 14bf 22c9 44bf
000000b0: fd57 0cbf 049f 213f 07a2 0b40 bb54 5b3f
000000c0: b756 1ac0 7b98 043e 94a2 3140 7dec 8c3e
000000d0: d6d8 043f e16a f93e f865 1b3f ec33 813e
000000e0: e95d 3bbf 5e83 603f 885f e7be 088b b5be
000000f0: 295f 41bf 78ca 2bc0 362d cebf 4205 6e3f
00000100: ff72 2cbf 1608 3540 49e0 18c0 8e6b 7dbe
00000110: 0def 9c3f 8eeb f1bf 20fe e2bf 051c eb3e
00000120: ef9a 623f c6ea 45bf 9db8 c83e 8421 6e3e
00000130: 0a73 b8be ff72 2c3f 0f1c 2e40 8e19 a73e
00000140: f895 7a3e 7f81 1040 8873 f7bf 8265 cc3e
00000150: 8648 51c0 6b3b 013f 2455 2bbf 20eb 43be
00000160: 14cc c93f 5e0a 2140 e33f a73f ff04 0dbf
00000170: 8b6d a0bf 96df b1be c8e2 b4bf 2194 2e3f
00000180: 7712 43bf b584 92bf d907 68bf 8152 d0be
00000190: cf41 85bf 1d27 07bf 4aed 2ebf 2c0c 403f
000001a0: b881 a1c0 fa6d 31bf 26bf f03f b8b1 3b3f
000001b0: df21 c83e 1cde 7b3f 7854 3f3f e7de 0140
000001c0: 37d6 2440 74e9 06bf ecd9 523e 3816 b23e
000001d0: 18da db3f 3850 cdbe 9085 efbf e79b 2d40
000001e0: 4c47 1cc0 2c01 f2be 38b4 02bf 8386 6dbe
000001f0: a3b5 9dbf c4f1 3140 d9fa 29c0 b91d 943f
