results/ppo_BipedalWalker-v3_20250602_205845/ppo_critic_step_200000.pth (torch, 26206 bytes, 5 tensors)

net.0.weight f4 [64, 24]
0	0x3e0472be	0.12934396
1	0x3dbee0f2	0.09320249
2	0xbe4baf60	-0.19891119
3	0xbf2fc86b	-0.6866519
4	0x3e807eb2	0.2509666
5	0xbdbd3067	-0.09237748
6	0x3e07f13b	0.13275616
7	0x3d7701e7	0.06030455
8	0xbd405ee6	-0.046965502
9	0xbee73842	-0.4516011
10	0xbe4b2cb4	-0.19841272
11	0xbe5ce3eb	-0.21571319
12	0xbda2db19	-0.07951946
13	0x3d8fbccf	0.07018434
14	0x3d1c707e	0.03819322
15	0x3e30d55c	0.1726889
16	0x3e18919f	0.148993
17	0xbe10dcbb	-0.14146702
18	0x3e47a164	0.1949516
19	0x3c2cf39d	0.010556129
20	0x3e2e93e7	0.17048608
21	0x3d2150d6	0.03938373
22	0xbcd6faa5	-0.026242564
23	0x3e31a143	0.17346673
24	0xbe2e866c	-0.17043465
25	0xbdc0ba51	-0.09410537
26	0x3dfa8eda	0.12234278
27	0xbf160d10	-0.5861368
28	0x3e19f2ee	0.15034077
29	0x3e1b21b6	0.15149578
30	0xbd7a1a66	-0.06106033
31	0x3dd350b7	0.103181295
32	0x3b82001e	0.003967299
33	0xbe6cc887	-0.2312337
34	0xbc5fde4c	-0.01366384
35	0xbf01c5cc	-0.5069244
36	0xbddc0cdf	-0.107446425
37	0xbe81ce6f	-0.2535281
38	0xbe74eb51	-0.23917891
39	0xbe560797	-0.20901333
40	0xbd2ce961	-0.042214755
41	0x3e1da897	0.15396343
42	0xbe2f4f5f	-0.17120121
43	0x3d40c9ce	0.047067456
44	0xbe06b98e	-0.13156721
45	0x3df4d69d	0.11954997
46	0x3de41a2a	0.11137803
47	0x3d2bf76a	0.041984
48	0x3eaf1475	0.34195295
49	0xbdaf8c32	-0.08571662
50	0xbe0550cf	-0.13019107
51	0xbf7838ad	-0.9696148
52	0x3e9c87f5	0.30572477
53	0x3e5732e7	0.21015511
54	0x3d483d40	0.048886538
55	0x3d952269	0.07281954
56	0xbdd86a4d	-0.1056715
57	0xbed681bc	-0.41895854
58	0xbccbcd87	-0.024878277
59	0xbea7d7ca	-0.3278182
60	0xbd0864b7	-0.033299174
61	0xbcc098d5	-0.023510376
62	0x3e1e6081	0.15466501
63	0x3d48a64d	0.04898672
64	0xbc07751e	-0.008267669
65	0xbced2876	-0.028949957
66	0x3cb423ad	0.021989668
67	0xbddb4e4a	-0.10708292
68	0x3e4a7a74	0.19773275
69	0x3e4c786c	0.19967812
70	0xbd3f5be0	-0.04671848
71	0x3e2e6219	0.17029609
72	0xbea3c1df	-0.3198385
73	0xbefbc811	-0.49176076
74	0x3e8e3280	0.27772903
75	0xbf46bb96	-0.77629983
76	0x3ec56f38	0.38561416
77	0xbc1ce5f1	-0.009576307
78	0xbde05256	-0.10953204
79	0x3c91193b	0.017712226
80	0x3b9e67f1	0.004834168
81	0xbe2a390a	-0.16623321
82	0xbda33435	-0.07968942
83	0xbe89a5e0	-0.26884365
84	0xbb00e9ed	-0.001967068
85	0xbc9643ba	-0.018342841
86	0x3e678935	0.22610934
87	0xbb67b527	-0.0035355778
88	0x3d4744d2	0.048649617
89	0xbe286914	-0.16446334
90	0x3da86c0f	0.082237355
91	0xbd69d68f	-0.057089385
92	0xbc910efd	-0.017707342
93	0xbd9f4626	-0.07777052
94	0x3e7260aa	0.23669687
95	0x3e19cfe3	0.15020709
96	0xbe704219	-0.23462714
97	0xbea56466	-0.3230316
98	0x3ef312d8	0.47475314
99	0xbf22ecad	-0.6364239
100	0xbdaf1cc1	-0.08550406
101	0x3d6afd8f	0.05737072
102	0x3cc31722	0.023814742
103	0x3ce47b66	0.027890872
104	0xbe27248f	-0.1632254
105	0xbf088c98	-0.5333953
106	0x3d81558b	0.06315144
107	0xbea677d4	-0.32513297
108	0x3c70d01d	0.014698056
109	0x3df21be1	0.11821724
110	0xbd1306bc	-0.035895094
111	0xbe1930dc	-0.14960045
112	0xbd2ddf64	-0.04244937
113	0xbddcede5	-0.10787562
114	0xbdab65e4	-0.083690435
115	0xbe395b4a	-0.1810123
116	0x3e19e39a	0.1502823
117	0x3e2ace2b	0.1668021
118	0xbe207a49	-0.15671648
119	0x3e0824de	0.13295314
120	0x3e179604	0.1480332
121	0xbe089770	-0.13339019
122	0x3d974a9c	0.073872775
123	0xbf3696c7	-0.7132382
124	0x3ea50e5b	0.32237515
125	0x3df77b57	0.12084072
126	0x3df1d327	0.11807852
127	0x3d6390ca	0.055558003
128	0x3d36940b	0.04457478
129	0xbede11f3	-0.4337307
130	0xbda8de07	-0.08245473
131	0xbea3c950	-0.31989527
132	0x3c5d0ef3	0.013492334
133	0x3d1dcc1b	0.03852473
134	0xbd3679f2	-0.04454989
135	0xbd9d2449	-0.076729365
136	0x3d1d8005	0.038452167
137	0x3af56e74	0.0018724934
138	0xbb87f64c	-0.004149234
139	0xbdc9e2df	-0.09857725
140	0xbd4f603e	-0.050628893
141	0x3e7ea7c7	0.2486869
142	0x3c289669	0.010289767
143	0x3e3ecbac	0.18632382
144	0x3efd537e	0.49477762
145	0x3f09bb81	0.53801733
146	0xbf194aa6	-0.5987953
147	0xbf4972de	-0.786909
148	0x3ec2aeb2	0.38023907
149	0x3d5ab64e	0.053396516
150	0x3dde14b1	0.1084379
151	0x3d279533	0.04091377
152	0xbde798a1	-0.113084085
153	0x3e69304a	0.22772327
154	0xbd9adb36	-0.075613424
155	0xbc474d27	-0.012164391
156	0xbc08af07	-0.008342511
157	0xbe6779d4	-0.22605067
158	0xbe0d2a68	-0.13785708
159	0x3deb4a04	0.11488727
160	0xbe3c6b7b	-0.18400376
161	0xbde1c57b	-0.110239945
162	0x3c7f6056	0.015586933
163	0xbdc7e59c	-0.097605914
164	0x3b2b19ec	0.002610798
165	0x3e2c323f	0.16816042
166	0xbe29d860	-0.16586447
167	0xbdf10851	-0.11769164
168	0xbd9ae66e	-0.07563482
169	0x3e9c2be0	0.30502224
170	0xbc56dcf4	-0.013114203
171	0xbf92664e	-1.1437471
172	0xbe397321	-0.18110324
173	0x3e670ac2	0.22562698
174	0x3db02598	0.086009204
175	0xbe5d546f	-0.2161424
176	0xbe9e65f8	-0.3093717
177	0xbe6c5129	-0.23077835
178	0x3e6aa309	0.22913755
179	0xbe2883fc	-0.16456598
180	0x3de81e22	0.113338724
181	0xbd64ba85	-0.05584194
182	0x3e0e386e	0.13888714
183	0xbca1cffd	-0.019752497
184	0x3d2b6df0	0.04185289
185	0x3dd37851	0.10325683
186	0xbdd1a9b2	-0.10237445
187	0xbda2d095	-0.0794994
188	0xbe3c12e1	-0.18366577
189	0x3e23ae6b	0.15984504
190	0xbd98985d	-0.07450936
191	0x3e2395ab	0.15975063
192	0xbed0fe3c	-0.40818965
193	0xbf25c064	-0.6474669
194	0x3f37470a	0.7159277
195	0xbf326cd3	-0.696973
196	0xbec2596a	-0.37958843
197	0xbd07be47	-0.033140447
198	0xbdb077f9	-0.08616633
199	0xbc721f27	-0.014777935
200	0xbdd5fe6d	-0.104489185
201	0xbeee964b	-0.4659904
202	0x3d8e1791	0.06938089
203	0xbebca50c	-0.3684467
204	0x3c83a5fe	0.016070362
205	0x3dd67613	0.104717396
206	0xbded1423	-0.115761064
207	0x3de4f563	0.11179616
208	0xbce41fa5	-0.02784712
209	0xbc99fcb4	-0.018797256
210	0x3e41112e	0.1885421
211	0x3e474a93	0.19462042
212	0xbe213089	-0.15741171
213	0x3e5e60b9	0.21716584
214	0x3e7f04ab	0.24904124
215	0xbdd4c0de	-0.10388349
216	0xbde875aa	-0.11350568
217	0xbdd601ee	-0.10449587
218	0xbea43a82	-0.32075888
219	0xbf5d49ca	-0.8644072
220	0x3e9f9f88	0.311764
221	0x3daca48d	0.08429823
222	0x3dd8b6f9	0.10581774
223	0xbe9193ff	-0.28433225
224	0x3e2a2ab2	0.1661785
225	0xbd51c4c5	-0.051213045
226	0x3d238679	0.039923165
227	0xbcaef015	-0.021354714
228	0xbe6f5b99	-0.23374785
229	0x3d8ee7fe	0.06977843
230	0xbbb99e62	-0.0056646327
231	0x3ea79e4d	0.3273796
232	0xbd2ad275	-0.041704614
233	0x3ea06102	0.3132401
234	0x3ea9e17c	0.33179843
235	0x3d2824fa	0.04105089
236	0xbd2b8fc9	-0.04188517
237	0x3e59b80f	0.21261619
238	0xbbd579a5	-0.0065147453
239	0xbd48ec96	-0.04905375
240	0xbcf96d9b	-0.030447772
241	0x3da6f70c	0.08152589
242	0xbc175e12	-0.009238737
243	0xbf47f931	-0.7811461
244	0x3e4e8913	0.20169477
245	0x3e5fe1f3	0.21863537
246	0x3b98598f	0.004649348
247	0x3cbdef2a	0.023185331
248	0xbdb4d2ae	-0.088292465
249	0xbf064113	-0.52443045
250	0xbda45171	-0.08023346
251	0xbdda7e8b	-0.106686674
252	0x3da4c589	0.08045489
253	0xbdf1ce54	-0.11806932
254	0xbded2f95	-0.11581341
255	0x3e2bce00	0.16777802

net.0.bias f4 [64]
0	0x3e13b9e2	0.14426377
1	0xbe6937ea	-0.22775236
2	0xbd9b6565	-0.07587699
3	0x3d47580a	0.048667945
4	0xbe0ceee9	-0.13763012
5	0x3dddb9f2	0.10826482
6	0xbd061557	-0.032735195
7	0x3e57a6da	0.21059743
8	0xbc917006	-0.017753612
9	0x3e69d370	0.22834563
10	0x3d79be88	0.06097272
11	0x3e93bb8a	0.28854018
12	0x3da1e05a	0.0790412
13	0x3e25d1bc	0.16193289
14	0xbcc3d030	-0.023902982
15	0xbe0d4a09	-0.13797773
16	0x3e77de71	0.24205948
17	0x3e09fd94	0.13475639
18	0xbd4eba0c	-0.050470397
19	0x3e0e8b42	0.1392031
20	0x3e05d736	0.13070378
21	0x3d426158	0.047456115
22	0x3db0c627	0.086315446
23	0x3e8a5ed0	0.2702546
24	0xbc86bc51	-0.016447218
25	0x3e43332f	0.19062494
26	0x3d656f5a	0.056014396
27	0xbe3a98ee	-0.182224
28	0xbdda0d4e	-0.10647069
29	0x3db28cb0	0.0871824
30	0x3e65b073	0.22430591
31	0x3e5c1f63	0.21496348
32	0x3e697823	0.22799735
33	0x3e79f333	0.2440918
34	0x3d524f14	0.051344946
35	0xbdc279e8	-0.09495908
36	0xbe34160c	-0.17586535
37	0x3cfce8e0	0.030872762
38	0xbc180e26	-0.009280717
39	0x3e9abb62	0.30221087
40	0x3b8a08ad	0.00421246
41	0xbc256cc1	-0.01009673
42	0x3e60239c	0.21888584
43	0x3e4c3dac	0.19945401
44	0x3ccf6a74	0.025319315
45	0x3dada506	0.08478741
46	0xbd7ffaeb	-0.062495153
47	0xbe5bfdf3	-0.21483593
48	0x3c4dfc59	0.012572371
49	0x3e2bf6fb	0.16793434
50	0x3e9e74f5	0.30948606
51	0x3ddfd953	0.10930123
52	0x3e704513	0.2346385
53	0xbe12ebea	-0.14347807
54	0x3d748ef2	0.059706636
55	0x3e496eda	0.19671193
56	0x3cb8151f	0.022471009
57	0x3daed6c7	0.08537059
58	0xbe1bfac7	-0.15232383
59	0x3e251e1b	0.16124766
60	0x3e15356d	0.14571162
61	0x3e5bd25a	0.21466962
62	0x3d8d2ad8	0.068929374
63	0xbcddef14	-0.02709154

net.2.weight f4 [64, 64]
0	0x3d26829c	0.040651903
1	0x3e491fea	0.1964108
2	0x3df66b9b	0.12032243
3	0x3e0c0b61	0.13676216
4	0x3e32c650	0.17458463
5	0x3e7a0e26	0.2441946
6	0x3ed0e1e4	0.4079734
7	0xbccd0c81	-0.025030376
8	0x3ebb8d0f	0.36631057
9	0x3e3b8cbc	0.18315405
10	0x3dbe780c	0.09300241
11	0x3ddcca06	0.107807204
12	0x3e2c6697	0.1683601
13	0x3e181b8d	0.1485426
14	0x3e55e6a1	0.20888759
15	0x3ea58e44	0.32335103
16	0x3e95ca0c	0.29255712
17	0x3db44c2a	0.0880359
18	0x3e1e0070	0.15429854
19	0x3e007412	0.12544277
20	0x3e0f1568	0.1397301
21	0x3e82af2e	0.25524276
22	0x3d4c16a9	0.049826298
23	0x3d05d72c	0.032675907
24	0x3e27693c	0.16348737
25	0x3e69fdea	0.22850767
26	0x3e238d57	0.15971886
27	0x3f0e6d35	0.55635387
28	0x3f087e07	0.533173
29	0x3d22f74d	0.039786626
30	0x3e1070b4	0.14105493
31	0x3e0b08f6	0.13577637
32	0x3e0afdb9	0.1357335
33	0x3e2239ec	0.15842408
34	0x3ef33998	0.47504878
35	0x3e54b6c5	0.20772846
36	0x3efcb92c	0.49360025
37	0x3e9bc42b	0.30423102
38	0x3e985177	0.29749653
39	0xbbdc14ac	-0.0067163315
40	0x3eb0ef10	0.3455739
41	0x3e30705b	0.1723036
42	0x3d4fe84c	0.050758645
43	0x3ec6a058	0.38794208
44	0x3e439381	0.19099237
45	0xbbfdfab6	-0.0077508343
46	0x3e256149	0.16150393
47	0x3ec01134	0.37513125
48	0x3ea29e06	0.31761187
49	0x3e4a3c1f	0.19749497
50	0x3e18b06a	0.14911047
51	0x3ea01cc0	0.31271935
52	0x3e0e6a1a	0.13907662
53	0x3e06fb26	0.13181743
54	0x3e83664d	0.25663987
55	0x3eadabe4	0.33920205
56	0x3f3d0db2	0.7384902
57	0x3e927dd9	0.2861164
58	0x3dcdfbf3	0.10057821
59	0x3e5d67b5	0.21621592
60	0x3e43558a	0.190756
61	0x3f024741	0.50889975
62	0x3e825e1a	0.2546242
63	0x3ee2486a	0.44195873
64	0x3dec720d	0.11545191
65	0x3e3dc76a	0.18533102
66	0x3e572b1f	0.21012543
67	0x3e795b9c	0.24351352
68	0x3e042766	0.12905654
69	0x3e465775	0.193693
70	0x3ee06ace	0.43831486
71	0x3bd7bac5	0.006583544
72	0x3edac04a	0.4272483
73	0x3e84416c	0.25831163
74	0x3e1f7df3	0.1557539
75	0x3e0a9402	0.13533023
76	0x3e66365d	0.22481675
77	0x3e1cb851	0.15304686
78	0x3e6d84b7	0.23195158
79	0x3e8fdba3	0.28097257
80	0x3e54e3ee	0.20790073
81	0xbca1be9f	-0.019744216
82	0x3e0244ff	0.12721632
83	0x3e2e9162	0.17047647
84	0x3eadd722	0.33953196
85	0x3e04aabc	0.12955755
86	0x3de0537b	0.10953423
87	0x3e20d64d	0.1570675
88	0x3d974a1e	0.073871836
89	0x3ea74ff8	0.326782
90	0x3e9e84ad	0.309606
91	0x3f2f66df	0.68516344
92	0x3ec0fd7a	0.37693387
93	0x3e83b6be	0.2572536
94	0x3d8116bc	0.06303164
95	0x3d121fee	0.03567498
96	0x3e4faf4b	0.20281713
97	0x3dbfc648	0.09363991
98	0x3f2ac1ee	0.66702163
99	0x3e886fe2	0.2664786
100	0x3f11d565	0.5696624
101	0x3e4bf630	0.19918132
102	0x3ed7a978	0.42121482
103	0x3e6c9e4b	0.23107259
104	0x3e877783	0.26458368
105	0x3e400c52	0.187547
106	0x3e197c26	0.14988765
107	0x3ead33fe	0.3382873
108	0x3e3168d3	0.17325144
109	0x3dad23f6	0.08454125
110	0x3e2e83b5	0.1704243
111	0x3e77be46	0.24193677
112	0x3e8ad696	0.2711684
113	0x3dd09386	0.10184388
114	0x3e11d00e	0.14239523
115	0x3e704c60	0.23466635
116	0x3ea50784	0.32232296
117	0x3df69b62	0.12041356
118	0x3e83de0e	0.25755352
119	0x3e2a8413	0.16651945
120	0x3f563f22	0.83690083
121	0x3e3f0be2	0.18656877
122	0x3d0785a8	0.03308645
123	0x3e533699	0.20626296
124	0x3e429801	0.19003297
125	0x3ea816bc	0.32829845
126	0x3e467bac	0.19383115
127	0x3eba1805	0.3634645
128	0x3e201099	0.15631332
129	0x3e508d76	0.20366463
130	0x3d1f7a2b	0.038934868
131	0x3e9bdeed	0.30443516
132	0x3e0b8a62	0.13627008
133	0x3e2cfebd	0.1689405
134	0x3f0d5b4c	0.5521743
135	0x3d1e5ee9	0.038664732
136	0x3eab5c7b	0.33468994
137	0x3e01e17e	0.12683675
138	0x3e0f45de	0.13991496
139	0x3e3b1af4	0.18272
140	0x3e891796	0.26775807
141	0x3e5c6c14	0.21525604
142	0x3bb8ead7	0.0056432295
143	0x3e9f2581	0.310833
144	0x3e412c6d	0.18864603
145	0x3db08057	0.08618229
146	0x3d05ab48	0.03263405
147	0x3e08bb2a	0.13352647
148	0x3e94c4f1	0.29056504
149	0x3dd390ee	0.103303775
150	0x3d969a24	0.07353619
151	0x3e314598	0.17311704
152	0x3e28ad93	0.16472463
153	0x3e4cc9d4	0.19998866
154	0x3e92803e	0.28613466
155	0x3f2df17d	0.67946607
156	0x3ea440fa	0.32080823
157	0x3d67e510	0.056614935
158	0x3e0a2ef6	0.13494477
159	0x3e3bc066	0.18335113
160	0x3e1e04b5	0.15431483
161	0x3d405803	0.046958935
162	0x3eef7eeb	0.46776518
163	0x3e73f31e	0.2382321
164	0x3f1d0a87	0.6134419
165	0x3eb15510	0.3463521
166	0x3e62b5bd	0.2213964
167	0x3e5a26ee	0.21303913
168	0x3eaacb98	0.33358455
169	0xbd0070ee	-0.0313577
170	0x3e59be5f	0.21264027
171	0x3ecc340a	0.39883453
172	0x3df135e9	0.11777861
173	0xbcb83bc5	-0.022489438
174	0x3e4a1f31	0.19738461
175	0x3eaab473	0.33340797
176	0x3ebe7b51	0.37203458
177	0x3df524f9	0.119699426
178	0x3e2741b4	0.16333658
179	0x3eaf6ac9	0.34261158
180	0x3e8a60c3	0.27026948
181	0x3e738114	0.23779708
182	0x3e2de0ff	0.1698036
183	0x3ea1f1ec	0.31629884
184	0x3f4d08d4	0.80091596
185	0x3dfd4f02	0.12368585
186	0x3e81ee30	0.25377035
187	0x3e0d4057	0.13794075
188	0x3e2ed50c	0.17073458
189	0x3f0172dd	0.5056589
190	0x3de2a3b8	0.11066383
191	0x3e8ec2c0	0.27882957
192	0xbcfdf121	-0.030998768
193	0x3dbe75fa	0.09299846
194	0xbdcd0fd1	-0.10012782
195	0x3cb13ce3	0.021635478
196	0xbded00ad	-0.115723945
197	0x3d3c0aee	0.04590886
198	0x3dad66b8	0.08466858
199	0xbd527a0e	-0.05138593
200	0xbdeecc00	-0.11660004
201	0xbe1d4df5	-0.1536177
202	0xbda8e267	-0.08246308
203	0xbd549b1b	-0.051905733
204	0xbd95735a	-0.07297392
205	0x3d409486	0.047016643
206	0xbcc7f06e	-0.024406638
207	0xbdd7a84e	-0.105301484
208	0xbd3cab59	-0.046061847
209	0xbe02faae	-0.12790939
210	0x3cfc1b97	0.030774875
211	0xbc5f2d23	-0.013621601
212	0x3dc529d7	0.09627121
213	0x3d786d81	0.060651306
214	0xbda15d06	-0.07879071
215	0x3d9fd444	0.07804158
216	0xbe00eb29	-0.12589706
217	0xbe0a4bef	-0.13505529
218	0x3d8bbca9	0.068230934
219	0xbdaa9697	-0.08329504
220	0xbdc4a2e8	-0.096013844
221	0xbe06c889	-0.13162436
222	0xbdd5577f	-0.10417079
223	0xbe1fea03	-0.15616612
224	0x3c2ee70b	0.010675202
225	0xbe2ea0e0	-0.17053556
226	0xbd0f0730	-0.034918964
227	0x3d93d390	0.07218087
228	0xbdece968	-0.11567956
229	0x3d8ccde2	0.068752065
230	0x3db78d67	0.08962517
231	0xbd443dd5	-0.04791053
232	0xbc9f1f9b	-0.01942425
233	0xbe0444c4	-0.12916857
234	0x3d76b44c	0.06023054
235	0x3da56074	0.080750376
236	0xbce8e1d3	-0.028427994
237	0x3d8d1df0	0.06890476
238	0xbde89f16	-0.11358468
239	0xbdcbfdf1	-0.09960545
240	0x3dd3e505	0.103464164
241	0xbe072287	-0.13196765
242	0xbd8a55c6	-0.06754641
243	0xbd921d4d	-0.07134495
244	0xbdfc13f3	-0.123084925
245	0x3c7b2f30	0.015331075
246	0xbd81868c	-0.06324491
247	0x3bac30b2	0.0052548284
248	0xbd3f3300	-0.046679497
249	0x3d168ae5	0.036753554
250	0x3bea8a5e	0.007157608
251	0xbe04db6f	-0.12974332
252	0x3d94be7a	0.07262893
253	0x3d6d51c4	0.057939306
254	0xbde50406	-0.11182408
255	0x3cef1f03	0.029189592

net.2.bias f4 [64]
0	0x3ea4dd95	0.32200304
1	0x3e1ce4eb	0.153217
2	0x3e38d80d	0.18051167
3	0x3da4a0c3	0.08038475
4	0x3d2ad9cc	0.041711614
5	0xbe8e5558	-0.27799487
6	0xbd8de95e	-0.06929277
7	0x3e991e9e	0.29906172
8	0x3e9aff36	0.30272835
9	0x3e3fda41	0.18735601
10	0x3e8d23d6	0.27566403
11	0x3c5ef178	0.013607375
12	0xbe05ba18	-0.1305927
13	0x3e288ae1	0.16459228
14	0x3e97c432	0.29641873
15	0xbe3e3a2a	-0.18576875
16	0x3e9b6054	0.3034693
17	0x3e27bfe8	0.163818
18	0x3e6c8bf1	0.23100258
19	0xbe28f3af	-0.16499208
20	0x3d92b936	0.071642324
21	0x3e997cf7	0.29978153
22	0x3da92606	0.082592055
23	0x3e254b00	0.16141891
24	0x3ebbd3c1	0.36684993
25	0xbe1c31c0	-0.15253353
26	0x3eac0d03	0.33603677
27	0x3ea5febb	0.32420906
28	0xbe9ff389	-0.3124049
29	0xbd099185	-0.033586044
30	0x3da45488	0.080239356
31	0x3eafa604	0.34306347
32	0xbe4ec279	-0.20191373
33	0x3da10d06	0.07863812
34	0xbd3e1fe8	-0.046417147
35	0x3e8fb5b4	0.28068316
36	0x3e4a888c	0.19778651
37	0x3e45dfb5	0.19323619
38	0x3d99d82c	0.07511935
39	0xbe1c0d2f	-0.15239404
40	0x3e8fea39	0.28108385
41	0x3eb93733	0.36174926
42	0x3d2ad9e9	0.04171172
43	0x3e77339e	0.24140784
44	0xbd814380	-0.06311703
45	0x3ea97636	0.33098
46	0xbe004640	-0.12526798
47	0xbce4338e	-0.027856614
48	0xbe6423ff	-0.22279356
49	0x3e0a0d15	0.13481553
50	0x3e5edd02	0.21763995
51	0xbe976430	-0.29568624
52	0x3d655f32	0.05599899
53	0x3e7cac77	0.24675165
54	0x3e4e14c1	0.20125104
55	0xbde51cdd	-0.11187146
56	0x3e9f1319	0.31069258
57	0xbe3199cf	-0.1734383
58	0x3e87d36c	0.2652849
59	0x3d950cc7	0.07277828
60	0xbc0f9a7a	-0.008764857
61	0x3eabcb46	0.33553523
62	0x3e53d879	0.20688047
63	0x3d05954c	0.032613084

net.4.weight f4 [1, 64]
0	0xbe88a617	-0.26689216
1	0xbe92694e	-0.28595966
2	0xbeaaa43d	-0.3332843
3	0x3d0c40d7	0.034241524
4	0x3f22f562	0.63655674
5	0x3e782c1a	0.24235573
6	0x3d45365d	0.048147548
7	0xbe8f402e	-0.27978653
8	0xbea79e77	-0.32738087
9	0xbe54132b	-0.20710437
10	0xbe7dc735	-0.24783023
11	0x3ed5dde9	0.41770867
12	0x3e397511	0.18111064
13	0xbe7d70d9	-0.24750079
14	0xbe99723c	-0.29969966
15	0x3e734314	0.23756057
16	0xbe878fca	-0.2647689
17	0xbe3e88c3	-0.18606858
18	0xbe9358e6	-0.28778762
19	0x3ea3ea5b	0.32014737
20	0x3d719282	0.05897761
21	0xbe9b9fe9	-0.3039544
22	0x3baafe86	0.00521833
23	0xbe88f337	-0.26748058
24	0xbe7d252b	-0.2472121
25	0x3f028e8c	0.5099876
26	0xbe7d913d	-0.24762435
27	0xbe7a0bec	-0.2441861
28	0x3f05a97b	0.5221173
29	0x3e8cc376	0.27492875
30	0x3d59072e	0.052985363
31	0xbe8c532e	-0.2740721
32	0x3e30440b	0.17213456
33	0x3d23ff06	0.04003813
34	0xbd941cc6	-0.072320506
35	0xbea0af37	-0.31383678
36	0xbe95b259	-0.2923763
37	0xbec5f10e	-0.38660473
38	0x3c24f956	0.010069212
39	0x3ea10a7d	0.31453314
40	0xbe8f46f0	-0.2798381
41	0xbebd3746	-0.36956233
42	0x3d4f8a3c	0.05066894
43	0xbeb781d4	-0.35841238
44	0x3e830853	0.25592288
45	0xbe795f31	-0.24352719
46	0x3d783387	0.060596015
47	0x3dbc411c	0.09192106
48	0x3edd8a54	0.43269598
49	0xbeaf9c27	-0.34298822
50	0xbe9a7919	-0.30170515
51	0x3eae3b98	0.3402984
52	0x3f0ef230	0.558383
53	0xbe9542c8	-0.29152513
54	0xbea1060f	-0.31449935
55	0x3ea83b2a	0.3285764
56	0xbe7e609b	-0.2484154
57	0x3ee2a8d4	0.4426943
58	0xbe93ca5e	-0.2886533
59	0x3dce5647	0.1007505
60	0x3d3496db	0.04408918
61	0xbe869c68	-0.26291203
62	0xbea164ce	-0.3152222
63	0x3f1745ab	0.5909068
