results/ppo_BipedalWalker-v3_20250602_205845/ppo_actor_step_200000.pth (torch, 28456 bytes, 8 tensors)

net.0.weight f4 [64, 24]
000000 a9 16 00 3d c7 8f 95 3d bc 34 00 be e3 a2 25 be
       0.03127161 0.07302814 -0.12520117 -0.16175418
000010 ed 3a 47 be cb 4b 5a 3d 5f 9c 78 bd 8b 89 40 3e
       -0.19456072 0.053294938 -0.060696002 0.18802468
000020 25 1e 54 3d 95 e2 fe 3d 0a e8 e1 bc 15 15 ea 3c
       0.05178656 0.12445561 -0.027576465 0.028574506
000030 78 5c 87 be 30 d7 b6 bd 6f c5 43 bd dd c5 33 3d
       -0.26437736 -0.089277625 -0.04779571 0.04388987
000040 4a a3 ef 3d 80 9d 22 3e a0 f5 d0 bd ac f6 56 bd
       0.11701067 0.15880394 -0.10203099 -0.05248134
000050 f3 aa e2 3d 54 22 53 3e e7 d9 95 3b 55 98 64 3e
       0.11067762 0.20618564 0.004573095 0.22323735
000060 7b ef 8c bd 10 08 c6 bc 7d 6d 6b 3e 98 d8 39 be
       -0.06881615 -0.024173766 0.22990985 -0.1814903
000070 d1 b6 52 be 94 39 2c bd f3 ee c7 bd a0 63 37 3e
       -0.20577551 -0.0420471 -0.09762373 0.17909098
000080 5c 51 0b be 29 a0 bc bd 76 e7 fb bd d2 4e 0d be
       -0.13605255 -0.092102356 -0.12300007 -0.13799599
000090 27 d2 b4 bd 3e 4d 2b 3e 19 d1 8c 3d d3 da 9c 3d
       -0.08829146 0.16728684 0.0687582 0.07658925
0000a0 0a 1d 3e bc 00 0a 02 be 18 84 47 3c e0 05 5a be
       -0.011603603 -0.12699127 0.01217749 -0.21291304
0000b0 64 c9 2d be 62 8a 02 be c4 c3 e4 3d 71 32 f8 3d
       -0.16971356 -0.12748101 0.11170152 0.12118996
0000c0 ec 87 2e be f9 85 c7 bd 13 c7 59 3e 69 13 59 3e
       -0.17044038 -0.0974235 0.21267347 0.2119881
0000d0 78 7c e5 bb 4f 8d 41 bc 85 6a ce 3d 5f 4b 89 bd
       -0.007003363 -0.011813476 0.10078911 -0.06703829
0000e0 db cf 61 3c fe 8f 47 be a4 01 20 be 6e c8 92 bd
       0.013782467 -0.19488522 -0.15625626 -0.07167135
0000f0 36 6f 00 3e 90 a9 39 3d 8d 75 33 be 2e 7a ef 3b
       0.12542424 0.045327723 -0.17525311 0.007308266
000100 6b 48 6c 3d 57 26 a4 bd e2 e2 3e bd 7c 41 e8 bb
       0.05768625 -0.08015125 -0.04660309 -0.0070878845
000110 8e 0b 94 3d db 0c 11 3e d3 b5 56 be 62 4e f3 bd
       0.072287664 0.1416506 -0.20967798 -0.11880185
000120 a6 f9 4d 3d 3b 1a 32 3e 2c 71 4e 3e b8 9e ea 3d
       0.05028691 0.17392819 0.20160359 0.114560544
000130 e5 9f 91 3d 67 3d 27 be 9b 1b 80 3c 89 f3 1a be
       0.071105756 -0.16332017 0.015638163 -0.15131964
000140 04 99 80 be 5c 92 60 3e 19 e1 12 3e d2 e3 3d be
       -0.25116742 0.21930832 0.1434368 -0.18543938
000150 de 1e 57 3c 2e b3 d5 3c b8 d4 99 3c b1 34 28 bd
       0.013129918 0.026086416 0.01877819 -0.041065875
000160 b0 04 06 3e 1e 5b 8c bd a9 3d 02 3e 35 4f 1f 3e
       0.13087726 -0.06853317 0.12718834 0.15557559
000170 f4 3b 4b 3e 0d 97 03 3e 5d 5b 20 be 0a 75 cc bd
       0.19847089 0.1285059 -0.15659852 -0.09983261
000180 f9 70 d2 3d b0 47 55 3c 63 f2 07 be ad 77 da bd
       0.10275454 0.01301758 -0.13276057 -0.106673576
000190 6a 13 1a 3e 79 5b 2a 3e a4 f3 c7 bd 46 ba 0a bd
       0.15046468 0.16636457 -0.09763268 -0.03386905
0001a0 6d 85 1f be 82 c4 e1 3c c3 68 c9 bd 6f 7c 9b bd
       -0.15578242 0.027559523 -0.09834435 -0.07592093
0001b0 93 76 0c be 1e 3b 8c 3c 9a ed 75 bd 46 2a 14 3e
       -0.13717107 0.017118033 -0.060041048 0.14469251
0001c0 38 1d ce bd 14 d5 55 3e 75 74 27 3e d4 05 18 be
       -0.10064167 0.20882064 0.16353019 -0.14845973
0001d0 6d 4f dd bc 34 b9 07 3d 9b 1d 72 3d e8 0f c2 3d
       -0.027015412 0.033135608 0.059110265 0.0947569
0001e0 8d d7 9c 3d bf 73 ac bc 44 75 96 bd a4 0a bf 3d
       0.076583005 -0.021051286 -0.073465854 0.093282014
0001f0 48 0e 82 be 5c c3 c0 bd 28 33 a7 bd c2 09 99 bd
       -0.2540152 -0.09412262 -0.08164054 -0.07472564
000200 06 fd 96 bd 74 ab 10 be ba 0b d2 3c de d0 d3 3d
       -0.07372479 -0.14127904 0.025640357 0.10342573
000210 2e 3f 64 be 1c 44 30 3c a0 c2 0f 3e df c7 da bc
       -0.22289726 0.010758426 0.14039087 -0.026706634
000220 61 9f 49 b8 13 fe be bc 57 e8 11 3d f2 2d fe 3d
       -4.8070568e-05 -0.023314511 0.035621967 0.12411107
000230 6b 44 40 3e 49 49 fe 3d 14 95 4a 3e 35 eb 18 3c
       0.187761 0.12416322 0.19783431 0.0093334215
000240 0f e1 59 be fa a0 15 be 4d df 4e 3e 12 c5 cf bc
       -0.2127726 -0.14612189 0.2020237 -0.025362525
000250 b0 57 29 be aa 67 54 be 22 6e 4a be bd a6 16 be
       -0.16537356 -0.2074267 -0.19768575 -0.14712043
000260 a6 9a 22 bc 60 40 a6 3d 0d 90 cf 3d 5e 35 4a be
       -0.009924566 0.08117747 0.101348974 -0.1974692
000270 25 49 1b 3e 48 67 0e be c9 71 f2 bc 44 ca 8d bd
       0.15164621 -0.13906586 -0.029595273 -0.06923345
000280 f1 0b d3 bc 51 01 d9 bc b7 9c 2d be e5 7a 26 be
       -0.02576253 -0.026489886 -0.16954313 -0.16257818
000290 b9 8c 95 bc 5d 3a 84 3c 17 5c 9f bd aa 71 de 3d
       -0.018255578 0.016141111 -0.077812366 0.108615234
0002a0 f7 da 2e be da 4a 46 bd 76 cb 60 3e 19 19 c9 bd
       -0.17075716 -0.048411228 0.21952614 -0.0981924
0002b0 af 7f c1 3d 93 ac 3f 3d 29 7c 58 be 37 d1 34 3e
       0.09448182 0.04679544 -0.21141113 0.17657934
0002c0 1f 8e d9 3c 2d e3 27 bd 88 08 5e 3e 28 96 9a bd
       0.026557026 -0.040988136 0.21682942 -0.07548171
0002d0 d0 70 8b bd 74 35 bf bc 17 e7 39 3e 42 fc bd 3d
       -0.06808627 -0.023340918 0.1815456 0.0927663
0002e0 a2 17 09 3e 2f 00 dd 3d d8 df 58 bc ab 55 e7 bb
       0.13387921 0.10791051 -0.013236962 -0.007059773
0002f0 7b 68 07 be f4 46 16 3e 7a 26 53 3e 61 4f 4f 3e
       -0.1322345 0.14675504 0.20620146 0.20245124
000300 06 4c b7 bd 85 19 2e bd 88 af a4 bd 10 d7 13 be
       -0.08950047 -0.042504806 -0.080412924 -0.14437509
000310 95 48 6b be e9 2a a4 3d 95 8a 2d be 8f cc a9 3c
       -0.22976907 0.08015997 -0.16947396 0.020727424
000320 ad 53 97 3d 37 eb 56 3e 9c d7 d9 bd cd 15 12 bd
       0.07389007 0.20988165 -0.10636827 -0.035665322
000330 fc f8 5e be 66 de 6d 3e 05 f4 4f 3c e3 38 84 3e
       -0.21774668 0.2322937 0.012692456 0.2582465
000340 ca b8 23 3e a5 49 e5 3d d4 56 ad 3d 07 ba 3b 3d
       0.1598846 0.11195687 0.08463827 0.045831706
000350 71 25 e5 3d 22 23 23 3d f8 2e c8 3d 24 b8 15 3e
       0.11188782 0.039828427 0.097745836 0.14621025
000360 14 79 22 be c9 a6 1b be 29 6c 46 3e 18 ac 30 be
       -0.158665 -0.15200342 0.19377197 -0.17253149
000370 71 68 9c bd df a1 74 3e 4a b0 62 3d 2e 2b 65 3c
       -0.07637108 0.23889874 0.055343904 0.013987346
000380 e2 a2 d2 bd 6b df 25 3e 92 73 03 be 64 dd 15 3d
       -0.10284974 0.16198508 -0.12837055 0.036588088
000390 9c f4 35 be 80 5b 0f bd fc 50 08 3d 0d 34 4c 3e
       -0.17769092 -0.03499937 0.033280358 0.19941731
0003a0 5a 82 67 3d 26 fd 5a 3e 23 a3 1f 3e 60 b9 c8 bd
       0.056520797 0.21385631 0.15589575 -0.098009825
0003b0 f6 3d fb 3d 7b 81 e7 bd 7c b8 3d bd 5a 3f f4 3d
       0.122676775 -0.11303993 -0.046318516 0.11926146
0003c0 3d ec f1 3c ea 68 b5 3d 17 7a 6d bc 18 ca d3 3b
       0.029531593 0.088579014 -0.0144944405 0.0064633004
0003d0 a5 72 74 3d 60 eb 19 be 43 dc b8 3d 71 22 d1 bd
       0.059679646 -0.15031195 0.090263866 -0.10211647
0003e0 d3 37 90 bd 39 39 b3 bc 43 91 13 3b 9b cc 07 3d
       -0.070418976 -0.021877872 0.0022517003 0.03315411
0003f0 ef cf 9e 3d 58 b5 b0 bd 7c 43 65 be 07 81 36 be
       0.07754504 -0.086283386 -0.22389024 -0.17822658

net.0.bias f4 [64]
000000 27 12 47 3b 9f 24 8d 3d 00 f5 4b 3d d2 57 cd 3c
       0.003037581 0.068917505 0.049794197 0.02506629
000010 f0 71 76 3e 28 6c f2 bd 9b 48 e2 3d 20 2e 7b 3e
       0.24066901 -0.118370354 0.11049005 0.24529314
000020 dc c7 ac 3d 4d 5d 62 3e c7 f1 c3 bd 54 59 07 be
       0.08436558 0.22105904 -0.095676 -0.1321767
000030 ab 3c 03 be cf 3e f0 3d 1c fb 27 bc f8 3a 04 3e
       -0.12816112 0.1173073 -0.01025274 0.1291312
000040 27 cd 8e 3e a4 52 fa 3d 5b 2a 55 3d 79 86 0d 3e
       0.27890894 0.12222794 0.052042346 0.13820828
000050 8a df d2 bd ba 61 06 be 07 d4 87 bd 55 f9 11 be
       -0.10296543 -0.13123217 -0.06632238 -0.14255269
000060 1b fa d4 3d 71 58 21 3d d4 3c c9 bb b8 43 4b be
       0.10399266 0.039390985 -0.0061412845 -0.19850051
000070 21 db c3 3d 5e aa 21 bd b2 f8 5e 3c 3a e0 0d be
       0.0956328 -0.039469115 0.013609098 -0.13855067
000080 30 6f dc bc 88 1b cc 3d 92 39 5e be ff 9e a4 bd
       -0.026908487 0.09966189 -0.21701649 -0.080381386
000090 78 f2 9c 3d f9 2c 2e be 38 08 5e bd 6a 96 21 bd
       0.07663435 -0.17009343 -0.054207057 -0.039450087
0000a0 08 fa 2a 3e d0 61 1a be 09 e5 fa 3c 34 64 32 3e
       0.16696942 -0.15076375 0.03062679 0.17421037
0000b0 a3 5d 8d bd f8 94 7d bc b0 36 2d be 53 50 e1 3d
       -0.069026254 -0.015477411 -0.16915393 0.11001649
0000c0 91 ff 3f 3e 68 b5 a4 bc a7 a5 58 be 50 4a 13 3d
       0.18749835 -0.020106032 -0.21156941 0.03595954
0000d0 ba 4f 61 3e 13 fa ee bb a3 70 12 3e d8 31 5a 3d
       0.2200307 -0.0072929948 0.1430078 0.05327019
0000e0 a4 95 35 3c 3b b2 96 3d a2 3a 4f 3e 6a 9d a7 3d
       0.01108304 0.073582135 0.2023721 0.08184321
0000f0 f3 44 7e bd ad 8a d5 3c 56 0a 21 3e 74 92 ec b9
       -0.062077474 0.026067102 0.15726599 -0.00045122544

net.2.weight f4 [64, 64]
000000 b8 d2 a7 bd d4 1a c1 3d 95 07 67 3d f6 b1 9e bd
       -0.08194488 0.09428945 0.056403715 -0.07748787
000010 c3 2c c0 bc 7a f9 2f bd c9 0c 0e 3c d4 96 d7 bc
       -0.023458844 -0.04296253 0.00867004 -0.026317038
000020 54 99 04 be 93 aa 14 bd 14 de 85 3b fc 33 81 bc
       -0.12949115 -0.036295485 0.0040853117 -0.015771858
000030 af 0c ab bd 9d 32 90 3c 87 12 09 be 2b cb e5 bb
       -0.083520286 0.01760226 -0.13385974 -0.007012745
000040 ed d5 06 3d 15 71 98 bd 1d 9f 02 be 43 fd 2e bd
       0.03291886 -0.07443444 -0.1275601 -0.042721998
000050 30 67 97 bc f6 14 fa bd 25 d7 00 be 38 d3 c5 3d
       -0.01848182 -0.12211029 -0.12582071 0.096594274
000060 48 bf 86 3d 19 f3 9c 3d 97 a8 74 3d 06 dd 3f 3c
       0.06579453 0.07663555 0.059731092 0.011710411
000070 a3 b9 78 3d 96 62 d4 3c 82 a7 6b bd a1 c3 1b bd
       0.060723912 0.025925916 -0.057532795 -0.038028363
000080 6e 5b 4b 3d ed c7 2e bc 29 2c f0 bd 66 ce b9 bd
       0.04964774 -0.010667783 -0.11727173 -0.090725705
000090 92 29 55 3d f3 09 b0 3d 14 c0 92 3d a1 f8 75 3c
       0.052041598 0.08595648 0.07165542 0.015012891
0000a0 2a 4d f5 3c 1f 79 f3 bd 7f 88 ce bd c9 1a 17 be
       0.029944021 -0.118883364 -0.10084628 -0.14756311
0000b0 b8 30 c4 3d bc 56 bd bc d9 b0 a4 bd a2 dd b2 3c
       0.09579605 -0.023112647 -0.080415435 0.021834198
0000c0 7b 48 d3 bd eb c5 bc bd 25 ca d2 3c b6 d1 bf 3c
       -0.10316559 -0.09217437 0.025731156 0.023415428
0000d0 4a 76 e7 bd 36 50 e7 bd 0c c8 4c 3d c9 71 81 3d
       -0.11301859 -0.11294596 0.049995467 0.06320531
0000e0 f7 94 0a bd 3a e3 c5 bd db 45 18 3d 95 c1 0d bd
       -0.03383347 -0.09662481 0.037175994 -0.034608442
0000f0 80 00 1b be a1 08 c2 bd 23 72 9c 3c fd 0a 10 3d
       -0.1513691 -0.09474302 0.019097393 0.03516673
000100 61 9b bc bd 16 bd b7 3c bf 5c b6 bd 65 86 b5 3d
       -0.09209324 0.02242903 -0.08904409 0.08863524
000110 b9 ae 3e 3d ef 00 14 bc 5b 70 f9 3c 31 10 1e bb
       0.046553347 -0.009033426 0.030449083 -0.0024118538
000120 00 7f e8 bd ba 83 32 bd 2f 32 a7 3b 04 8c 81 bd
       -0.11352348 -0.043582655 0.005102418 -0.06325534
000130 fc 74 c1 3d 7c 8e 8c bd d2 24 2c be 3d 6a 9d bd
       0.09446141 -0.06863114 -0.16810921 -0.07686279
000140 60 09 15 be 2a 39 91 3d 6e 35 c3 bd ba ca 03 be
       -0.14554358 0.07090981 -0.09531675 -0.12870303
000150 2a 4a 55 bc 95 d7 07 be e9 d0 a3 bd 1b 72 da 3c
       -0.01301817 -0.13265832 -0.07998831 0.026665738
000160 e5 9c 06 be d8 c7 ac 3d bb 18 21 3d 93 82 19 3b
       -0.13145788 0.08436555 0.039330225 0.0023423776
000170 94 86 01 3d 8b 7f f2 bd 09 0b 80 3d cf b7 b3 3d
       0.031622484 -0.11840733 0.06252105 0.08775293
000180 00 44 ba bc 31 a6 87 3d 05 a2 06 be 77 31 00 bd
       -0.022737503 0.06623495 -0.13147743 -0.031297173
000190 e7 c3 15 bb a9 3a 07 be 50 68 2a 3d 4e 94 8a bd
       -0.0022852363 -0.13205971 0.041603386 -0.06766568
0001a0 fa 32 94 bd 79 d0 b1 bd ae 58 25 3d 25 b0 06 be
       -0.072362855 -0.08682341 0.040367775 -0.13153131
0001b0 55 92 65 bd 43 1f 50 3c 4c db c0 3d f2 a9 b6 bc
       -0.056047756 0.012702766 0.094168276 -0.022297833
0001c0 90 63 25 bd 4d 1e a9 bd e3 4d 4d 3d b6 69 40 ba
       -0.040378153 -0.082577325 0.050123107 -0.0007339971
0001d0 44 37 80 3d 9e 15 44 3d e5 54 5e 3d cd bf f6 bd
       0.06260541 0.04787218 0.05428018 -0.12048302
0001e0 f2 ff 85 3d 2d fc 95 bd 90 19 80 bd e0 eb 41 bd
       0.06542958 -0.07323489 -0.06254876 -0.04734409
0001f0 4a 7b 0d bd 68 17 d1 bb a2 cd 8d 3d a9 45 ca bd
       -0.034541406 -0.006380964 0.06923987 -0.09876568
000200 57 4b ab 3c e5 e8 c8 bd 7a b5 2a 3c c5 9b de 3d
       0.020909948 -0.09810046 0.010419244 0.108695544
000210 0d e6 58 3d 52 55 a0 3d ab 81 85 3d fe 83 b6 bc
       0.05295377 0.078287736 0.06518873 -0.022279736
000220 13 b6 a4 3b 31 85 c7 bd 3b 6d bf 3d dc 1d cb 3c
       0.0050265878 -0.09742201 0.09347006 0.024794511
000230 be 76 ea bd 38 1b 64 3d 3c f9 28 bd ba 6e 30 bd
       -0.114484295 0.05569002 -0.041253313 -0.043074347
000240 d4 3b bf bd 02 5d c3 bd 5a 52 af bc a0 5f b4 bd
       -0.09337583 -0.09539224 -0.021401573 -0.088073015
000250 ea 06 05 be 72 89 f1 bd 6d 09 ad bd 02 4b a0 3d
       -0.12990919 -0.11793794 -0.084490635 0.078268066
000260 c2 82 4c 3d 4d 1a 9b bd ba e7 9f bc 61 ee 09 bd
       0.049929388 -0.07573376 -0.019519676 -0.0336746
000270 70 a9 aa bd a4 16 91 bd 00 f7 c9 bd 59 d0 1e 3d
       -0.08333099 -0.070843965 -0.09861565 0.038772915
000280 83 cf 9b bd bf ef 1c 3b a4 d0 af bd b1 9a 66 bd
       -0.07607939 0.002394661 -0.08584717 -0.05629987
000290 7e c2 97 3d 55 0f bd bd 50 b6 6f bd 94 bf ac 3d
       0.07410143 -0.0923144 -0.058523476 0.08434978
0002a0 dd 87 a5 bb 82 35 33 bd cb f0 ce bd a4 cc ce bd
       -0.0050515966 -0.0437522 -0.10104521 -0.10097626
0002b0 7c 07 45 bd fc 77 34 3d 53 72 a5 bc c0 64 8f 3d
       -0.04810284 0.04405974 -0.020196116 0.070016384
0002c0 c8 d5 18 be bc 8f 88 bd f7 aa 00 bc 71 50 bc 3d
       -0.14925301 -0.0666804 -0.007853261 0.091950305
0002d0 cd d0 bf 3d d6 e6 80 3d 96 6b 87 3b f9 59 bd bd
       0.093659975 0.062940285 0.0041326983 -0.092456765
0002e0 36 96 3b 3d e6 da 0d be 40 ba 81 bd ce 89 3e be
       0.04579755 -0.13853034 -0.063343525 -0.18607256
0002f0 28 a3 74 be 90 1d 8e 3d af c0 8f bc 8d e4 22 3d
       -0.23890364 0.06939232 -0.017547933 0.039768744
000300 d0 0f 98 3d 85 30 68 3d 54 0d 4d 3d 37 ab bf bd
       0.07424891 0.056686897 0.05006154 -0.093588285
000310 78 23 f8 3c ec cf 23 3d b2 69 02 3d 08 ee 93 bc
       0.03029035 0.03999321 0.03183908 -0.018057838
000320 a3 10 d8 bc 6b f0 20 bd 60 1c da bd 61 c7 ed bb
       -0.02637512 -0.03929178 -0.10649943 -0.007256434
000330 78 e7 be bd 47 95 53 3d 66 36 f0 bd a5 48 9d bd
       -0.09321493 0.051656034 -0.11729126 -0.076798715
000340 95 2e b3 bd 52 64 b1 3d bc 8a ed bd 41 d1 9c 3c
       -0.08749119 0.08661713 -0.11598727 0.019142749
000350 ec bf 7d 3d 12 0e 87 3d 3e 12 08 3d f6 60 46 3d
       0.06195061 0.065944806 0.033220522 0.048432313
000360 d3 d8 a8 3d 97 d6 21 3c 5d a7 37 3c cc 1e d7 bd
       0.08244481 0.009877822 0.011209336 -0.10503921
000370 f0 60 ed bc 46 b1 e8 bc 8d 15 96 bc 5f f2 aa bd
       -0.028976887 -0.028404843 -0.018320823 -0.0834701
000380 6c 5a 01 be 7d d7 70 bd 20 16 23 3d 74 a1 d0 3d
       -0.1263215 -0.058799256 0.039816022 0.10187045
000390 c1 e8 10 be a1 df 35 3d 09 c5 0b be b6 be 11 be
       -0.14151289 0.044402722 -0.13649382 -0.14232907
0003a0 5e 59 f9 bd 2d e3 16 bd c4 fb 14 3d 91 46 09 be
       -0.121752486 -0.036837745 0.036372915 -0.13405825
0003b0 6d 26 b2 3d ea 7a bf 3d 00 03 fc 3b 36 40 82 3d
       0.086987354 0.09349616 0.0076907873 0.063599035
0003c0 4c 27 ae bd 8f 5a 9c bd dd a9 0a bd e2 89 59 3c
       -0.08503589 -0.0763446 -0.0338534 0.013277503
0003d0 38 7d dc bd 02 9e ab bd 7c ae 02 3d 50 1e 0b 3d
       -0.10766071 -0.08379747 0.031904683 0.033964455
0003e0 be 75 a8 3d 9d b5 a1 bd c4 8d dd 3c c7 50 c6 bd
       0.082255825 -0.07895968 0.027045138 -0.09683376
0003f0 ef 29 45 3d 1c 5b c8 bc fa 1a 92 3d ca 26 26 3d
       0.048135694 -0.024457507 0.071340516 0.040564336

net.2.bias f4 [64]
000000 d5 c6 31 3d c9 fe 5b 3c 8f bd cd bc 1c 3f 85 3d
       0.04340251 0.013427445 -0.025114803 0.06506178
000010 10 69 7b bd 2a f9 fa bd 46 ce 28 bd e7 e8 37 3e
       -0.061379492 -0.122545555 -0.041212343 0.17959939
000020 58 b5 40 3d e9 b2 82 bd b8 5f cd 3c 24 98 71 bd
       0.047047943 -0.06381781 0.025070056 -0.058982983
000030 67 98 f0 3d 5f 10 b4 bd 8d 55 ea bb 10 8e 0c bd
       0.117478184 -0.08792185 -0.0071513117 -0.03431517
000040 70 1b 69 3d 2b db 22 3d 57 62 85 bd b2 3d f4 3b
       0.056910932 0.039759796 -0.065128975 0.0074536437
000050 cb bd af 3b cd 8e 84 3d d2 b6 e2 3c e7 a7 17 3e
       0.0053632013 0.064725496 0.027675066 0.14810143
000060 34 01 9f 3b b8 75 10 be d3 0b e3 bd 0f ee 28 bd
       0.0048524383 -0.14107406 -0.1108624 -0.041242655
000070 52 ad 38 bd 9d 46 a1 3d f6 5d 6e 3d 00 74 70 b9
       -0.045087166 0.078747965 0.058195077 -0.00022931397
000080 28 e9 e3 3c b6 fa 03 3e 1f 48 c7 3d 0d 13 2d 3c
       0.027821139 0.12888607 0.09730553 0.010563624
000090 5e 4c 9a bd b5 4f b5 bd 61 80 3d 3d 9d de de 3d
       -0.07534097 -0.088530935 0.04626501 0.10882304
0000a0 5f 5a 3a 3d 9c 0a 8a 3d 87 8d 0a 3c ff 06 a6 bd
       0.04549634 0.06740305 0.008456594 -0.08106803
0000b0 b6 21 cc 3d a0 6e 62 3d a0 de 63 bd e9 9b 07 3d
       0.09967367 0.05528128 -0.055632234 0.033107672
0000c0 d8 52 9d 3d ec 40 80 3a 4e 28 f3 3d d8 a7 57 3d
       0.07681817 0.0009784973 0.11872922 0.052650303
0000d0 ac 52 15 3e 7a 56 5b 3d c4 78 0a be f8 31 4f 3e
       0.14582318 0.053549267 -0.13522631 0.20233905
0000e0 45 b4 d0 3c 8d ca ed 3d 74 8f 3c 3e e6 17 0d be
       0.025476584 0.11610899 0.18414098 -0.13778648
0000f0 16 3a 48 bd d6 dc 57 bb c2 54 ac 3b 01 dd 09 3d
       -0.04888352 -0.0032938025 0.0052591274 0.03365803

mean.weight f4 [4, 64]
000000 5e be d7 bd 4b c3 2c 3d d1 38 c5 bd b1 fd 3a 3d
       -0.105343565 0.042178433 -0.096299775 0.045652095
000010 86 b5 a1 3d 25 55 68 bd 91 e8 11 3d 0c 1d 59 bd
       0.07895951 -0.056721825 0.035622183 -0.053006217
000020 26 cc a4 bd 65 a3 df bc 0d b6 b3 3a 9c 0d 90 3d
       -0.08046751 -0.027299592 0.0013710872 0.07033846
000030 33 79 c7 bd 23 fd 9b 3d 2c c3 95 bd ef 9f de bd
       -0.09739914 0.07616641 -0.07312617 -0.10870349
000040 c0 28 03 be 2b 14 04 be 7d d4 21 bc 71 a8 bd bb
       -0.12808514 -0.12898318 -0.009877321 -0.005787902
000050 d6 87 25 bd b8 1f 99 bd d9 9b c0 3c 96 42 d0 ba
       -0.040412746 -0.07476753 0.023511814 -0.0015888985
000060 44 50 b6 bc f2 7f aa ba 65 80 54 3d 23 7b 86 bd
       -0.02225507 -0.0013008101 0.05188026 -0.06566455
000070 29 b5 9f bd f0 c3 9b bd 37 95 e3 3d 88 33 fd 3c
       -0.077982254 -0.076057315 0.11112445 0.030908361
000080 7b 0c 8b bd 7b 2d 70 3d 59 f3 60 bd 32 b9 01 bd
       -0.0678949 0.058637124 -0.054919574 -0.031670757
000090 f9 7c 56 3c 25 14 bb bc 29 2d bd 3d 3b 47 87 ba
       0.013091319 -0.022836754 0.09237129 -0.0010320911
0000a0 9b 9e 06 3d bb 36 ba bd 1b 71 c2 3c 09 2c c6 bd
       0.0328661 -0.0909247 0.023735574 -0.09676368
0000b0 30 79 9a bd 28 73 9e 3c b6 f4 fb bd a2 d9 21 bd
       -0.07542646 0.01934202 -0.12302534 -0.03951419
0000c0 56 5d 8b bd 44 f8 1b 3d 14 87 05 be 00 69 ab bc
       -0.06804912 0.03807856 -0.1303981 -0.020924091
0000d0 aa 56 7a bd d6 d2 dc 3d 37 94 8d bd a4 be fd bd
       -0.061117806 0.10782401 -0.06913035 -0.123898774
0000e0 68 5c 73 bd 43 1c 26 3d d6 d9 c6 3b 97 51 88 3c
       -0.059414297 0.040554296 0.0060684485 0.016640468
0000f0 2c 72 b6 3b 51 c4 2d 3b bd aa 4e bd 1a a6 c6 bd
       0.0055678096 0.0026514719 -0.050455797 -0.0969965
000100 36 5b 0e be b1 3b 59 3d fb e2 b5 3d 44 cc 90 bd
       -0.13901982 0.05303544 0.08881184 -0.070702106
000110 5a 55 3f bd 38 69 48 3c c9 63 05 bc 53 7c 8c 3d
       -0.046712257 0.012232117 -0.008141466 0.068596505
000120 cc 95 64 bc 8f 47 01 3c 18 3d 17 be 7b 13 39 3d
       -0.01395173 0.007890596 -0.14769399 0.045184594
000130 10 02 3c 3b f4 eb 3d 3d dc 61 a7 3d 0f 68 10 3d
       0.0028687753 0.0463676 0.08172962 0.035255488
000140 99 9e 4f bd 1f f7 9d bb ca c3 86 bd 8d 27 03 3e
       -0.05068836 -0.004820719 -0.065803126 0.12808056
000150 42 41 ee 3d f9 24 b0 bc 4b 81 00 3e ad d5 fa 3d
       0.11633541 -0.021502005 0.12549321 0.12247787
000160 0b 5e be 3d dc 4f 1e 3d c3 2c 44 3d 41 f6 7c bc
       0.09295281 0.03865038 0.04789425 -0.015439571
000170 d6 94 ba 3b b2 9b cb 3d dd 4d b9 bc 00 ca 1f 3d
       0.005694012 0.09941806 -0.022620136 0.039011
000180 f2 a9 66 ba 3a ca c3 3c dc c4 85 3d f0 94 4b 3d
       -0.00087991275 0.02390014 0.065316886 0.049702585
000190 11 9f 7e 3d 3a 0a 1b 3d 4b 99 35 bc fb d7 05 3e
       0.062163416 0.03785155 -0.011083911 0.13070671
0001a0 8d 85 11 3e cf 4d ee 3d 5b 12 10 be b2 00 84 bd
       0.14211102 0.116359346 -0.14069502 -0.06445445
0001b0 81 9a d0 bd 4a 89 01 bd 9c 9b c3 3d f3 a5 e3 bd
       -0.10185719 -0.03162507 0.095511645 -0.11115637
0001c0 66 3b 66 3d 66 d8 c4 bc 62 de b1 bd 70 46 d1 3a
       0.05620899 -0.024028968 -0.08684994 0.0015966427
0001d0 c0 2d 22 bc cf 17 79 bd c0 78 b1 bd a3 7d 94 3d
       -0.009898603 -0.06081372 -0.08665609 0.07250526
0001e0 33 77 ba bb 52 34 ac bc 9c 80 0f bd 43 ec c9 bc
       -0.005690479 -0.021021042 -0.03503476 -0.024648791
0001f0 e8 5d 5a bd ba 92 08 be de 18 42 3d 8c dc 41 3b
       -0.053312212 -0.13337222 0.047386996 0.002958092
000200 08 1a 9a bd 7b b5 25 bd 51 af 04 bd 8a 94 20 bd
       -0.07524496 -0.040456276 -0.032393757 -0.039204158
000210 10 66 f4 3a 16 6f 0b 3e b4 08 80 bc f3 a5 b8 3c
       0.001864614 0.13616595 -0.01562915 0.022540068
000220 74 ee 23 3e 6d 87 a3 3b 08 39 12 bc 10 3c ac 3d
       0.16008931 0.0049905092 -0.00892473 0.084098935
000230 b6 94 4c 3d ba 1f 2e bc e2 30 e9 3d d0 bd 97 bd
       0.04994651 -0.010627681 0.11386277 -0.07409251
000240 c0 c1 79 ba 83 d7 c8 3d ad 91 ec bb 7a c6 16 3c
       -0.0009527467 0.098067306 -0.0072195143 0.009202594
000250 3c 80 f8 3d 9f 99 f5 bc ca a9 c3 bc da 52 ad bc
       0.12133834 -0.029980479 -0.023884673 -0.02115767
000260 47 c2 00 be d4 ef bb bd 40 02 d9 bc 19 c9 eb bd
       -0.12574111 -0.09176603 -0.02649033 -0.11512966
000270 6a 6e b8 bc 39 22 c1 3c 29 f8 ce 3d 06 6d fc 3d
       -0.022513587 0.023575889 0.101059265 0.12325482
000280 7b 87 48 3e a0 5d b5 3d 25 a6 d9 3d ec 13 d8 3c
       0.19582932 0.08855748 0.10627393 0.026376687
000290 8a aa 8e bd b2 35 5f 3d 8b a9 e9 3d 30 b2 96 3d
       -0.069661215 0.054494567 0.11409291 0.07358205
0002a0 65 27 eb 3d 9d 8a 1c bd f2 ca 06 3e 1b 64 9b 3d
       0.11482123 -0.03821813 0.13163355 0.07587453
0002b0 60 b1 d9 3c 55 8c 40 3e cc 83 38 3d 95 e1 65 3d
       0.026573837 0.18803532 0.045047566 0.056123335
0002c0 18 17 93 3d 97 1a 10 3e f5 f1 a4 3d 99 bc 84 3d
       0.07182139 0.14072643 0.08053962 0.06481285
0002d0 6d b0 23 3e 73 80 1a 3c 8e cb e8 3d e6 d8 c1 ba
       0.1598527 0.009430039 0.1136695 -0.0014789372
0002e0 a9 a6 72 3d 30 43 b6 3d 4a 1f 96 3d 26 cc ae bd
       0.05924097 0.08899534 0.07330187 -0.08535032
0002f0 3a df 43 3e a4 f9 0c bd 00 6e e2 3d 6b 7c 04 3d
       0.19128123 -0.034417763 0.11056137 0.032345217
000300 b8 a4 77 3d 1d 41 62 bd 67 54 91 bc 8d 94 d4 3c
       0.060459822 -0.055237878 -0.017740441 0.02594974
000310 49 dd b9 3d 80 40 2e bd 1f 98 a7 3d c6 a9 ab bc
       0.0907541 -0.04254198 0.08183312 -0.020954978
000320 73 d6 bd 3d fa e2 28 3d 5d 57 92 3c 9c 96 91 3d
       0.092694186 0.041232087 0.017863924 0.071088046
000330 40 e4 c5 38 e3 a4 6a bd a6 ad 18 bc b3 bf c0 3d
       9.436207e-05 -0.057286154 -0.009318745 0.09411564
000340 b1 32 19 3e f4 71 e9 3d b9 63 10 3e 55 dc 85 bc
       0.14960743 0.11398688 0.14100541 -0.016340414
000350 01 47 23 3e 30 39 89 3d e8 2e 97 3d 5b 24 84 bb
       0.15945055 0.06700361 0.073819935 -0.004032654
000360 dc d2 f7 bc 06 7a c0 3c e7 1e 62 3c 12 b5 49 bd
       -0.030251913 0.023495685 0.013801313 -0.049244948
000370 87 7a 12 bd 5d ed a8 3d c6 5b 6c 3d c0 8c 86 3c
       -0.035761382 0.082483985 0.05770471 0.016424537
000380 ff 03 bd 3c c3 b1 f2 3d 09 2a 66 bd e4 2b 14 3d
       0.023073195 0.118503116 -0.05619243 0.03617467
000390 bd 05 f7 3d 89 b8 87 bd a3 65 51 bd 72 6f 3f 3b
       0.12061641 -0.06626994 -0.05112232 0.0029210714
0003a0 ef b4 1b 3e c3 7a 4e 3d cc 93 b7 3d 37 7e 2c bd
       0.1520574 0.050410043 0.08963737 -0.042112555
0003b0 33 d6 4b bc ea 82 1b bd 50 4c 0d 3c bc 5d b2 3c
       -0.012441206 -0.037966646 0.008624151 0.021773212
0003c0 73 d4 1e 3e 9c 48 e6 bc 44 70 ff bc 31 31 c3 3d
       0.1551073 -0.028110795 -0.031181462 0.09530867
0003d0 82 cd fe bb 65 0e 10 bc 49 86 0b 3e b7 f1 08 3e
       -0.0077759633 -0.008792494 0.13625444 0.13373457
0003e0 c7 09 9b bd 9c 1d 45 3d 84 74 84 3d 0a 1a e8 3d
       -0.07570224 0.04812394 0.06467536 0.113330916
0003f0 df 09 c0 bc 72 e6 ae 3d eb b8 bd bd de e9 92 bd
       -0.023442207 0.08540048 -0.09263786 -0.07173513

mean.bias f4 [4]
000000 07 b2 be bd 63 16 f1 bd 3a 14 60 3d 67 8e 11 3e
       -0.093113 -0.11771848 0.05470679 0.14214478

log_std.weight f4 [4, 64]
000000 27 28 f6 3c d0 29 8f bd 3f 75 21 3d 42 bb 19 bd
       0.030048443 -0.06990397 0.039418455 -0.0375321
000010 64 65 10 3e 2a 6a 1a 3d 64 85 1d 3e 90 71 33 3e
       0.14101177 0.037698902 0.15382916 0.1752379
000020 20 89 27 3e 75 02 c8 3d 1b da 21 3e 56 1d 78 bd
       0.16360903 0.09766094 0.15805857 -0.060574852
000030 ac c7 42 3d 72 93 f5 3d 2e d9 cb 3d d4 e7 d8 3d
       0.047553703 0.119910136 0.09953533 0.10591093
000040 96 43 e2 3c b7 8a 42 3d 4e de 19 3e 94 a6 1c 3e
       0.027620118 0.04749557 0.15026209 0.1529792
000050 ff 82 fc 3d 03 d5 84 bd 71 42 b4 3d 76 45 d8 3c
       0.12329673 -0.06485941 0.08801735 0.026400309
000060 1f 14 84 3d 81 dc ba 3d d6 54 cd bc 7f c1 de 3d
       0.0644915 0.09124089 -0.025064867 0.1087675
000070 cc d2 1a 3e ef ef 3c 3d b2 b2 89 bd c0 f9 2a 3b
       0.15119475 0.046127256 -0.067235366 0.0026088804
000080 65 29 03 3e 5b b9 b7 3d 1b 05 3f 3e 9c 4f 4e 3d
       0.1280876 0.089709006 0.18654291 0.05036889
000090 0c 01 77 bd 49 4d 91 3d f8 be 70 3d 8d 28 e8 3d
       -0.060303733 0.07094819 0.058775872 0.113358594
0000a0 1d 80 af bc aa 16 df bc 85 26 d2 3d 87 5b 3e 3d
       -0.021423394 -0.027232487 0.10261253 0.046474006
0000b0 4a c9 18 3e 88 fe 3c bd f8 98 6b bd eb 07 b9 3d
       0.14920536 -0.046141177 -0.05751893 0.09034713
0000c0 e2 ff 30 3c 89 f4 ca 3d 88 49 09 3e 6d 10 53 3e
       0.010803195 0.09909923 0.13406956 0.20611735
0000d0 ec 94 87 3d 99 1e e3 bd a2 40 94 bc 9d bd bc 3d
       0.066202015 -0.110898204 -0.018097226 0.09215853
0000e0 3b 38 20 3b 31 43 9b 3d 43 53 fa 3c a7 3a e2 3d
       0.0024447578 0.07581175 0.03055728 0.11046343
0000f0 35 38 03 3e ca 1b f9 3d 74 6a c9 3d aa 7b e7 bc
       0.1281441 0.121635035 0.098347574 -0.02825721
000100 7f 60 68 bc 2b 95 85 bb ab 38 fe 3d 02 a4 64 3d
       -0.014183163 -0.00407662 0.12413152 0.055820473
000110 50 2a de 3d 36 f6 37 3d 99 2b 3c 3d 5f 1d d9 3d
       0.10847914 0.04491254 0.045940015 0.10601305
000120 06 80 be 3d 79 b5 0d 3e 8b fd 37 bc bc 9a 18 3d
       0.09301762 0.13838758 -0.011229883 0.03725694
000130 9e 41 72 3e 8e 08 a0 3d 13 4c 2f bd 29 a7 d9 3d
       0.23657843 0.07814132 -0.04279716 0.106275864
000140 52 b9 62 bc cc 88 dd 3d b4 f5 22 3d 93 91 5d 3e
       -0.013838129 0.108171076 0.039785102 0.21637563
000150 98 c2 31 3e 14 bb 27 3d 03 1b 34 3e 55 e7 88 3e
       0.17359388 0.040949896 0.17588429 0.26738992
000160 41 b6 03 bd 8a d8 96 3d 60 0d e5 3d d3 d3 2a 3c
       -0.032156233 0.0736552 0.11184192 0.010426479
000170 84 e4 48 3e 63 29 0a 3e b3 0e 3e bd cc 95 8b 3d
       0.19618422 0.1349235 -0.046400737 0.06815681
000180 67 e8 99 bd 4d a2 32 3e 2f 82 27 bc 9c 1d 2e 3d
       -0.0751503 0.17444725 -0.010223909 0.042508706
000190 96 0a 4c 3d f2 ca d7 bd 9e c6 a4 3d 25 27 62 3d
       0.049814783 -0.105367556 0.08045696 0.055213112
0001a0 b6 fc e4 3d 1f 7e 4e 3d b6 aa a7 bd 2f ab ee bc
       0.11181013 0.050413247 -0.081868574 -0.029134361
0001b0 08 6e dd 3d ea a0 b8 3d 7c 27 92 bd 4d cd f6 3c
       0.108120024 0.09015067 -0.07136437 0.030127192
0001c0 89 72 5d 3e 88 7f 7f bd d3 54 80 3d 05 09 ef bc
       0.21625723 -0.062377483 0.06266179 -0.029179106
0001d0 28 b4 33 3d 51 66 be bd b2 81 1b 3d eb fa 5c 3e
       0.043872982 -0.09296859 0.037965484 0.21580093
0001e0 a8 9f 0c 3e 48 d0 61 bc ce 41 60 3e b6 b2 c8 bd
       0.13732779 -0.013782568 0.21900102 -0.097997114
0001f0 91 f9 08 3d 14 d6 45 3e 58 d2 b6 3d 7e 76 2f 3e
       0.03344113 0.19319946 0.08926839 0.17135045
000200 fc 05 c8 3c 1d ab bd bd c4 40 9f bd 7f 02 11 3d
       0.024416916 -0.09261153 -0.07776025 0.03540277
000210 3c 5a bd bd 7f 1b c0 bc 93 16 f7 3d 4d 44 ae 3d
       -0.092457265 -0.023450611 0.120648526 0.08509121
000220 1b 21 1e 3e 1b 95 e2 bc 89 57 aa 3d e7 14 f3 3d
       0.15442316 -0.02765899 0.08317477 0.11869221
000230 29 a9 db 3d ee f7 3d 3d 52 80 9e bc 3f 76 a8 bd
       0.10725624 0.046379022 -0.019348297 -0.08225679
000240 ee f2 f5 3d 33 0e c1 bd c5 e5 47 3d f6 24 25 bd
       0.12009226 -0.094265364 0.04880311 -0.04031845
000250 dc 7f 66 3d 53 f1 c7 bd 06 33 b2 3d 25 7e 81 3d
       0.05627428 -0.09762826 0.08701138 0.06322888
000260 dd d7 50 bd aa 59 a2 bc 8a e4 07 bd 76 23 61 bd
       -0.050987113 -0.019818146 -0.033176936 -0.05496546
000270 1a 6c bc 3c f6 8f 41 3d 66 c3 53 bd 50 37 01 3d
       0.023000766 0.047256432 -0.05170002 0.03154689
000280 7d 84 7b bd 94 82 31 3e 1c 6a 17 bd 23 db d0 3d
       -0.061405648 0.17334968 -0.03696643 0.10198047
000290 20 29 83 bd e0 c8 94 bd ae f4 aa 3b bb cd e9 bc
       -0.06404328 -0.07264876 0.0052171564 -0.028540483
0002a0 95 fb 80 3c ce 23 f4 bb 92 ae 22 3a 1a 43 b2 bd
       0.015744964 -0.0074505573 0.00062058226 -0.08704205
0002b0 bd b9 31 3e d5 d0 f4 3d 98 e7 36 bd 3b 1f 37 3e
       0.1735601 0.11953894 -0.04465446 0.17883007
0002c0 b7 a9 cb 3c 7c 54 8a bd c4 ec 9f 3d 19 77 01 3d
       0.0248612 -0.06754395 0.07808831 0.03160772
0002d0 1d ca 03 3e 1e a9 aa bc 9a 4b 76 bd 73 70 26 3e
       0.12870069 -0.020832594 -0.060130693 0.16253833
0002e0 21 8c 7e 3d 0b 3c 8d 3d 27 70 45 3d 20 b5 b6 bd
       0.062145356 0.06896218 0.04820266 -0.089212656
0002f0 64 4f e3 3d cb 29 74 3d d1 a4 d0 bc 8c b2 f0 3d
       0.11099127 0.05961017 -0.025469216 0.11752805
000300 ee be 9b bd dd ce 60 bd 43 8f eb 3c e8 fc c7 bd
       -0.07604776 -0.05488478 0.028754836 -0.09765035
000310 43 bd b5 bd ff dd 87 3c 45 98 b1 3c 27 a1 49 3e
       -0.088739894 0.016585348 0.021679053 0.19690381
000320 f1 e9 00 3e d7 4a 44 3e 8f 6a 69 3d eb 53 9e 3c
       0.12589242 0.19169174 0.056986388 0.019327125
000330 d1 c7 d5 3d 22 6a 92 bc 49 f3 9d bd 2a fa c4 bd
       0.104385026 -0.017872874 -0.077124186 -0.096180275
000340 17 16 3d 3d a0 f0 36 bd cc 71 3b 3c f4 cb fd 3d
       0.046163645 -0.04466307 0.0114407055 0.123924166
000350 07 35 c1 bc 36 af a9 3d 03 fb 17 3d 64 b8 07 3e
       -0.023584856 0.08285372 0.037104618 0.13253933
000360 ba 1b a0 bd 71 34 d0 3d 60 17 77 bd 7f 9d db bd
       -0.078177884 0.101662524 -0.060325027 -0.10723399
000370 fe 4f 19 3e ff 99 5c bd 7b f2 1c 3e 10 6a 63 3d
       0.14971921 -0.0538578 0.15326874 0.05552107
000380 65 7f 8e 3d 0b 0d 45 3d 53 07 9b 3d ef fa 93 3d
       0.06957892 0.048108142 0.07569756 0.07225596
000390 bb dd 42 bd 6b cb ca 3d 14 17 fc 3d 46 1e 0c 3d
       -0.04757474 0.0990208 0.12309089 0.03420856
0003a0 d1 b4 a4 3d d2 9d 38 3d c2 58 a4 bc 91 ee a2 bd
       0.080423005 0.045072384 -0.020061854 -0.07955659
0003b0 77 86 8d 3a 87 6c 9f bd 3c 03 21 bd 90 ba f0 3d
       0.001079752 -0.07784372 -0.039309725 0.11754334
0003c0 b3 2d 66 3e fd f6 dc bd af ae 66 bd 20 02 40 3e
       0.2247837 -0.10789297 -0.056318935 0.1875081
0003d0 75 bb 99 3a 1c fa 7e bb 2b 46 98 3d ff 11 35 3e
       0.001172884 -0.00389064 0.074352585 0.17682646
0003e0 8e d0 b7 3d 69 30 7f 3d 16 65 65 3d f7 8e 7b 3c
       0.089753255 0.062302027 0.056004606 0.01535391
0003f0 44 44 99 3d c8 ac c4 bd b2 bd a0 bd c0 fa 0c 3e
       0.07483724 -0.09603268 -0.078486815 0.13767529

log_std.bias f4 [4]
000000 9e 3a 56 bd ab 0d 2d 3e 2d a1 1b 3e 14 a7 0e 3e
       -0.052301995 0.16899745 0.15198202 0.13930923
