results/ppo_BipedalWalker-v3_20250602_205845/ppo_critic_step_100000.pth (torch, 26206 bytes, 5 tensors)

net.0.weight f4 [64, 24]
00000000: 5ad8 7dbd 2b38 cdbd 044c 3d3e 13e5 28bf
00000010: c48d 323d 4423 f3bd 1b0c 9e3d 113a 083d
00000020: 2d82 d73d b6d1 a6be f5d9 f9bd 55d8 c4bd
00000030: 69e2 c8bd d7e7 723e 49f4 0e3e a161 8c3e
00000040: f84b 803e 7af6 22bd 13ec 973e 5e46 e63d
00000050: 3883 8b3e b6b2 103e 8dc4 ab3d a289 963e
00000060: c39f 9abe 864e 44be 7ce1 093e de29 4fbf
00000070: fbbd 2b3e a493 3d3e 34a3 023d 0f5f cb3d
00000080: 84c3 61bc f720 7dbe 0fa9 06bd 797f debe
00000090: cbe9 35be dba6 1abe 5000 f6bd 3a39 b8bd
000000a0: 5961 9d3d bfc9 8b3e 6691 55bd c01d 2a3e
000000b0: 5ee6 4cbc 6156 743e f4a6 633e a6c4 193e
000000c0: e725 d53d 6c52 8ebe 1c48 ebb9 a355 6abf
000000d0: e351 843e 12e4 183e c77d 203e 51d3 573d
000000e0: 11b9 f1bd 0d1a 0cbf f2ed b9bb ec8c a2be
000000f0: e508 6abc 1c0e 8e3d 4418 4f3e 61c2 c53d
00000100: 2701 213d ba94 983c 2478 8e3d a5bd 73bd
00000110: c634 7b3e 0031 7d3e 9a3a 98bc 5cc3 383e
00000120: eef0 a4be 3947 e5be 89f7 a53e 3068 58bf
00000130: 4571 933e 5350 c0bc b574 6cbd 4c3d 60bc
00000140: c282 28bd 6ef4 27be 7fd7 08bd 0438 82be
00000150: e048 59bc bb2c efbb 4a8b 403e 4a67 2abd
00000160: 119c 2d3c 0f5c 4fbe 251a 353d 00bf c2bd
00000170: 5514 64bd e205 edbd 6bf6 503e dc88 0c3e
00000180: 29f5 5abe 439f 90be 1588 9c3e b65c 44bf
00000190: 29c1 843d b425 d93d c5c0 5c3d ad2b 2f3d
000001a0: 82f7 09be 42d6 0bbf 6300 24bd d2a9 4ebe
000001b0: d817 da3b 5c3f ef3d e952 903d 1617 31bd
000001c0: a3e6 823d a0ea c5ba 3dc1 b93c 70e0 98bd
000001d0: 6667 833e 70dc 8b3e 6b81 79bd e6a8 5f3e
000001e0: f648 fdbc b22a 6abe e71d 123e 73be 47bf
000001f0: e045 473e 0c9c eb3d 1178 473e e6db 763d
00000200: 032f 663d 2f40 edbe 239f edbc 4b03 94be
00000210: b44f d73c a869 383d f39b 18bd 3d35 8ebd
00000220: 1b5f 3b3d 152a 163c b607 4e3b 21f2 babd
00000230: 6473 31bd 4910 833e fa00 363c c45a 413e
00000240: a0a8 433e eb10 383e 1ac1 5cbd cead 11bf
00000250: ac45 0b3e 5702 dfbc 6679 b73d e2d4 db3c
00000260: 9032 c6bd 3bc0 a63d fa0d 79be cc5d 223d
00000270: bbca f6bd da9b 5ebe 0877 cdbd f213 1c3e
00000280: 88fc 15be 07e7 94bd 6595 593d c10d 76bd
00000290: d079 243d 56a6 523e 4df9 0fbe bdd1 debd
000002a0: 275e 9bbe 5919 bf3c dea7 323e 9c19 76bf
000002b0: 3a5f 7fbe 4868 763e 8893 393d ef2c 2abe
000002c0: 6b60 94bd e9eb 3abe 9e76 163e 75b9 eebd
000002d0: 5606 8d3d c7c4 513e abef 483e 0ccb 193d
000002e0: 3bf8 ca3d f15a 243e aeb2 38bd 54ce b5bc
000002f0: f25b 01be d0d8 5e3e 95ec 5abb 6fc2 873e
00000300: aafd 7dbe 4275 c9be 31bd ee3e 6dd2 5bbf
00000310: f432 01be a4ef 05bd 49ad 16be 43a1 853c
00000320: d9cc 3fbe 4141 c3be 36ef bd3b df96 b9be
00000330: 652c 3d3d e5d6 3abd ccba 1bbe ba94 9a3d
00000340: 3968 83bd 2ebe 61bd 85e1 1b3e 551c 223e
00000350: b95b 46be cc31 393e 5c34 5d3e a849 03be
00000360: b015 91be b1fd 95be 8cac 263d 1137 4fbf
00000370: 1385 1d3e 6618 f93d 2929 413d eef8 73be
00000380: 5f07 7a3e a143 efbc 032c a23d 5b15 c93c
00000390: ca50 6fbe 9eaa 223e bed0 e13c 9aaf b83e
000003a0: 6f2a 07bc 268d b13e d614 bb3e f404 993d
000003b0: efc8 05bc 40f9 7b3e aeac 093d 5455 bcb9
000003c0: c6e7 6ebe 4dae ccbc a67d b23d 64d4 6cbf
000003d0: 2226 d13d 89ca 183e 55e5 843d 4c6e 503d
000003e0: c049 eabd 2e73 07bf b2d1 6f3c dc39 b5bd
000003f0: 86fe 1e3d c8fc 23be c44a 9cbd 6540 543e
-0.061973907 -0.10020479 0.18486029 -0.6597454 0.04359223 -0.11871961 0.07717153 0.0332585
0.10522876 -0.32581872 -0.12199775 -0.096115746 -0.09808809 0.23721252 0.13960375 0.27418235
0.2505796 -0.03978584 0.29672298 0.1124389 0.2724855 0.14130673 0.083870985 0.2940188
-0.30200014 -0.1917058 0.13464922 -0.8092326 0.1677169 0.18513352 0.031893924 0.0993024
-0.013779525 -0.24719606 -0.03287607 -0.4345663 -0.17764966 -0.15102713 -0.12011778 -0.0899529
0.07684583 0.27302358 -0.052140616 0.16612911 -0.012506096 0.23861076 0.22231656 0.15016422
0.1040762 -0.27797258 -0.00044876419 -0.9153692 0.25843725 0.14930752 0.1567298 0.05269176
-0.11802877 -0.5472725 -0.0056741172 -0.3174814 -0.014284347 0.06936285 0.202241 0.096562155
0.03930774 0.018625606 0.06956509 -0.05950703 0.2453185 0.24725723 -0.01858263 0.18043274
-0.32215065 -0.447809 0.32415417 -0.8453398 0.28797355 -0.023475802 -0.057728488 -0.013686489
-0.041140325 -0.16401836 -0.033408638 -0.25433362 -0.013262004 -0.0072990335 0.18803135 -0.04160241
0.010596291 -0.20249961 0.044214386 -0.095090866 -0.055683453 -0.11573388 0.20406501 0.13724083
-0.21382584 -0.28246507 0.30572572 -0.76703966 0.06482155 0.106028944 0.053894777 0.04276626
-0.13473323 -0.54623806 -0.04003943 -0.20181969 0.0066556744 0.11682007 0.07047064 -0.043234907
0.06391647 -0.0015099831 0.022675151 -0.07464683 0.25664824 0.27316618 -0.06091444 0.21841773
-0.03091858 -0.2286785 0.1426922 -0.7802498 0.19460249 0.11504373 0.19479395 0.060268305
0.056197178 -0.4633803 -0.029006546 -0.28908762 0.026283123 0.045022637 -0.0372581 -0.06943748
0.045744997 0.009165307 0.0031437702 -0.09128214 -0.043322936 0.25598362 0.011108631 0.1888228
0.19107294 0.17975204 -0.053895094 -0.5690583 0.13600796 -0.027222795 0.08958702 0.026834909
-0.09677613 0.08142134 -0.24321738 0.039640233 -0.120503865 -0.2173914 -0.10032469 0.15241984
-0.14647114 -0.072706275 0.05312099 -0.06007171 0.040155232 0.20571265 -0.14059944 -0.10879848
-0.3034527 0.023327516 0.17446849 -0.96132827 -0.2493867 0.24063218 0.045306712 -0.16618703
-0.07244953 -0.18254055 0.14693686 -0.11656467 0.06885974 0.20485221 0.19622676 0.037547156
0.099106275 0.16050316 -0.045092277 -0.022193111 -0.1263273 0.21762395 -0.0033405174 0.2651553
-0.24803796 -0.39347273 0.46628717 -0.8586796 -0.12617093 -0.032699242 -0.1471454 0.016312247
-0.18730487 -0.38135722 0.0057963384 -0.36247918 0.046184916 -0.045615096 -0.15207976 0.075478986
-0.06416363 -0.05511301 0.15222748 0.1583112 -0.19370927 0.18085402 0.21602005 -0.12821066
-0.2833686 -0.29295114 0.040691897 -0.809434 0.15382795 0.12162857 0.047158394 -0.23825428
0.24416874 -0.029207053 0.07918551 0.024546316 -0.23370662 0.15885398 0.027565356 0.36071473
-0.008249863 0.34678 0.36539334 0.07471648 -0.008165582 0.246068 0.033611946 -0.0003592173
-0.23330602 -0.024985457 0.08715372 -0.9251158 0.102123514 0.14921011 0.06489054 0.050886437
-0.11439848 -0.52910125 0.014637398 -0.088489264 0.03881695 -0.16014397 -0.07631448 0.2072769

net.0.bias f4 [64]
00000000: ddcc 803e f233 e8bd b15e 90bd e23d 1a3d
00000010: 4497 3dbd 7270 e03d c25a 31bd 9e36 9a3e
00000020: f544 0cbd 33d7 883e eb84 ca3d 43ce 943e
00000030: 15b7 a73d e4d7 2b3e 4c44 efba 80c5 1abe
00000040: e112 753e bf2e 6c3e 1aac 973c 3005 483e
00000050: ccce 053e 45b6 0e3d 781b d03d d58c a43e
00000060: 6292 6c3d 09c4 353e 7a33 8e3d 4ebf 34be
00000070: 70d3 febd f9c8 943d 1973 893e ab8b 6b3e
00000080: cac3 663e c754 873e 23c0 ff3c 28e6 bcbd
00000090: 458f 54be 2655 ef3c 3c16 03bd fd24 ac3e
000000a0: 7511 27bc 91e3 863d 3547 5d3e 5d43 363e
000000b0: d3a6 9b3d 1050 233e e1f6 3bbd 4885 5dbe
000000c0: a176 d0bc 7b56 313e 44b8 973e 86d5 a73d
000000d0: 69e0 703e abca eebd 5c2d c03d ba78 253e
000000e0: 449c 293c 95db 503e f607 9ebd 5545 0c3e
000000f0: c4ff 183e 12c1 4e3e 74c7 8d3d daec 37bd
0.25156298 -0.11338033 -0.07049311 0.037656672 -0.046286836 0.10958947 -0.043299444 0.30119795
-0.03424545 0.26726684 0.09888633 0.29063615 0.08189217 0.16781574 -0.0018254607 -0.15114403
0.23932983 0.23064707 0.018514682 0.19533229 0.13067168 0.034841795 0.10161489 0.32138696
0.05775679 0.17750563 0.06943412 -0.17651102 -0.12442672 0.07264895 0.26845625 0.23002498
0.22535625 0.26431867 0.031219548 -0.09223586 -0.20757778 0.029215407 -0.032003626 0.3362197
-0.010197033 0.065863736 0.21609195 0.17799135 0.076001786 0.1594851 -0.04588974 -0.21632874
-0.025447192 0.17318146 0.2963277 0.08195023 0.23523106 -0.116597496 0.093836516 0.16159335
0.010352198 0.20396264 -0.07716362 0.13698323 0.14941317 0.20190838 0.06922808 -0.044903614

net.2.weight f4 [64, 64]
00000000: 8390 aa3d 109b 9b3e 7fa3 243e e877 153e
00000010: c309 6e3e 480a 893e 7456 913d 7267 a43d
00000020: c5b6 773e a625 7b3e b65a 553e 6eea 283e
00000030: 0d45 823e 17fe 273e 3a96 863e 7a7d 863e
00000040: 1b43 aa3e 159d 203e 6526 823e 94e1 693e
00000050: af30 b63d 3014 7f3e e300 233e a8af 303e
00000060: fbce 5b3e 8416 3c3e 44d0 5a3e e283 8e3e
00000070: c2d9 dd3e d4c3 223d 251e 443e 33e8 213e
00000080: c65f 123e f6e7 7a3e 6768 ab3e 8e86 363e
00000090: eb83 983e fa79 a33e 2f37 6a3e 2b3e 803d
000000a0: 6b0b 913e 5c77 a23e 4b5f e53d cb83 ae3e
000000b0: c297 993e 34b6 263e c990 503e 75a5 833e
000000c0: 1dab fc3d 3739 443e 9812 323e 53af 723e
000000d0: 4e2e e73d a846 ab3d 981e 883e 27f2 4a3e
000000e0: 9693 273f 001c b73e 5ff8 5b3e 4473 523e
000000f0: 5e13 773e 573b b03e 0666 ae3e 3b8b c93e
00000100: 5649 213e f5b4 953e 3648 803e b940 813e
00000110: 44de 3e3e ac5e 5e3e 678e cf3d a132 e33d
00000120: 47de 9a3e 1e9f a33e f8b0 8a3e c4e6 443e
00000130: 160a 9f3e db8f 2c3e a3f5 913e f062 613e
00000140: ede1 7c3e d1ea 463d 1fcd 673e 3ac8 8b3e
00000150: eb17 943e 1000 fb3d bd9a 5f3e d9d1 973e
00000160: e8d5 fe3d db83 903e 0901 ba3e 3792 d03e
00000170: 12ad 8d3e 4e3e 833e 95b4 e73d a65d 6a3d
00000180: 7007 573e 5c85 373e c8ce 063f c9e1 723e
00000190: 4f97 bf3e c636 5b3e 6da1 b43e 6c60 993e
000001a0: 04d7 4e3e b31f aa3e b52b 573e 7b35 953e
000001b0: 5f4f 903e ca5f 823e d480 593e 558a fd3d
000001c0: 0be2 9d3d 4786 c43d ce42 2a3e 4801 223e
000001d0: 3cb5 973e e779 933d d092 883e 4a01 d23c
000001e0: 92b7 403f 66ff 833e 8a3e 163e 60f4 473e
000001f0: 25f4 753e 5fd0 273e 381e 8f3e 8437 a13e
00000200: cc75 4a3e 9ee4 9e3e f9d9 a23d 72fe 9f3e
00000210: 33a3 453e 5fe9 443e 65ab 5b3e 1ad5 103e
00000220: 9176 553e dd55 3f3e 5f55 823e bd01 753e
00000230: 8ab3 b43e 840c 6c3e ab01 6b3d 0c9a 7e3e
00000240: e723 673e e59d 1d3e ef1e 063e 9bdc 713e
00000250: b59d 763e e079 c13d 8449 393e 222f a03e
00000260: d5d5 5b3e 9ad2 1f3e 39b8 ad3e 9c91 cd3e
00000270: 30aa 603e e7db 5b3d 501b 3d3e 3a55 503e
00000280: e253 253e 71e2 053e 87e0 a63e cb33 563e
00000290: 77ff d53e 95bc b83e efff 1c3e b97f 8f3e
000002a0: f2d3 893e 2bd1 e83d 37e3 8a3e 0590 b43e
000002b0: 72b2 673e 1ec8 173e 0fc8 743e 913e 5b3e
000002c0: 7824 363e adbe e83d 8dbd 3d3e 0608 883e
000002d0: 6060 7a3e 83c7 413e 8b3d 373e d9cb 333e
000002e0: 082c 373f f853 473e 6207 bc3e 4e0f 023e
000002f0: 49d5 603e 15cd ae3e 6584 483e c356 6a3e
00000300: 3968 8bbc fa75 be3d d10f cdbd e33c b13c
00000310: ad00 edbd ee0a 3c3d b866 ad3d 22f6 18bd
00000320: 00cc eebd 22f1 0ebe 67e2 a8bd 1b9b 54bd
00000330: 5a73 95bd 8694 403d abcd 2abc 4ea8 d7bd
00000340: a042 03bd aefa 02be 6251 373d 232d 5fbc
00000350: d729 c53d 20d7 983d 065d a1bd 44d4 9f3d
00000360: 29eb 00be 85db f7bd a9bc 8b3d 3cef 8dbd
00000370: e8a2 c4bd f8ed f0bd 7f57 d5bd fb98 11be
00000380: 0be7 2e3c 1039 20be 3007 0fbd 90d3 933d
00000390: 2d41 d0bd e2cd 8c3d 7435 d43d 47fb 0abd
000003a0: 9b1f 9fbc c444 04be c807 983d 9206 c23d
000003b0: d3e1 e8bc f01d 8d3d 169f e8bd f1fd cbbd
000003c0: ba8c f03d 8722 07be 2569 5bbd 4d1d 92bd
000003d0: f313 fcbd 302f 7b3c 8c86 81bd 57e5 9d3c
000003e0: 0033 3fbd e58a 163d 5e8a ea3b 6fdb 04be
000003f0: 7abe 943d f04e 933d 0604 e5bd 031f ef3c
0.08328345 0.3039174 0.16077994 0.14596522 0.23245911 0.26765656 0.07096568 0.08027543
0.24190815 0.2452608 0.20835385 0.16495678 0.25443307 0.16405521 0.2628649 0.26267606
0.33254322 0.15684922 0.25419918 0.22839957 0.088960044 0.24910045 0.15918307 0.17254508
0.21465676 0.18367964 0.2136851 0.27834994 0.433302 0.039737538 0.19152124 0.15811233
0.14294347 0.24502549 0.3347809 0.17824766 0.29788145 0.31928998 0.22872613 0.062618576
0.28329024 0.3173169 0.11199816 0.34084925 0.29998595 0.16280442 0.20367731 0.2571217
0.12337325 0.1916245 0.17389905 0.23699693 0.11288129 0.08363086 0.2658584 0.19818936
0.65459573 0.3576355 0.21481465 0.20551783 0.24128482 0.34420273 0.34062213 0.39364037
0.15750632 0.29239622 0.25055093 0.25244692 0.18639475 0.21715802 0.10134583 0.11093641
0.3024771 0.31957334 0.2708814 0.19228655 0.31062382 0.16851752 0.28507718 0.22010398
0.24695559 0.048563782 0.22636841 0.27301198 0.28924498 0.12255871 0.21836372 0.2965229
0.12443143 0.28225598 0.36328915 0.40736553 0.27671105 0.25633472 0.1131374 0.057218216
0.20998931 0.17921966 0.52659273 0.23718943 0.37420127 0.21407613 0.35279408 0.29956377
0.2019921 0.3322731 0.21012767 0.29142365 0.28185555 0.25463706 0.2124055 0.123799
0.0770913 0.09595924 0.16627046 0.15820801 0.29630458 0.072009854 0.2667451 0.02563538
0.75280106 0.2578079 0.14672294 0.19526815 0.24018915 0.16388081 0.27952743 0.31487668
0.19771498 0.31033796 0.07951731 0.31248814 0.19300537 0.19229649 0.214521 0.14143792
0.2084601 0.18685098 0.25455758 0.23926444 0.35293227 0.2305165 0.057374638 0.24863452
0.2257229 0.15392263 0.13097738 0.2361931 0.24083598 0.09447074 0.1809445 0.3128596
0.21468289 0.15607682 0.33929613 0.40150154 0.21939921 0.053676512 0.1846745 0.20345011
0.1614528 0.13074662 0.32593176 0.20918195 0.41796467 0.36081377 0.15332006 0.28027132
0.26919514 0.113680206 0.27126476 0.35266128 0.22626665 0.14822432 0.23904441 0.21410586
0.17787349 0.113644935 0.18529339 0.2656862 0.24450827 0.18923764 0.1789457 0.1755823
0.7155156 0.19465625 0.36724383 0.12701151 0.21956362 0.3414084 0.19581755 0.2288466
-0.01701747 0.09299846 -0.10012782 0.021635478 -0.115723945 0.04590886 0.08466858 -0.037344106
-0.11660004 -0.13959172 -0.08246308 -0.051905733 -0.07297392 0.047016643 -0.010425012 -0.105301484
-0.03204596 -0.12790939 0.044755347 -0.013621601 0.09627121 0.07462907 -0.07879071 0.07804158
-0.12589706 -0.12102417 0.068230934 -0.06930396 -0.096013844 -0.11764139 -0.10417079 -0.14218514
0.010675202 -0.15646768 -0.034918964 0.07218087 -0.10168681 0.068752065 0.10361758 -0.033931043
-0.01942425 -0.12916857 0.07423359 0.094739094 -0.028427994 0.06890476 -0.11358468 -0.09960545
0.117455915 -0.13196765 -0.05356707 -0.07134495 -0.123084925 0.015331075 -0.06324491 0.019274397
-0.046679497 0.036753554 0.007157608 -0.12974332 0.07262893 0.071927905 -0.11182408 0.029189592

net.2.bias f4 [64]
00000000: 8e79 8c3e cf90 d63d 4b2a 053e fb3e c13d
00000010: 16d9 ea3c 6439 0cbe 5ee9 8dbd 8372 803e
00000020: d2f9 803e fce2 133e 9645 6b3e 424c 4ebc
00000030: 14c0 aeb9 adef f23d 0a28 7d3e 641b cbbd
00000040: 0e15 833e d063 fc3d bdee 3a3e 9539 29bd
00000050: 36b9 923d b75f 803e b529 a93d 7531 e93d
00000060: 8454 a43e 9691 28be d582 943e 6498 8e3e
00000070: 0084 46be ba10 4b3d 8854 a43d 4817 973e
00000080: e526 3ebe 0efe bc3d e81f 3ebd 72a4 6c3e
00000090: 33bc 183e 2f42 103e 2cd8 993d f62c ccbd
000000a0: b58e 6e3e 25bb 9e3e c04c 7e3d d783 423e
000000b0: 5acb ad3c 7319 923e 4046 00be 8e33 e4bc
000000c0: 8a33 16be 8390 ab3d 0d84 2c3e 8898 32be
000000d0: 1d8f 023d 72f9 4a3e a13e 1b3e adc6 03bd
000000e0: 9a7e 873e 1141 dbbd 29fb 5d3e c70c 953d
000000f0: 7a9a 0fbc c2c8 933e 6c03 213e d6f7 073c
0.2743649 0.10476839 0.13004415 0.09435841 0.028667968 -0.13693768 -0.06929277 0.25087366
0.25190598 0.14442056 0.22975764 -0.0125914235 -0.00033330976 0.11862121 0.24722305 -0.09917334
0.25602 0.12323725 0.18255134 -0.04131468 0.071642324 0.25073025 0.08259908 0.11386386
0.3209573 -0.16461787 0.29006067 0.2785064 -0.19386292 0.0495765 0.080239356 0.2950995
-0.18569525 0.092281446 -0.046417147 0.23109606 0.14915542 0.14087747 0.07511935 -0.09969513
0.23296626 0.31002155 0.062084913 0.18995605 0.02121513 0.2853504 -0.12526798 -0.027856614
-0.14668098 0.08377173 0.16847248 -0.17440999 0.031874765 0.19821718 0.1516061 -0.032171894
0.26463777 -0.1070577 0.21677841 0.07277828 -0.008764857 0.28864104 0.15723962 0.008298835

net.4.weight f4 [1, 64]
00000000: 3862 90be 44f0 9bbe fea2 afbe 69e9 383d
00000010: 8970 843e 45fe 5a3e 5d36 453d 8fba 93be
00000020: 60b7 b0be 4273 57be d951 86be 3fda 513d
00000030: 41fc 813c cd9a 85be b531 a1be b9f1 513e
00000040: bc70 91be 62a4 4ebe 9d16 9cbe 92d9 9f3e
00000050: 8292 713d 3679 9fbe 6934 ab3b 8202 90be
00000060: ede3 82be 2e64 f53d 95cb 84be d25d 80be
00000070: 9768 cb3e 45e8 793e 2e07 593d 445d 91be
00000080: bfc2 333e 51ea 553d c61c 94bd 59fd a5be
00000090: 7c5b 9dbe 3bc8 cbbe 56f9 243c 120d 383e
000000a0: a826 98be cf17 bfbe a9be 8c3d 9bf4 bebe
000000b0: a441 683e cb94 82be 8733 783d 1c41 bc3d
000000c0: ec9a c03e 7b9c b8be 0668 a4be d53e 9f3e
000000d0: b25a 303e d17d 98be 1083 a8be be72 9a3e
000000e0: 1a20 86be 4316 9d3e 2889 9bbe 4756 ce3d
000000f0: db96 343d 792c 8bbe 19a8 a7be 657f 423e
-0.28199935 -0.30456746 -0.3430404 0.045144472 0.25867108 0.21386059 0.048147548 -0.2885327
-0.34514904 -0.21040061 -0.2623432 0.051233526 0.015867354 -0.26094666 -0.31483236 0.20502366
-0.28406322 -0.20179895 -0.30486003 0.3122068 0.05897761 -0.31147164 0.0052247536 -0.28126913
-0.2556452 0.119819984 -0.2593657 -0.2507158 0.39728233 0.2440501 0.052985363 -0.2839147
0.17554758 0.052225415 -0.072320506 -0.3241985 -0.3073386 -0.398012 0.010069212 0.17973736
-0.29716992 -0.37322852 0.06872303 -0.37295994 0.2268129 -0.25504145 0.060596015 0.09192106
0.37618196 -0.36056885 -0.32110614 0.31102625 0.17222098 -0.2978349 -0.32912493 0.30165666
-0.26196367 0.30681047 -0.3037808 0.1007505 0.04408918 -0.27182367 -0.32745436 0.1899391
