results/ppo_BipedalWalker-v3_20250602_205845/ppo_actor_step_150000.pth (torch, 28456 bytes, 8 tensors)

net.0.weight f4 [64, 24]
000000 0a 94 1d 3c ba 39 8f 3d 2c 7a f2 bd ef 9f 48 be
       0.009617815 0.06993432 -0.11839709 -0.1959226
000010 f8 34 38 be 80 c6 93 3d d1 ab 8c bc 1f 8c 2f 3e
       -0.17988956 0.07215595 -0.017171772 0.17143296
000020 b7 c5 46 3d fe 0e 03 3e 93 76 99 bc 16 fc b8 3c
       0.0485284 0.12798688 -0.018733298 0.022581141
000030 74 6f 75 be b3 19 be bd 12 38 4a bd b7 56 2d 3d
       -0.23968297 -0.092822455 -0.04936988 0.042319026
000040 1d 69 ec 3d 96 fb 20 3e 1c 49 d4 bd 5b d3 5d bd
       0.11543486 0.15720972 -0.10365507 -0.054156642
000050 22 03 df 3d 9d 21 51 3e 95 a6 b2 3a c4 f6 5e 3e
       0.108892694 0.20422979 0.0013629968 0.21773821
000060 0e 42 88 bd 7b 91 de bc 0f 2b 73 3e 02 7d 3c be
       -0.06653224 -0.02716898 0.23746894 -0.18407062
000070 73 2b 4e be 96 5e df bc ce 1b 8d bd c2 e0 2a 3e
       -0.20133762 -0.027266782 -0.06890069 0.16687301
000080 3e 5b ff bd 71 ee be bd 20 0f eb bd 57 df 12 be
       -0.12468575 -0.09322823 -0.11477494 -0.1434301
000090 b1 ee 86 bd 21 a2 39 3e 91 c3 90 3d fe d2 a0 3d
       -0.065884955 0.18128254 0.07068551 0.078527436
0000a0 0d 41 1e bc bc 0a 00 be 0f a6 67 3c 1e 09 58 be
       -0.009659064 -0.12504095 0.014138713 -0.21097228
0000b0 fd e0 2b be 11 c0 00 be d7 f1 e6 3d 6c a3 f6 3d
       -0.16785045 -0.12573268 0.11276596 0.12042889
0000c0 cd 53 2c be 1a b6 c2 bd 8e dd 50 3e f8 67 56 3e
       -0.16828842 -0.09507389 0.20397016 0.20938098
0000d0 5f 38 22 bc 18 25 55 bc 69 92 d7 3d c1 13 75 bd
       -0.009901135 -0.013009332 0.105259724 -0.059833292
0000e0 d1 30 63 3c fe 4e 44 be 15 90 19 be 63 f1 a6 bd
       0.013866619 -0.19170758 -0.14996369 -0.081515096
0000f0 0f 26 db 3d f4 f9 4a 3d e8 a7 38 be dd 6e 12 3b
       0.107006185 0.04955478 -0.18032801 0.0022343912
000100 79 82 57 3d 84 87 ae bd d3 a4 53 bd b2 2d 47 bc
       0.052614663 -0.08521941 -0.05167086 -0.012156891
000110 ae a8 89 3d ec d9 0b 3e 09 a4 5a be 10 54 f9 bd
       0.06721626 0.1365735 -0.21351637 -0.12174237
000120 a4 04 9b 3d 87 29 33 3e 10 6f 48 3e 66 fb 2e 3e
       0.075692445 0.1749631 0.19573617 0.17088088
000130 25 88 63 3d d3 d2 1a be 0e f7 d2 bc d3 f1 16 be
       0.05554976 -0.15119486 -0.02575257 -0.14740686
000140 d1 4f 80 be fc 46 59 3e a7 3e 14 3e 80 34 53 be
       -0.25060895 0.21218485 0.14477025 -0.20625496
000150 63 d1 b8 bb fb b0 f1 3c 0d 49 8c bb e8 52 83 bd
       -0.005640195 0.029503336 -0.0042811693 -0.064122975
000160 91 d3 dc 3d ca 8b bb bd 1d 57 d5 3d e0 c7 07 3e
       0.107825406 -0.09157522 0.10417006 0.1325984
000170 dc c1 33 3e 9c 5b d8 3d 2c 6d 33 be 25 31 e1 bd
       0.1755442 0.10564348 -0.17522115 -0.10995702
000180 37 04 a3 3d 65 f8 be 3b 48 8c e3 bd ee 8f 0c be
       0.07959788 0.005827951 -0.11110741 -0.1372678
000190 87 b0 2d 3e 34 e3 2c 3e 5f c6 76 bd 0e 5e 76 bd
       0.16961871 0.16883546 -0.060247775 -0.06014829
0001a0 72 08 24 be 18 13 03 3d aa 1c bd bd 35 a2 a8 bd
       -0.16018847 0.03200063 -0.09233983 -0.082340635
0001b0 70 74 e6 bd 50 2a 88 3c 26 17 7d bd bb 60 12 3e
       -0.112526774 0.016621739 -0.061789654 0.14294712
0001c0 3f b0 d1 bd 45 08 54 3e d1 a0 25 3e 13 e3 19 be
       -0.102386944 0.2070628 0.16174628 -0.15028028
0001d0 82 ef ec bc 9a 98 fe 3c fa 27 64 3d 80 6d b5 3d
       -0.0289228 0.031078625 0.055702187 0.08858776
0001e0 47 37 5f 3d cb bb 75 bc 92 7f 74 bd af 1a 7e 3d
       0.054496076 -0.014998387 -0.059691973 0.062037166
0001f0 dc 16 6d be b5 79 f2 bd 11 8f f9 bc 33 d1 ba bd
       -0.23153251 -0.1183962 -0.030463727 -0.09121933
000200 c8 e3 a5 bd d1 5c 0d be 8d b2 d5 3c 41 56 c2 3d
       -0.081000865 -0.13804938 0.026086116 0.09489108
000210 69 0c 4c be 8a 98 05 3c c3 c7 10 3e 84 99 d2 bc
       -0.19926609 0.008154044 0.14138703 -0.025707968
000220 e0 4a 79 3a 3c ea b6 bc 9f d0 15 3d b7 04 00 3e
       0.00095097534 -0.022328489 0.03657591 0.12501799
000230 11 17 41 3e 2f 99 ff 3d 18 c1 48 3e dd 7d 5a 3b
       0.18856455 0.12480389 0.1960491 0.003333918
000240 e0 93 6c be 6f cb 1d be ae ec 52 3e b2 5e 3a bd
       -0.23103285 -0.15409635 0.20598099 -0.045500465
000250 6e 9e 22 be 89 03 4f be af 51 27 be ac 07 21 be
       -0.15880749 -0.20216192 -0.16339754 -0.15725583
000260 2a 62 aa bc 27 85 b6 3d a0 f7 e8 3d 48 3b 48 be
       -0.020798761 0.089121155 0.11375356 -0.19553864
000270 36 41 20 3e 79 c7 29 be b0 86 c7 bc bb 04 83 bd
       0.15649876 -0.16579999 -0.024356216 -0.06397387
000280 fb da a7 bc 17 d7 ad bc 74 3d 28 be aa 2a 21 be
       -0.02049016 -0.021220727 -0.16429693 -0.15738931
000290 19 0d 57 bc 3e 3e ad 3c 8f 59 96 bd 2f ed e2 3d
       -0.013125681 0.021147843 -0.07341301 0.110803954
0002a0 ad 00 48 be 60 cb 69 bd 23 8d 6b 3e 2d 1e 08 be
       -0.19531508 -0.05707872 0.23003058 -0.13292761
0002b0 91 17 dd 3d 94 75 71 3d 22 bd 33 be a9 4f 1d 3e
       0.107955106 0.058950022 -0.17552617 0.15362419
0002c0 92 66 cc 3c 5a 81 11 bd 80 91 66 3e b9 b2 9e bd
       0.024951253 -0.03552375 0.22516441 -0.077489324
0002d0 99 f7 2f bd 1c 05 cf bc 9e ee 39 3e a8 0c be 3d
       -0.042960737 -0.025270991 0.18157431 0.09279758
0002e0 f9 1e 09 3e a2 06 dd 3d 07 1c 59 bc 96 0f e9 bb
       0.13390721 0.10792281 -0.013251311 -0.0071124537
0002f0 cd 8e 07 be d5 f7 15 3e 94 8a 51 3e 20 1b 4b 3e
       -0.13238068 0.14645322 0.2046302 0.19834566
000300 a5 d7 e8 bd 4d 27 3d bd ef 57 93 bd 3a 2a 35 be
       -0.11369256 -0.04618006 -0.071945064 -0.1769189
000310 05 31 5b be 84 b4 b4 3d 0b f1 00 be e0 c6 05 3b
       -0.21405418 0.08823493 -0.1259195 0.0020412728
000320 83 3b 8f 3d 57 09 5b 3e 08 16 cc bd 6f 98 2b bd
       0.06993773 0.21390282 -0.099651396 -0.04189342
000330 e2 2d 42 be 33 18 6b 3e 21 ae 20 3c 1c bf 82 3e
       -0.18962815 0.2295845 0.009807141 0.2553643
000340 5e c4 20 3e ea 58 df 3d d1 57 a7 3d 0c 8d 2f 3d
       0.15699908 0.10905631 0.081710465 0.042859122
000350 f9 da de 3d 0d ed 15 3d de f0 be 3d 1f a0 0e 3e
       0.108816095 0.036603022 0.093232855 0.13928269
000360 07 9b 3c be 9a e8 20 be bb 12 4f 3e a9 03 51 be
       -0.18418513 -0.1571373 0.20221989 -0.20411552
000370 51 60 84 bd 59 0d 77 3e 5b 5f b5 3d c0 a5 85 bb
       -0.064636834 0.24126185 0.08856078 -0.004078597
000380 a7 4c d8 bd 3a 6b 2b 3e b2 4e 00 be 9c 4e 0a 3d
       -0.10561495 0.16740122 -0.1253002 0.033766374
000390 51 71 1c be 49 3a 16 bd 9e e7 0c 3d ea 5a 4d 3e
       -0.15277602 -0.03667668 0.034400575 0.20054212
0003a0 0c 20 6c 3d bb 21 5c 3e 44 c1 20 3e 06 93 c6 bd
       0.05764775 0.21497242 0.15698725 -0.09696011
0003b0 72 33 fd 3d 9e db e5 bd e3 14 40 bd 9f 7d ed 3d
       0.12363328 -0.11223529 -0.04689492 0.11596226
0003c0 57 5d 63 3c ab e9 a1 3d e7 df bd bc 38 cc 21 bc
       0.013877234 0.07905897 -0.023178054 -0.00987535
0003d0 f0 0a 8e 3d 0e 41 28 be b6 f2 d0 3d 04 62 ea bd
       0.0693568 -0.16431066 0.102025434 -0.11444476
0003e0 d3 37 90 bd 78 6f 25 bc 3f 83 03 bc 64 ac 45 3d
       -0.070418976 -0.010097377 -0.008026897 0.048260108
0003f0 fa 66 93 3d 58 b5 b0 bd 6b 50 5a be 78 8d 2b be
       0.071973756 -0.086283386 -0.2131974 -0.16753185

net.0.bias f4 [64]
000000 76 f4 0a bb 29 2a 88 3d 7b 5c 34 3d da 7f 71 3c
       -0.002120284 0.066486664 0.04403351 0.014739955
000010 6a 68 70 3e c0 60 fe bd db f4 e5 3d 3d b2 77 3e
       0.23477331 -0.12420797 0.11228343 0.24189086
000020 d0 f5 9f 3d 5b a5 5f 3e b7 1c ab bd 26 68 05 be
       0.07810557 0.21840422 -0.08355086 -0.1302801
000030 29 68 01 be 85 65 df 3d 38 68 aa bc 10 92 fb 3d
       -0.1263739 0.10908035 -0.020801648 0.122837186
000040 75 46 8c 3e 18 dd e7 3d f6 5a 35 3d 81 c7 06 3e
       0.27397504 0.11321467 0.0442762 0.13162042
000050 1c 59 c5 bd 2a 1d 1c be ce 8a b8 bd 4a 63 22 be
       -0.09636137 -0.152455 -0.0901085 -0.15858188
000060 6a b9 ca 3d 0f 5c cb 3c c4 1b 6d bc ba 4c 4e be
       0.09898646 0.02482417 -0.014471952 -0.20146456
000070 8a 63 c4 3d d0 7c 3c bd fa 02 0c 3b 1a 7c 1c be
       0.09589298 -0.046017468 0.002136408 -0.15281716
000080 81 76 e5 bc 24 ea a9 3d bf 37 5e be 34 b9 a0 bd
       -0.028010609 0.08296612 -0.21700953 -0.07847825
000090 ca 09 c6 3d 0f 9c 29 be b4 f4 82 bd 01 06 4b bd
       0.09669836 -0.16563438 -0.0639433 -0.049566273
0000a0 1e 98 22 3e d0 61 1a be f8 14 f1 3c e2 c1 2c 3e
       0.1587834 -0.15076375 0.029428944 0.16870835
0000b0 74 1f 91 bd 50 ed 42 bc c2 91 2f be a2 6c d9 3d
       -0.07086077 -0.0118974 -0.17145446 0.10616423
0000c0 17 1b 38 3e c6 d2 df bc 74 c1 58 be 9c 0b e9 3c
       0.17979084 -0.027322184 -0.21167547 0.028447919
0000d0 f3 bb 59 3e 28 d4 18 bc 0b 41 08 3e a1 a5 5d 3d
       0.21263103 -0.009327926 0.13306062 0.054113034
0000e0 c2 78 25 3b bc 0b 88 3d a5 72 48 3e 87 49 84 3d
       0.002524898 0.06642863 0.19574983 0.06459337
0000f0 24 4c 5c bd a5 0a 8e 3c a1 a1 1a 3e dd 51 e5 bb
       -0.05378355 0.01733906 0.15100719 -0.0069982843

net.2.weight f4 [64, 64]
000000 b8 d2 a7 bd d4 1a c1 3d 95 07 67 3d f6 b1 9e bd
       -0.08194488 0.09428945 0.056403715 -0.07748787
000010 c3 2c c0 bc 7a f9 2f bd c9 0c 0e 3c d4 96 d7 bc
       -0.023458844 -0.04296253 0.00867004 -0.026317038
000020 54 99 04 be 93 aa 14 bd 14 de 85 3b fc 33 81 bc
       -0.12949115 -0.036295485 0.0040853117 -0.015771858
000030 af 0c ab bd 9d 32 90 3c 87 12 09 be 2b cb e5 bb
       -0.083520286 0.01760226 -0.13385974 -0.007012745
000040 ed d5 06 3d 15 71 98 bd 1d 9f 02 be 43 fd 2e bd
       0.03291886 -0.07443444 -0.1275601 -0.042721998
000050 30 67 97 bc f6 14 fa bd 25 d7 00 be 38 d3 c5 3d
       -0.01848182 -0.12211029 -0.12582071 0.096594274
000060 48 bf 86 3d 19 f3 9c 3d 97 a8 74 3d 06 dd 3f 3c
       0.06579453 0.07663555 0.059731092 0.011710411
000070 a3 b9 78 3d 96 62 d4 3c 82 a7 6b bd a1 c3 1b bd
       0.060723912 0.025925916 -0.057532795 -0.038028363
000080 6e 5b 4b 3d ed c7 2e bc 29 2c f0 bd 66 ce b9 bd
       0.04964774 -0.010667783 -0.11727173 -0.090725705
000090 92 29 55 3d f3 09 b0 3d 14 c0 92 3d a1 f8 75 3c
       0.052041598 0.08595648 0.07165542 0.015012891
0000a0 2a 4d f5 3c 1f 79 f3 bd 7f 88 ce bd c9 1a 17 be
       0.029944021 -0.118883364 -0.10084628 -0.14756311
0000b0 b8 30 c4 3d bc 56 bd bc d9 b0 a4 bd a2 dd b2 3c
       0.09579605 -0.023112647 -0.080415435 0.021834198
0000c0 7b 48 d3 bd eb c5 bc bd 25 ca d2 3c b6 d1 bf 3c
       -0.10316559 -0.09217437 0.025731156 0.023415428
0000d0 4a 76 e7 bd 36 50 e7 bd 0c c8 4c 3d c9 71 81 3d
       -0.11301859 -0.11294596 0.049995467 0.06320531
0000e0 f7 94 0a bd 3a e3 c5 bd db 45 18 3d 95 c1 0d bd
       -0.03383347 -0.09662481 0.037175994 -0.034608442
0000f0 80 00 1b be a1 08 c2 bd 23 72 9c 3c fd 0a 10 3d
       -0.1513691 -0.09474302 0.019097393 0.03516673
000100 61 9b bc bd 16 bd b7 3c bf 5c b6 bd 65 86 b5 3d
       -0.09209324 0.02242903 -0.08904409 0.08863524
000110 b9 ae 3e 3d ef 00 14 bc 5b 70 f9 3c 31 10 1e bb
       0.046553347 -0.009033426 0.030449083 -0.0024118538
000120 00 7f e8 bd ba 83 32 bd 2f 32 a7 3b 04 8c 81 bd
       -0.11352348 -0.043582655 0.005102418 -0.06325534
000130 fc 74 c1 3d 7c 8e 8c bd d2 24 2c be 3d 6a 9d bd
       0.09446141 -0.06863114 -0.16810921 -0.07686279
000140 60 09 15 be 2a 39 91 3d 6e 35 c3 bd ba ca 03 be
       -0.14554358 0.07090981 -0.09531675 -0.12870303
000150 2a 4a 55 bc 95 d7 07 be e9 d0 a3 bd 1b 72 da 3c
       -0.01301817 -0.13265832 -0.07998831 0.026665738
000160 e5 9c 06 be d8 c7 ac 3d bb 18 21 3d 93 82 19 3b
       -0.13145788 0.08436555 0.039330225 0.0023423776
000170 94 86 01 3d 8b 7f f2 bd 09 0b 80 3d cf b7 b3 3d
       0.031622484 -0.11840733 0.06252105 0.08775293
000180 00 44 ba bc 31 a6 87 3d 05 a2 06 be 77 31 00 bd
       -0.022737503 0.06623495 -0.13147743 -0.031297173
000190 e7 c3 15 bb a9 3a 07 be 50 68 2a 3d 4e 94 8a bd
       -0.0022852363 -0.13205971 0.041603386 -0.06766568
0001a0 fa 32 94 bd 79 d0 b1 bd ae 58 25 3d 25 b0 06 be
       -0.072362855 -0.08682341 0.040367775 -0.13153131
0001b0 55 92 65 bd 43 1f 50 3c 4c db c0 3d f2 a9 b6 bc
       -0.056047756 0.012702766 0.094168276 -0.022297833
0001c0 90 63 25 bd 4d 1e a9 bd e3 4d 4d 3d b6 69 40 ba
       -0.040378153 -0.082577325 0.050123107 -0.0007339971
0001d0 44 37 80 3d 9e 15 44 3d e5 54 5e 3d cd bf f6 bd
       0.06260541 0.04787218 0.05428018 -0.12048302
0001e0 f2 ff 85 3d 2d fc 95 bd 90 19 80 bd e0 eb 41 bd
       0.06542958 -0.07323489 -0.06254876 -0.04734409
0001f0 4a 7b 0d bd 68 17 d1 bb a2 cd 8d 3d a9 45 ca bd
       -0.034541406 -0.006380964 0.06923987 -0.09876568
000200 a8 87 ab 3c ac e9 c8 bd 7b b7 2a 3c 4c a1 de 3d
       0.02093871 -0.098101944 0.010419722 0.10870609
000210 08 f7 58 3d 05 5a a0 3d 3c 80 85 3d d3 5b b6 bc
       0.052969962 0.0782967 0.065185994 -0.022260582
000220 cf ca a5 3b c1 77 c7 bd 3b 6d bf 3d 41 1c cb 3c
       0.005059577 -0.09739638 0.09347006 0.024793746
000230 be 76 ea bd 1a 35 64 3d 46 e8 28 bd 55 49 30 bd
       -0.114484295 0.055714704 -0.04123714 -0.043038685
000240 df 35 bf bd 36 5a c3 bd 58 2d af bc 80 49 b4 bd
       -0.09336447 -0.09538691 -0.021383926 -0.088030815
000250 d1 04 05 be d5 a3 f1 bd 86 16 ad bd a3 4b a0 3d
       -0.12990119 -0.117988266 -0.08451562 0.078269266
000260 78 8e 4c 3d 4d 1a 9b bd 9b a1 9f bc 61 ee 09 bd
       0.049940556 -0.07573376 -0.01948624 -0.0336746
000270 f0 9a aa bd 81 14 91 bd eb e3 c9 bd 92 ed 1e 3d
       -0.08330333 -0.07083989 -0.09857925 0.038800783
000280 27 bb 9b bd be 26 1d 3b a4 d0 af bd c1 7a 66 bd
       -0.07604056 0.002397939 -0.08584717 -0.05626941
000290 7e c2 97 3d 55 0f bd bd 2b a2 6f bd 52 b7 ac 3d
       0.07410143 -0.0923144 -0.058504265 0.08433403
0002a0 dd 87 a5 bb 82 35 33 bd 10 e4 ce bd 4b d5 ce bd
       -0.0050515966 -0.0437522 -0.10102093 -0.10099276
0002b0 83 06 45 bd 3b 8e 34 3d 53 72 a5 bc a0 64 8f 3d
       -0.048101913 0.044080954 -0.020196116 0.070016146
0002c0 c8 d5 18 be 78 8f 88 bd f7 aa 00 bc 71 50 bc 3d
       -0.14925301 -0.066679895 -0.007853261 0.091950305
0002d0 a4 dc bf 3d f7 e6 80 3d 7d 87 88 3b fb 59 bd bd
       0.09368256 0.06294053 0.004166542 -0.09245678
0002e0 7e c3 3b 3d a7 d9 0d be 9d af 81 bd dc 8a 3e be
       0.045840733 -0.13852559 -0.06332324 -0.18607658
0002f0 28 a3 74 be bf 32 8e 3d d8 b7 8f bc 52 e1 22 3d
       -0.23890364 0.06943273 -0.017543718 0.039765663
000300 eb 0f 98 3d c2 48 68 3d 24 15 4d 3d 37 ab bf bd
       0.07424911 0.056710012 0.05006899 -0.093588285
000310 ff 2a f8 3c ec cf 23 3d b2 69 02 3d b3 e0 93 bc
       0.03029394 0.03999321 0.03183908 -0.01805148
000320 cf 10 d8 bc 9b f0 20 bd 60 1c da bd a1 ce ed bb
       -0.026375202 -0.03929196 -0.10649943 -0.007257298
000330 78 e7 be bd b3 a1 53 3d f7 32 f0 bd b4 48 9d bd
       -0.09321493 0.05166788 -0.11728471 -0.07679883
000340 7e 2b b3 bd 52 64 b1 3d f0 86 ed bd 41 d1 9c 3c
       -0.0874853 0.08661713 -0.11598003 0.019142749
000350 f0 c7 7d 3d 12 0e 87 3d 3e 12 08 3d fc 6e 46 3d
       0.061958253 0.065944806 0.033220522 0.048445687
000360 45 dd a8 3d 97 d6 21 3c 66 a7 37 3c cc 1e d7 bd
       0.08245329 0.009877822 0.0112093445 -0.10503921
000370 c7 5e ed bc 9e b1 e8 bc 8d 15 96 bc 5f f2 aa bd
       -0.028975857 -0.028405007 -0.018320823 -0.0834701
000380 6c 5a 01 be 02 d3 70 bd 20 16 23 3d 2b a7 d0 3d
       -0.1263215 -0.058794983 0.039816022 0.10188135
000390 08 e9 10 be 1a e2 35 3d 53 c3 0b be 23 ba 11 be
       -0.14151394 0.04440508 -0.13648729 -0.14231162
0003a0 5e 59 f9 bd 2d e3 16 bd ce 04 15 3d 20 41 09 be
       -0.121752486 -0.036837745 0.036381535 -0.1340375
0003b0 70 29 b2 3d b3 7c bf 3d 00 03 fc 3b 36 40 82 3d
       0.0869931 0.09349956 0.0076907873 0.063599035
0003c0 c5 24 ae bd 8f 5a 9c bd dd a9 0a bd 67 19 5a 3c
       -0.08503107 -0.0763446 -0.0338534 0.01331172
0003d0 ec 79 dc bd 6e 97 ab bd 9e b6 02 3d 31 1d 0b 3d
       -0.10765442 -0.08378492 0.03191244 0.033963386
0003e0 be 75 a8 3d de b2 a1 bd e4 9c dd 3c c7 50 c6 bd
       0.082255825 -0.07895444 0.02705235 -0.09683376
0003f0 2a 2e 45 3d 36 54 c8 bc 5e 1f 92 3d ca 26 26 3d
       0.04813973 -0.024454217 0.07134889 0.040564336

net.2.bias f4 [64]
000000 d5 c6 31 3d c9 fe 5b 3c 88 95 cd bc 74 42 85 3d
       0.04340251 0.013427445 -0.025095716 0.065068156
000010 e0 5d 65 bd 2a f9 fa bd f9 87 0b bd f7 1d 33 3e
       -0.05599773 -0.122545555 -0.03406522 0.174919
000020 4e 5d 13 3d 80 37 82 bd 02 53 16 3d 6c 7e 89 bd
       0.035977654 -0.06358242 0.036700256 -0.06713566
000030 d8 c5 e0 3d dd 50 a6 bd 8d 55 ea bb ee 0d 06 bd
       0.10975236 -0.08120892 -0.0071513117 -0.032728128
000040 32 d9 3e 3d 2b db 22 3d 61 c9 cd bd 06 31 67 3b
       0.046593852 0.039759796 -0.100481756 0.0035277023
000050 5b 30 e9 bb cd 8e 84 3d 3f d9 d9 3c f4 b0 16 3e
       -0.00711636 0.064725496 0.026592849 0.1471594
000060 34 01 9f 3b b8 75 10 be d3 0b e3 bd 0f ee 28 bd
       0.0048524383 -0.14107406 -0.1108624 -0.041242655
000070 1c 96 35 bd 39 3b a1 3d f6 5d 6e 3d 00 74 70 b9
       -0.04433261 0.07872624 0.058195077 -0.00022931397
000080 19 31 45 bc 01 8f fe 3d 24 75 b3 3d b1 1c a8 3b
       -0.012035632 0.124296196 0.08762577 0.0051303734
000090 5e 4c 9a bd 98 52 c2 bd cf 47 4f 3d 1c 3a d4 3d
       -0.07534097 -0.0948841 0.05060559 0.10362646
0000a0 08 65 bb 3c 9c 0a 8a 3d 87 8d 0a 3c ff 06 a6 bd
       0.022875324 0.06740305 0.008456594 -0.08106803
0000b0 e1 e6 d3 3d cc 79 5d 3d a0 de 63 bd bb f7 13 3d
       0.10346771 0.054071233 -0.055632234 0.036124926
0000c0 1e b7 84 3d ec 40 80 3a 45 bb e1 3d b7 16 3f 3d
       0.06480239 0.0009784973 0.11022047 0.046652522
0000d0 44 ba 09 3e 7a 56 5b 3d d5 79 0a be b1 53 46 3e
       0.13449961 0.053549267 -0.13523038 0.19367863
0000e0 9f 49 da 3c 00 05 e3 3d e0 2b 36 3e e6 17 0d be
       0.026646433 0.11084938 0.17790174 -0.13778648
0000f0 3f 33 5f bd 38 88 bb b9 1e 55 ac 3b 50 55 02 3d
       -0.05449223 -0.0003576891 0.00525917 0.03181964

mean.weight f4 [4, 64]
000000 5e be d7 bd 4b c3 2c 3d d0 4c c5 bd 9c fd 3a 3d
       -0.105343565 0.042178433 -0.096337914 0.045652017
000010 4a 8f 9a 3d 25 55 68 bd b7 18 6f 3d 69 40 fa bc
       0.075468615 -0.056721825 0.05837318 -0.030548291
000020 1b 40 62 bd a4 4f b8 bb 19 aa ed 3c e0 3c a0 3d
       -0.055236917 -0.0056247283 0.029011773 0.07824111
000030 cc c0 9a bd 95 52 a3 3d 2c c3 95 bd 2d 03 e0 bd
       -0.07556304 0.07974736 -0.07312617 -0.10938106
000040 60 28 d2 bd 2b 14 04 be 0c f6 49 bb 49 b3 7c 3c
       -0.10261607 -0.12898318 -0.0030816821 0.015423604
000050 cc 1a 8c bc b8 1f 99 bd fe e8 43 3d 2d 6f a0 3c
       -0.017102621 -0.07476753 0.04782962 0.019584263
000060 44 50 b6 bc f2 7f aa ba 65 80 54 3d 23 7b 86 bd
       -0.02225507 -0.0013008101 0.05188026 -0.06566455
000070 cd 4a 6b bd e1 b5 9b bd 37 95 e3 3d 88 33 fd 3c
       -0.057444382 -0.0760305 0.11112445 0.030908361
000080 0d ef a4 bd 39 11 a7 3d 6a 16 09 bd 6d 50 32 bc
       -0.08053408 0.08157582 -0.03346864 -0.010883433
000090 f9 7c 56 3c fe 04 e0 bb 92 c3 e2 3d 3f 0d 02 3d
       0.013091319 -0.0068365326 0.11072458 0.031750914
0000a0 76 b3 72 3d bb 36 ba bd 1b 71 c2 3c 09 2c c6 bd
       0.05925318 -0.0909247 0.023735574 -0.09676368
0000b0 b4 d6 4d bd 87 12 6d 3d b6 f4 fb bd 36 7e 88 bc
       -0.050253585 0.057878997 -0.12302534 -0.016661745
0000c0 98 71 3f bd 44 f8 1b 3d b3 cd be bd a5 0b da 39
       -0.04673919 0.03807856 -0.09316578 0.00041588876
0000d0 c7 f6 17 bd d6 d2 dc 3d 1c 94 8d bd 23 a0 d0 bd
       -0.03710058 0.10782401 -0.06913015 -0.10186794
0000e0 fc 0b 12 bd d7 da 87 3d b8 d2 e9 3c 97 51 88 3c
       -0.03565596 0.06633537 0.028542861 0.016640468
0000f0 03 ab 07 3d 5b db a7 3c bd aa 4e bd 3d 26 98 bd
       0.033122074 0.020490339 -0.050455797 -0.074291684
000100 36 5b 0e be b1 3b 59 3d 30 de b5 3d 0d cd 90 bd
       -0.13901982 0.05303544 0.088802695 -0.0707036
000110 1a 7b 31 bd 38 69 48 3c 3d 4c f6 bc 1b ab 43 3d
       -0.04333029 0.012232117 -0.03006565 0.0477706
000120 d0 85 13 bd 40 60 56 bc bf 81 2c be 32 bf d8 3c
       -0.036016285 -0.013084471 -0.16846369 0.026458357
000130 db 77 99 bc de c5 0d 3d dc 61 a7 3d 13 67 10 3d
       -0.01873391 0.03461253 0.08172962 0.03525455
000140 a1 5a 98 bd 1f f7 9d bb 37 9c bc bd f3 b6 e2 3d
       -0.07439161 -0.004820719 -0.09209483 0.11070051
000150 c0 19 c2 3d f9 24 b0 bc cd f7 d8 3d 64 90 d0 3d
       0.09477568 -0.021502005 0.10594139 0.1018379
000160 0b 5e be 3d dc 4f 1e 3d c3 2c 44 3d 41 f6 7c bc
       0.09295281 0.03865038 0.04789425 -0.015439571
000170 0d 73 31 bc 3a 98 cb 3d dd 4d b9 bc 00 ca 1f 3d
       -0.010830653 0.09941144 -0.022620136 0.039011
000180 68 ca 6d bd 6b 1e 88 3a 00 9e 39 3d 2f 3c 02 3d
       -0.058054358 0.0010385042 0.045316696 0.031795677
000190 11 9f 7e 3d 32 27 5c 3d f0 1d 1a bd cb 8d c7 3d
       0.062163416 0.053748317 -0.037626207 0.09743842
0001a0 60 ea d6 3d cf 4d ee 3d 5b 12 10 be b2 00 84 bd
       0.10493922 0.116359346 -0.14069502 -0.06445445
0001b0 46 93 fb bd ad 26 8e bd 9c 9b c3 3d b3 72 08 be
       -0.122839496 -0.069409706 0.095511645 -0.13325004
0001c0 b8 e7 08 3d 66 d8 c4 bc 0e 44 eb bd 8d 85 b6 bc
       0.03342411 -0.024028968 -0.1148759 -0.022280479
0001d0 0e 8e 08 bd cf 17 79 bd c2 78 b1 bd bb 40 57 3d
       -0.0333386 -0.06081372 -0.08665611 0.052551966
0001e0 e3 00 01 bd d7 c9 4d bd 6d 38 63 bd 43 ec c9 bc
       -0.031494986 -0.050241318 -0.055473734 -0.024648791
0001f0 33 cf a7 bd 37 22 0b be de 18 42 3d 7b c4 b0 bc
       -0.08193817 -0.1358727 0.047386996 -0.021578064
000200 08 1a 9a bd 7b b5 25 bd 1f 8d 04 bd f6 97 20 bd
       -0.07524496 -0.040456276 -0.032361146 -0.03920742
000210 13 a6 56 ba 16 6f 0b 3e c4 88 d2 bc aa 78 81 3c
       -0.0008188199 0.13616595 -0.02569998 0.015804607
000220 a9 50 1a 3e 6a 16 ca ba ae 53 d6 bc 30 93 69 3d
       0.15069832 -0.0015418057 -0.026162948 0.057025135
000230 92 f9 29 3d f8 48 23 ba e2 30 e9 3d 46 66 96 bd
       0.041497774 -0.000622883 0.11386277 -0.07343726
000240 fb f0 e0 bb 83 d7 c8 3d 7b 3f 8d bc 70 1b 9b 3b
       -0.0068646646 0.098067306 -0.017242184 0.0047334954
000250 4b 8a e9 3d 9f 99 f5 bc 09 2c 00 bd 90 2f f5 bc
       0.114033304 -0.029980479 -0.031291995 -0.029929906
000260 47 c2 00 be d4 ef bb bd 40 02 d9 bc 19 c9 eb bd
       -0.12574111 -0.09176603 -0.02649033 -0.11512966
000270 f4 72 d5 bc 16 e4 c1 3c 29 f8 ce 3d 06 6d fc 3d
       -0.02605579 0.02366833 0.101059265 0.12325482
000280 28 46 0a 3e 4d fd 9f 3d 60 cd cf 3d c4 d6 b3 3c
       0.13503325 0.07811985 0.10146594 0.021952994
000290 8a aa 8e bd 33 a7 32 3d 3b 3d d5 3d 76 61 8b 3d
       -0.069661215 0.043616485 0.104120694 0.068056986
0002a0 df f4 c9 3d 9d 8a 1c bd f2 ca 06 3e 1b 64 9b 3d
       0.098611586 -0.03821813 0.13163355 0.07587453
0002b0 b6 e6 88 3c e7 b7 28 3e cc 83 38 3d b6 8b 3c 3d
       0.016711574 0.16476403 0.045047566 0.046031676
0002c0 32 ac 79 3d 97 1a 10 3e 34 0a 92 3d 05 9d 67 3d
       0.060955234 0.14072643 0.07130852 0.05654623
0002d0 a0 5e 1b 3e 73 80 1a 3c a7 cb e8 3d 36 c2 1a bc
       0.15172815 0.009430039 0.113669686 -0.009445718
0002e0 21 59 4d 3d df 01 90 3d 70 c5 83 3d 26 cc ae bd
       0.050133828 0.07031607 0.064341426 -0.08535032
0002f0 af 9b 38 3e c1 ad 20 bd 00 6e e2 3d 56 c0 b8 3c
       0.18028139 -0.039228205 0.11056137 0.02255265
000300 b8 a4 77 3d 1d 41 62 bd bb e9 90 bc 63 95 d4 3c
       0.060459822 -0.055237878 -0.017689576 0.02595014
000310 e3 99 ca 3d 80 40 2e bd aa 4c 51 3d 36 8a 3e bd
       0.09892633 -0.04254198 0.051098503 -0.046518527
000320 af 22 84 3d 44 50 09 3c d8 ea 45 bc c6 23 3b 3d
       0.06451928 0.008380953 -0.012079917 0.045688413
000330 d0 0c 07 bd a1 35 83 bd a6 ad 18 bc 5f df c1 3d
       -0.032971203 -0.06406713 -0.009318745 0.09466433
000340 4e b9 08 3e f4 71 e9 3d 46 7d c6 3d 24 2e 49 bd
       0.13351938 0.11398688 0.09691863 -0.04911627
000350 1d 58 03 3e 30 39 89 3d fd 22 2e 3d 55 dc 0e bd
       0.12826581 0.06700361 0.042513836 -0.034878094
000360 dc d2 f7 bc 06 7a c0 3c e7 1e 62 3c 12 b5 49 bd
       -0.030251913 0.023495685 0.013801313 -0.049244948
000370 23 e6 7c bd 68 00 a9 3d c6 5b 6c 3d c0 8c 86 3c
       -0.061742913 0.082520306 0.05770471 0.016424537
000380 95 5c 97 3c 28 b4 ad 3d ee b1 a6 bd ed b9 32 3c
       0.018476764 0.08481628 -0.08139406 0.010908586
000390 bd 05 f7 3d 79 8e 4d bd de 6b bb bd 3e de 2a bd
       0.12061641 -0.0501847 -0.091514334 -0.041715853
0003a0 9f f3 d1 3d c3 7a 4e 3d cc 93 b7 3d 37 7e 2c bd
       0.10251545 0.050410043 0.08963737 -0.042112555
0003b0 6d 6f 2a bd ac 5d b5 bd 50 4c 0d 3c 37 f7 05 bc
       -0.04161017 -0.08855757 0.008624151 -0.008176616
0003c0 91 79 f5 3d 9c 48 e6 bc 6b 9b 64 bd 7b cf 78 3d
       0.119860776 -0.028110795 -0.05581228 0.060744744
0003d0 2c 3d 0b bd 65 0e 10 bc 46 86 0b 3e b8 dc d2 3d
       -0.033993885 -0.008792494 0.1362544 0.10296005
0003e0 70 55 de bd 04 cc 5a 3c 3d a1 07 3d 0a 1a e8 3d
       -0.1085614 0.013354305 0.033112753 0.113330916
0003f0 5b 9f 74 bd b7 db a1 3d eb b8 bd bd 14 ad d4 bd
       -0.059722286 0.079032354 -0.09263786 -0.103845745

mean.bias f4 [4]
000000 e1 b0 92 bd c5 46 08 be 16 dd 34 3d d3 5b e9 3d
       -0.07162643 -0.13308246 0.044156156 0.11394467

log_std.weight f4 [4, 64]
000000 27 28 f6 3c d0 29 8f bd 54 73 21 3d ab be 19 bd
       0.030048443 -0.06990397 0.039416626 -0.03753535
000010 73 b2 10 3e 2a 6a 1a 3d fa 45 1b 3e cf 88 31 3e
       0.14130573 0.037698902 0.15163413 0.17337345
000020 3b 90 25 3e fd 2d c5 3d cb 1c 1e 3e f2 94 7d bd
       0.16168301 0.09627912 0.15440671 -0.061909623
000030 84 84 3c 3d c1 9e f5 3d 2e d9 cb 3d d4 e7 d8 3d
       0.046024814 0.119931705 0.09953533 0.10591093
000040 cf e4 cc 3c b7 8a 42 3d 80 56 ec 3d db 03 1b 3e
       0.025011448 0.04749557 0.11539936 0.1513819
000050 df df f8 3d 03 d5 84 bd 62 a1 b0 3d 02 24 cc 3c
       0.12152075 -0.06485941 0.08624531 0.024919514
000060 1f 14 84 3d 81 dc ba 3d d6 54 cd bc 7f c1 de 3d
       0.0644915 0.09124089 -0.025064867 0.1087675
000070 ab 47 19 3e 61 df 3c 3d b2 b2 89 bd c0 f9 2a 3b
       0.14968745 0.04611147 -0.067235366 0.0026088804
000080 0c 53 01 3e 34 16 b4 3d 4f e7 3d 3e 03 27 47 3d
       0.12629336 0.087932974 0.18545268 0.04862119
000090 0c 01 77 bd 49 4d 91 3d 2f 5d 6b 3d 10 61 e5 3d
       -0.060303733 0.07094819 0.057461914 0.11200154
0000a0 e6 b0 c0 bc aa 16 df bc 85 26 d2 3d 87 5b 3e 3d
       -0.023521852 -0.027232487 0.10261253 0.046474006
0000b0 a7 b6 16 3e 9b 04 3d bd f8 98 6b bd 5f 39 b4 3d
       0.14718114 -0.04614697 -0.05751893 0.08800005
0000c0 b3 44 17 3c 89 f4 ca 3d 7a 4f 07 3e b8 38 51 3e
       0.009232688 0.09909923 0.13213912 0.20431793
0000d0 79 c7 83 3d 99 1e e3 bd f7 42 94 bc 1c 4e b9 3d
       0.06434531 -0.110898204 -0.018098338 0.09048101
0000e0 c8 be 9e 3a cc 9b 92 3d 13 b1 ec 3c a7 3a e2 3d
       0.0012111301 0.07158622 0.02889303 0.11046343
0000f0 0e 40 01 3e 93 06 f2 3d 74 6a c9 3d 4b 33 f2 bc
       0.12622091 0.1181766 0.098347574 -0.029565474
000100 7f 60 68 bc 2b 95 85 bb ab 38 fe 3d 24 a4 64 3d
       -0.014183163 -0.00407662 0.12413152 0.0558206
000110 06 2b de 3d 36 f6 37 3d b4 fb 3b 3d aa 04 d9 3d
       0.1084805 0.04491254 0.04589434 0.10596593
000120 9f 6a be 3d 48 ab 0d 3e 44 a2 38 bc 60 84 18 3d
       0.0929768 0.1383487 -0.011269156 0.037235618
000130 72 35 72 3e 8e 08 a0 3d 13 4c 2f bd 29 a7 d9 3d
       0.236532 0.07814132 -0.04279716 0.106275864
000140 65 49 63 bc cc 88 dd 3d b4 f5 22 3d 41 86 5d 3e
       -0.013872479 0.108171076 0.039785102 0.21633245
000150 95 b7 31 3e 14 bb 27 3d 57 10 34 3e 83 e1 88 3e
       0.17355187 0.040949896 0.17584358 0.26734552
000160 41 b6 03 bd 8a d8 96 3d 60 0d e5 3d d3 d3 2a 3c
       -0.032156233 0.0736552 0.11184192 0.010426479
000170 7a d9 48 3e 8e 32 0a 3e b3 0e 3e bd cc 95 8b 3d
       0.1961421 0.13495848 -0.046400737 0.06815681
000180 3b ed 99 bd c3 97 32 3e 24 1d 28 bc a4 ec 2d 3d
       -0.07515951 0.17440705 -0.010260854 0.042462006
000190 96 0a 4c 3d f2 ca d7 bd 33 b2 a4 3d 08 06 62 3d
       0.049814783 -0.105367556 0.08041801 0.055181533
0001a0 69 ed e4 3d 1f 7e 4e 3d b6 aa a7 bd 2f ab ee bc
       0.11178095 0.050413247 -0.081868574 -0.029134361
0001b0 dd 58 dd 3d ea 9b b8 3d 7c 27 92 bd 56 60 f6 3c
       0.10807965 0.09014113 -0.07136437 0.030075233
0001c0 6c 67 5d 3e 88 7f 7f bd 36 4c 80 3d 42 6b ef bc
       0.21621484 -0.062377483 0.06264536 -0.02922595
0001d0 c2 86 33 3d 51 66 be bd b2 81 1b 3d d3 ef 5c 3e
       0.043829687 -0.09296859 0.037965484 0.2157586
0001e0 ab 96 0c 3e 9e 9c 62 bc eb 36 60 3e b6 b2 c8 bd
       0.1372935 -0.013831286 0.2189595 -0.097997114
0001f0 76 d1 08 3d 97 d6 45 3e 58 d2 b6 3d e6 6c 2f 3e
       0.033402883 0.19320141 0.08926839 0.17131385
000200 fc 05 c8 3c 1d ab bd bd 70 3f 9f bd 9a ff 10 3d
       0.024416916 -0.09261153 -0.077757716 0.03540001
000210 67 6b bd bd 7f 1b c0 bc d0 35 f6 3d de 73 ad 3d
       -0.09249001 -0.023450611 0.12021983 0.084693655
000220 31 b7 1d 3e af bd e4 bc 6d d8 a8 3d 92 e0 f2 3d
       0.15401913 -0.02792248 0.08244405 0.1185924
000230 2b fb da 3d 95 fd 3d 3d 52 80 9e bc 3f 76 a8 bd
       0.10692438 0.046384413 -0.019348297 -0.08225679
000240 ef b7 f4 3d 33 0e c1 bd b4 e6 fd 3c 57 45 26 bd
       0.11949145 -0.094265364 0.030993797 -0.04059347
000250 c9 01 65 3d 53 f1 c7 bd d3 78 b1 3d c9 cf 80 3d
       0.055909906 -0.09762826 0.086656235 0.06289632
000260 dd d7 50 bd aa 59 a2 bc 8a e4 07 bd 76 23 61 bd
       -0.050987113 -0.019818146 -0.033176936 -0.05496546
000270 f7 e8 b9 3c a4 60 41 3d 66 c3 53 bd 50 37 01 3d
       0.022694094 0.047211304 -0.05170002 0.03154689
000280 28 96 7b bd 5c 22 31 3e b2 97 18 bd cb 31 d0 3d
       -0.061422497 0.17298263 -0.037254043 0.10165747
000290 20 29 83 bd e0 c8 94 bd 9c 33 a1 3b fe 5a ec bc
       -0.06404328 -0.07264876 0.0049194824 -0.028851982
0002a0 08 fb 7a 3c ce 23 f4 bb 92 ae 22 3a 1a 43 b2 bd
       0.01531864 -0.0074505573 0.00062058226 -0.08704205
0002b0 05 45 31 3e 84 c7 f4 3d 98 e7 36 bd cf ab 36 3e
       0.17311485 0.11952117 -0.04465446 0.17838977
0002c0 22 03 c9 3c 7c 54 8a bd da 31 9e 3d 8f ba ff 3c
       0.024537627 -0.06754395 0.07724352 0.031216888
0002d0 21 5c 03 3e 1e a9 aa bc 90 4c 76 bd 1a 11 26 3e
       0.12828113 -0.020832594 -0.06013161 0.16217461
0002e0 01 77 7d 3d d3 77 8b 3d 27 f4 43 3d 20 b5 b6 bd
       0.06188107 0.06809964 0.047840264 -0.089212656
0002f0 8b 48 e2 3d d6 0b 71 3d d1 a4 d0 bc 03 16 f0 3d
       0.11048993 0.05884918 -0.025469216 0.117229484
000300 ee be 9b bd dd ce 60 bd 65 8e eb 3c 7a fe c7 bd
       -0.07604776 -0.05488478 0.028754422 -0.097653344
000310 b9 c0 b5 bd ff dd 87 3c 50 f5 a1 3c 46 bb 47 3e
       -0.088746496 0.016585348 0.019770294 0.19505033
000320 59 74 fc 3d ad f6 42 3e c8 dc 55 3d 06 cb 97 3c
       0.12326879 0.19039412 0.052212507 0.018529426
000330 62 fd d2 3d ff 6a 92 bc 49 f3 9d bd 2a fa c4 bd
       0.10302235 -0.017873285 -0.077124186 -0.096180275
000340 4a 84 30 3d a0 f0 36 bd 81 85 79 bc 86 26 fb 3d
       0.04309491 -0.04466307 -0.015229584 0.12263207
000350 67 51 ce bc 36 af a9 3d c4 77 11 3d a6 4b 06 3e
       -0.0251853 0.08285372 0.035514608 0.13114795
000360 ba 1b a0 bd 71 34 d0 3d 60 17 77 bd 7f 9d db bd
       -0.078177884 0.101662524 -0.060325027 -0.10723399
000370 ba f3 17 3e c5 aa 5c bd 7b f2 1c 3e 10 6a 63 3d
       0.14839068 -0.053873796 0.15326874 0.05552107
000380 ae 75 8e 3d 36 52 3e 3d 08 07 97 3d 83 a7 90 3d
       0.06956039 0.04646512 0.07374388 0.070632
000390 bb dd 42 bd 6b cb ca 3d 8b df f9 3d 78 08 08 3d
       -0.04757474 0.0990208 0.122008406 0.0332112
0003a0 31 04 a1 3d d2 9d 38 3d c2 58 a4 bc 91 ee a2 bd
       0.078621276 0.045072384 -0.020061854 -0.07955659
0003b0 8a a6 89 ba c1 79 9f bd 3c 03 21 bd 77 0b ec 3d
       -0.0010501903 -0.077868946 -0.039309725 0.11525624
0003c0 92 e7 64 3e fd f6 dc bd 71 3e 77 bd b8 76 3e 3e
       0.22353962 -0.10789297 -0.060362283 0.18599975
0003d0 7d e7 3a ba 1c fa 7e bb 87 45 98 3d d1 74 33 3e
       -0.00071298314 -0.00389064 0.07435136 0.1752503
0003e0 1e 4c b5 3d 95 df 70 3d c7 57 5f 3d f7 8e 7b 3c
       0.08852409 0.058806974 0.05452707 0.01535391
0003f0 f9 9f 94 3d 68 8a cd bd b2 bd a0 bd 7c b6 0b 3e
       0.07257075 -0.100361645 -0.078486815 0.13643831

log_std.bias f4 [4]
000000 a4 ee 5c bd da 01 2d 3e 03 41 1b 3e 3f 49 0d 3e
       -0.053938523 0.16895238 0.15161519 0.13797472
