results/ppo_BipedalWalker-v3_20250602_205845/ppo_actor_step_100000.pth (torch, 28456 bytes, 8 tensors)

net.0.weight f4 [64, 24]
00000000: 4a75 473c c47e a03d 5ab6 f6bd 6678 43be
00000010: 63e7 29be e41b 843d de2d 3abc 10fa 2d3e
00000020: d82a 603d 8755 003e b31f 02bd 0ead b73c
00000030: b75d 81be 0f2f 99bd 40f0 2abd 919e 4c3d
00000040: e40c fc3d 68cd 283e 47a5 c4bd 758b 3ebd
00000050: 2ca7 ee3d 53f4 583e ef7c 073c 21f5 633e
00000060: 343c 5ebd dc1b f4bb 86a8 6d3e b280 4dbe
00000070: 799c 3bbe 8619 43bd 90e6 84bd 7ef9 3b3e
00000080: 0a1c dcbd 0cfe babd 29dc 1fbe 0140 1ebe
00000090: 9662 9fbd a910 3f3e b1e5 a83d 17f5 b83d
000000a0: a540 0b3b 65f3 e7bd 7e5c d43c ccf7 4bbe
000000b0: 93cf 1fbe 855a e9bd ab2d fe3d 238d 013e
000000c0: 945f 15be d346 afbd f5df 593e 62ba 3e3e
000000d0: e44a b33c 9a98 f93c 2c1b f43d 607a c6bd
000000e0: 9f33 023d ee50 47be cab9 29be f9e3 08be
000000f0: 034d e73d cd0a 953d 262f 25be b813 ae3c
00000100: a9b2 923d fc95 87bd 87c1 05bd 04c3 e03b
00000110: aa9a b03d 6253 1f3e ace8 44be 4363 d0bd
00000120: b8b0 a13d 6f38 2e3e 2db2 393e cf6a 293e
00000130: dde4 823d ebb5 21be 1372 56bc d192 01be
00000140: 5806 48be 7bf9 493e dabd 223e b373 66be
00000150: e78a de3a f18c 9fbc 83ba 0dbd a86b c1bd
00000160: 71ba 9e3d 3ea5 f9bd f43c 973d e174 d13d
00000170: 1eb4 143e 583d 9a3d cb80 4fbe e5f6 05be
00000180: 50f1 9f3d dc01 313c 1f64 d7bd 1903 30be
00000190: 46bb 433e 09eb 313e 27bf 40bd 724c 7abd
000001a0: bfed 35be c99f c03c 8d99 dfbd da0e bbbd
000001b0: 941f d1bd f6cc 1c3d 8b23 3cbd 949d 223e
000001c0: 3636 b1bd 3045 643e c7dd 353e 25a6 09be
000001d0: 750b 56bc ac41 403d 41cc 8f3d 8b8e ca3d
000001e0: 9427 713d cae9 a83b 687d 88bd 1d93 743d
000001f0: 750d 52be 208b 0ebe d79d 7bbc 2350 97bd
00000200: 0464 a9bd 2d93 20be 7521 b0bc b8a1 9c3d
00000210: 04f6 4cbe 6eb5 133d a95c 183e b4f1 95bc
00000220: 69e4 083c 6584 74bc b424 343d c199 073e
00000230: 26ac 483e 9561 073e c210 4e3e 56ff 8f3b
00000240: b24b 6cbe 6aaf 27be daff 3f3e 3119 36bd
00000250: ebf1 06be 693f 15be 10e3 23be b7a5 33be
00000260: c942 45bd c6d7 c03d 764f b73d d35b 58be
00000270: c72d 193e 2d87 01be 1266 10bd 0056 99bd
00000280: 4a90 00bd 3d8e 03bd 2f66 33be 4553 2cbe
00000290: 0bcc c4bc 76fa 273c a5b6 adbd 569f bf3d
000002a0: cacf 42be 52bf 23bd 327f 673e ab68 17be
000002b0: d73e 013e c618 863d d3de 2ebe a316 103e
000002c0: 894a f83b bfdc 16bd 8021 4e3e 8c9b b2bd
000002d0: 2355 26bd bdff 3bb9 ad76 3d3e 7c1c c53d
000002e0: fca6 0c3e 7a16 e43d 829c 20bc 8c1f 70bb
000002f0: b406 04be 8580 193e 2f35 543e e49d 4b3e
00000300: be4a e2bd ca69 b1bc 5d13 a1bd 777f 3abe
00000310: 6062 44be f409 ba3d 3d2c f5bd c64b 92bc
00000320: 6dff 7f3d 337c 573e a01d 0bbe da8a 52bd
00000330: d9d9 40be 2781 803e 3c5e 8a3c 8b5f 863e
00000340: 6f05 283e 93da ed3d 88d9 b53d f790 4c3d
00000350: dc5c ed3d c6f3 323d 58d4 cb3d 42aa 123e
00000360: 6916 35be 9d0e 16be 19ce 4c3e 97e6 58be
00000370: 36ff 1fbd 518a 7e3e 6d94 d93d 5685 3dbc
00000380: fbef 05be 2887 223e 57f3 05be 828d 8f3c
00000390: b666 0ebe 5763 21bc e3b5 2e3d 8ece 553e
000003a0: 24f7 863d 6795 643e fa34 293e d4ab b5bd
000003b0: 860d 073e e8f3 d4bd 9371 24bd 9128 f53d
000003c0: a1f1 393d 621a f13d c2c0 90bc bb40 2dbc
000003d0: adc2 b83d b388 42be a518 1b3e 43d9 26be
000003e0: 5de2 07bd b9d9 43bd 6a5f 92bd 13fc a33c
000003f0: 3b81 063e 2fa7 5bbd 3fd7 25be 9128 eebd
0.01217396 0.078366786 -0.120464996 -0.19088897 -0.16592173 0.06450632 -0.011363475 0.16989923
0.05472836 0.12532626 -0.031768512 0.022421386 -0.2526681 -0.07479679 -0.041733027 0.04995591
0.12307146 0.16484606 -0.09601837 -0.046519715 0.11652979 0.21186952 0.008269533 0.22261478
-0.054256633 -0.00744961 0.23208818 -0.20068625 -0.18321408 -0.047631763 -0.06489289 0.18356892
-0.107475355 -0.09130487 -0.15611328 -0.15454103 -0.07782476 0.18658699 0.08246935 0.09031122
0.0021248248 -0.11325721 0.02592301 -0.19918746 -0.15606527 -0.11394218 0.12411054 0.12651496
-0.14587241 -0.085584305 0.21276839 0.18625787 0.021886297 0.030468274 0.11919245 -0.0969131
0.03178751 -0.19464466 -0.16574779 -0.13368215 0.11293986 0.07277451 -0.16131267 0.021249637
0.07162983 -0.06620404 -0.032655265 0.006859185 0.0862325 0.15559152 -0.19229382 -0.10175183
0.078950346 0.17013715 0.18134375 0.1654465 0.063913085 -0.15792052 -0.013088721 -0.12653662
-0.1953367 0.19724075 0.15892735 -0.22505073 0.0016978652 -0.019476386 -0.0346017 -0.09444362
0.077504046 -0.121897206 0.07384673 0.10227371 0.14521834 0.07531232 -0.20263974 -0.13082464
0.078096986 0.010803666 -0.105171435 -0.17188682 0.19114408 0.17374815 -0.047057297 -0.06110806
-0.17766474 0.023513691 -0.10917959 -0.09133692 -0.10211101 0.038281403 -0.045932334 0.15880424
-0.08652918 0.22292018 0.17760383 -0.13442285 -0.013064255 0.04693763 0.0702138 0.09890469
0.058875635 0.005154823 -0.06664544 0.05971061 -0.20512946 -0.1392026 -0.015357456 -0.07388332
-0.082710296 -0.15681143 -0.021500329 0.07648033 -0.20015723 0.036061697 0.14879097 -0.01830373
0.0083552385 -0.014924143 0.043980315 0.13242246 0.1959692 0.13220818 0.2012358 0.004394452
-0.2307575 -0.16375509 0.18749943 -0.04445762 -0.13178222 -0.1457497 -0.16004586 -0.17543684
-0.048159394 0.094161555 0.08950703 -0.21128778 0.14958869 -0.12649222 -0.03525359 -0.07487106
-0.031387605 -0.03211807 -0.17519449 -0.1682864 -0.024023077 0.010252586 -0.08482102 0.09356563
-0.19024578 -0.03997738 0.22607115 -0.14786021 0.12621628 0.06547694 -0.17077188 0.14071135
0.0075772447 -0.036831614 0.20129967 -0.087210745 -0.040608536 -0.0001792898 0.18502302 0.096245736
0.13735574 0.111370996 -0.009802939 -0.0036639897 -0.12893182 0.14990433 0.20723413 0.19884449
-0.11049412 -0.02165689 -0.078650214 -0.18212686 -0.19178152 0.0908393 -0.119713284 -0.017858397
0.062499452 0.21043472 -0.1358552 -0.05140195 -0.18833102 0.25098535 0.016890638 0.26244769
0.16408323 0.11613955 0.088793814 0.049942937 0.11589977 0.04368951 0.09952611 0.1432276
-0.1768433 -0.14654012 0.20000495 -0.21181713 -0.039061747 0.24857451 0.10624013 -0.011567434
-0.13079827 0.1587187 -0.13081108 0.01752353 -0.13906369 -0.009850345 0.04265393 0.20879576
0.06590107 0.22322617 0.16524115 -0.08870664 0.13188753 -0.10398084 -0.040147375 0.11970628
0.04539645 0.1177261 -0.01767004 -0.010574515 0.090215065 -0.18997459 0.1514612 -0.16293816
-0.03317486 -0.04781506 -0.07147105 0.02001766 0.13135235 -0.053626236 -0.16195391 -0.11628831

net.0.bias f4 [64]
00000000: ce19 053b 6c79 933d 56f0 823d e559 abbb
00000010: b100 7a3e a523 fdbd 2b64 c23d e544 783e
00000020: 1723 a73d 9d54 633e 9322 ffbc b317 00be
00000030: 7257 c7bd ae0d ec3d 6d6b a8bc 4b1f 033e
00000040: 097a 8d3e 48d8 073e 6887 373d edda 0d3e
00000050: d8a6 00be 4709 2fbe 4fb5 b4bd 5be9 19be
00000060: efe4 d83d fa89 eb3c 5e7b 84bc 226d 3cbe
00000070: 59f0 cf3d 8fe3 18bd 9fb4 403c 2490 15be
00000080: 88bd f1bc dead a83d 883d 53be e765 a1bd
00000090: 6f80 013e a579 22be 6e05 71bd 45f3 42bd
000000a0: 5e76 2b3e d061 1abe da3d ef3c 6fca 2d3e
000000b0: bf98 2fbd 5a04 dfbc b6d5 1fbe f410 e73d
000000c0: 8eb8 423e 5d0f b1bc e47e 48be f7f1 483d
000000d0: e8cc 5d3e dc14 92bc a913 0e3e 30a5 7f3d
000000e0: 84e1 ab3b 3ace 8f3d 56c0 523e 612c 953d
000000f0: 4638 62bd adf4 953c 7a75 173e 7c5d 3c3c
0.002030957 0.07200894 0.06393497 -0.005229222 0.24414326 -0.12360314 0.09491762 0.24245031
0.0816099 0.22200246 -0.031144416 -0.1250904 -0.09733476 0.11526047 -0.020559037 0.12804906
0.27632168 0.13266098 0.044806868 0.13853045 -0.12563646 -0.17093383 -0.08823644 -0.15030424
0.105905406 0.028752316 -0.016172107 -0.18401006 0.101532646 -0.03732639 0.011761813 -0.14605767
-0.02950932 0.082362875 -0.20628941 -0.078807645 0.1264665 -0.15866716 -0.05884307 -0.04759528
0.16744372 -0.15076375 0.029204298 0.16971754 -0.04287028 -0.027223755 -0.15608868 0.112825304
0.19015715 -0.021613771 -0.19579655 0.04905888 0.21660197 -0.017832212 0.13874687 0.062413394
0.0052453894 0.070217565 0.20581183 0.07283855 -0.055229448 0.018305147 0.14790908 0.011496898

net.2.weight f4 [64, 64]
00000000: cc1a aabd 3067 bd3d 1331 8a3d f9d3 93bd
00000010: 157e cebb 64db f1bc 9d20 0f3c c845 92bc
00000020: 558d f7bd cf84 acbc 6dc5 8a3c 4573 f03a
00000030: ae28 83bd a286 b33c b99f 0fbe 3de3 263c
00000040: 1373 3c3d c258 76bd 0e56 e8bd 710d 0bbd
00000050: 497e 80bc e7f9 febd 3822 f7bd 3e2c c83d
00000060: 1db1 8f3d 1141 963d 924f 7e3d 8448 343c
00000070: 401a 853d 8d58 193d 85c2 22bd 5f92 22bd
00000080: 707f 833d 1969 0dbc ddad d9bd 3ed6 ccbd
00000090: 7ced 4f3d 753c bd3d ee8b ab3d ffb0 c63c
000000a0: 6089 1b3d 1f79 f3bd 8ece c2bd 9ff7 1ebe
000000b0: 68a7 c23d ce49 6cbc 2528 98bd b9f6 133d
000000c0: ed76 c5bd 9149 a8bd 655c d93c c01c a53c
000000d0: 3c02 d7bd 11aa e3bd ae40 413d 5ef5 a33d
000000e0: 90a3 2dbd 5b35 b7bd 3bda 503d 95c1 0dbd
000000f0: 59cb 19be 940e aebd 04b0 be3c 8bbe 3e3d
00000100: 18d5 a3bd ea9b 033d 43de a4bd eaca d63d
00000110: 92d5 693d de88 28ba 5b70 f93c deae 423c
00000120: b53d d5bd 7803 05bd 05a2 9d3c be6b 1abd
00000130: 71db d53d c8a4 6abd a7ca 1cbe f3cf 86bd
00000140: 10fb 07be ea24 9d3d 1093 a8bd 000f f5bd
00000150: c977 9f3a a2d3 00be e9d0 a3bd e6d3 1e3d
00000160: c78b efbd d8c7 ac3d 61e1 573d 9382 193b
00000170: 9ed3 343d fbbc e2bd d169 973d cfb7 b33d
00000180: 9ecb 14bc 003f a03d 178c 06be 6651 8bbc
00000190: e7c3 15bb 498b 01be f606 593d 0d41 74bd
000001a0: 4cd8 82bd 79d0 b1bd 202f 593d 9d4c 02be
000001b0: e658 4ebd 5941 db3c 4cdb c03d edc9 25bc
000001c0: 9f47 04bd a116 97bd ec3a 623d 384d ef3b
000001d0: 5c9f 9d3d 746a 693d 9ad1 8b3d cdbf f6bd
000001e0: f509 a03d b7d4 75bd 7679 4cbd 8a2e 54bd
000001f0: 90c1 c2bc 9f18 de3b beaa ab3d fa5b b3bd
00000200: cb77 0b3d e420 c0bd d6f0 243c 8d7e 103e
00000210: ce7b 893d 0168 b73d a37d 903d 7957 00bc
00000220: 5880 7b3c 0d5b b1bd 2915 b33d 894c e93c
00000230: 05ef dcbd a8df 843d 9313 b9bc 5776 11bd
00000240: cd2b 9dbd 3f7a c5bd 7f6d 1abc 26a1 9fbd
00000250: ca40 e6bd b176 a6bd fdbc a4bd 225a b03d
00000260: 2a45 813d 23c9 90bd 1762 9fbb c2d8 07bd
00000270: ae73 a7bd 4a51 70bd 1fc7 bfbd f718 223d
00000280: f545 83bd c8cc a13c b49a cebd a8f6 5bbd
00000290: 42fe 913d 4a14 a3bd 9d58 47bd d120 d33d
000002a0: c92f 493b 8235 33bd 44ea ccbd 145d aabd
000002b0: 103b 2fbd aeaf 5a3d 5372 a5bc 706f 9c3d
000002c0: 93da 16be b403 8dbd 99c7 963c fffc b63d
000002d0: b491 da3d 33ab 6f3d 18c2 713c dc39 bcbd
000002e0: c8a5 613d 764e 00be f884 54bd 2a04 33be
000002f0: 2e9c 64be dacf 9d3d 08b5 933a 82e7 303d
00000300: dca3 a53d 9212 6c3d 44ea 4d3d ee5e 9cbd
00000310: ecc2 153d 57d4 1e3d b269 023d 757a 10bc
00000320: 8382 aabc 1b73 17bd 70ef ccbd 4668 73bb
00000330: 78e7 bebd 0f89 653d 1966 e0bd 28a1 8cbd
00000340: 3d6e a2bd 2804 da3d c357 dbbd 741d e63c
00000350: 796a 8c3d 0700 8d3d 77a6 d23c b80c 543d
00000360: dded ba3d 97d6 213c 1656 923c 0976 d6bd
00000370: a6b4 b0bc ee22 b8bc 152a 28bc 842e a0bd
00000380: ce80 f1bd 15f4 4ebd 2016 233d 2227 e03d
00000390: 0649 17be 1a70 503d 27cd 01be fe33 12be
000003a0: a96e ffbd 2de3 16bd 0aeb 3c3d 002c fcbd
000003b0: 5c1a b53d e642 d03d 0003 fc3b 94ec 933d
000003c0: ef64 a1bd 96e8 81bd 6f87 c9bc b93c 253c
000003d0: ec0f c9bd 7dca 9bbd 48c9 1c3d 87b4 b03c
000003e0: ec23 bc3d 953f 8cbd b87e 0f3d ed99 c6bd
000003f0: c85b 733d 83f5 7cbc 598b a63d d134 283d
-0.08305892 0.09248197 0.067476414 -0.07218165 -0.0063016512 -0.029523559 0.008735803 -0.01785554
-0.12087504 -0.021059422 0.016939843 0.00183449 -0.064042434 0.021914784 -0.14025773 0.010186014
0.04600818 -0.06014324 -0.11344539 -0.033948366 -0.015685217 -0.12450009 -0.120670736 0.097740635
0.070162036 0.07336629 0.062087603 0.011003617 0.064991474 0.037437964 -0.03973629 -0.03969037
0.06420791 -0.008631014 -0.10628865 -0.10001801 0.050763592 0.09240047 0.08376299 0.02425432
0.037972808 -0.118883364 -0.095120534 -0.15524147 0.095045865 -0.014421893 -0.07429532 0.036123965
-0.09641824 -0.08217157 0.026533315 0.02015531 -0.10498473 -0.11116422 0.047180824 0.080057845
-0.042392313 -0.089457236 0.05098937 -0.034608442 -0.15018977 -0.08498874 0.02327729 0.046568435
-0.07999629 0.032131113 -0.080502056 0.104879215 0.057088442 -0.0006429086 0.030449083 0.011882512
-0.1041216 -0.03247401 0.019242296 -0.037700407 0.10442246 -0.057286054 -0.1531168 -0.06582632
-0.13279366 0.076730564 -0.08231175 -0.11965752 0.0012166436 -0.12580732 -0.07998831 0.0387763
-0.11696582 0.08436555 0.052705172 0.0023423776 0.044147126 -0.110712014 0.0739323 0.08775293
-0.009081749 0.07824516 -0.13139378 -0.017006587 -0.0022852363 -0.1265079 0.052985154 -0.05963235
-0.063889116 -0.08682341 0.053023458 -0.12724538 -0.05037775 0.026764559 0.094168276 -0.010118944
-0.032294866 -0.07377363 0.055231974 0.0073029064 0.07696411 0.056986287 0.06827088 -0.12048302
0.07814399 -0.060017314 -0.04992052 -0.051802196 -0.023773938 0.0067778374 0.08382176 -0.087577775
0.03404979 -0.093812734 0.010067185 0.14110775 0.06713067 0.08955384 0.07055213 -0.007833355
0.015350424 -0.08659945 0.0874427 0.028478878 -0.10787777 0.064879715 -0.022592342 -0.03551325
-0.0767437 -0.09642457 -0.00942552 -0.077944085 -0.11242826 -0.08128107 -0.08043859 0.086109415
0.0631202 -0.07069614 -0.004863988 -0.0331657 -0.08176361 -0.058671273 -0.09364151 0.03957459
-0.064098276 0.019750968 -0.10088101 -0.053702027 0.07128574 -0.07962854 -0.048668493 0.103089936
0.0030698648 -0.0437522 -0.1000562 -0.083185345 -0.042780936 0.053390197 -0.020196116 0.076384425
-0.14731817 -0.06885472 0.018405722 0.08934974 0.10672322 0.058512878 0.014755748 -0.09190723
0.055089742 -0.1252993 -0.05188462 -0.17482057 -0.22325203 0.0770566 0.0011269161 0.043189533
0.08087894 0.057634898 0.05027224 -0.07635294 0.036562845 0.03877672 0.03183908 -0.0088182585
-0.020814186 -0.036975008 -0.100066066 -0.003714101 -0.09321493 0.056038912 -0.109569736 -0.068666756
-0.079311825 0.10645324 -0.107100986 0.028090216 0.068562455 0.06884771 0.025714142 0.051769942
0.091274 0.009877822 0.017863315 -0.10471732 -0.021570515 -0.022477593 -0.010263939 -0.07821372
-0.11792146 -0.050525744 0.039816022 0.10944964 -0.1477395 0.05088816 -0.12675916 -0.14277646
-0.124722786 -0.036837745 0.04612259 -0.1231308 0.08842918 0.1016901 0.0076907873 0.07222858
-0.0788058 -0.0634319 -0.024600713 0.010085278 -0.0981749 -0.07606981 0.038277894 0.021570457
0.09186539 -0.06848065 0.035032958 -0.09697328 0.0594137 -0.015439394 0.08132047 0.041065995

net.2.bias f4 [64]
00000000: 9e4e 653d ba1e e13c 44ff 23bc faca 973d
00000010: c62f 92bd 46b9 f0bd 8039 e5bc 8e66 273e
00000020: 3f76 053d 7c9f 64bd b3e8 603d 5dfb 75bd
00000030: c048 df3d e90d 92bd 02f4 5c3c 86df a5bc
00000040: 39a8 593d 2bdb 223d ab54 90bd 2b5a 87bc
00000050: d13e 8fbc a239 a33d 98ac 3c3c 1007 053e
00000060: d805 603c b875 10be d30b e3bd 0fee 28bd
00000070: 4cb4 37bd 0607 883d c9e0 7b3d 0074 70b9
00000080: 4749 613c 30e8 f53d e072 9e3d e92f 453a
00000090: bdca 8bbd 4976 c3bd 9488 4d3d fd47 ba3d
000000a0: a030 27bc 43b6 b83d 3722 153d ff06 a6bd
000000b0: a2bb e33d cb41 563d a0de 63bd e010 2d3d
000000c0: 4077 753d acb2 dd3c e2a4 fe3d 674f 3f3d
000000d0: 9750 083e 7a56 5b3d 8f9c eabd aa5f 3d3e
000000e0: b8ce df3c 3e9c f43d f46e 3a3e e617 0dbe
000000f0: 44bc 62bd 335e 833c aba4 bf3c 3f36 f93c
0.05598318 0.027480472 -0.010009591 0.074117616 -0.07138018 -0.11754088 -0.02798152 0.16347715
0.03258347 -0.05581616 0.05490942 -0.06005417 0.10902548 -0.071315594 0.01348591 -0.020248186
0.053138945 0.039759796 -0.07047399 -0.016522488 -0.017486008 0.07969977 0.011515759 0.12990975
0.013673268 -0.14107406 -0.1108624 -0.041242655 -0.04484968 0.066419646 0.06149367 -0.00022931397
0.013750381 0.12007177 0.077367544 0.0007522093 -0.06825779 -0.095440455 0.05017908 0.09095762
-0.010204464 0.09019139 0.036409583 -0.08106803 0.111197725 0.05230884 -0.055632234 0.04225242
0.05992818 0.027062736 0.12433793 0.046706583 0.13311993 0.053549267 -0.114556424 0.18493524
0.02732025 0.11943863 0.18206388 -0.13778648 -0.055355325 0.016036129 0.02339395 0.030421374

mean.weight f4 [4, 64]
00000000: ca0f febd 5dbc 313d b71b a7bd 543d 083d
00000010: 1e13 c03d 1bdb 5ebd 7f5f 1e3d 4c8d 4fbd
00000020: 7386 9ebd 007d d9bc 8cc3 0b3c 42d1 643d
00000030: 55c8 c3bd f4e8 7d3d 5deb 98bd 788a dfbd
00000040: ed10 fabd 2b14 04be 67bf 58bc beec 6c3a
00000050: e96d 17bd 451e b1bd 2f21 f73c 421e d83a
00000060: 4ca0 a9bc f27f aaba 6580 543d 237b 86bd
00000070: 7df5 9bbd 4503 44bd f328 ec3d 8833 fd3c
00000080: 8d12 dcbd 37c0 7a3d 8740 6bbd b2aa f0bc
00000090: b6e4 5c3c b344 13bb 4fbe b93d 6029 9a3c
000000a0: e520 003d 4cef bbbd 20f2 ad3b 092c c6bd
000000b0: d71f 8fbd 452c 113d b6f4 fbbd 660f 1cbd
000000c0: 88d3 88bd 2e49 263d 1a92 e5bd df4c adbc
000000d0: 2c13 6abd d6d2 dc3d 6481 74bd 07d6 f6bd
000000e0: 1150 75bd 7586 483d 5dd1 0e3c 9751 883c
000000f0: 9ffa 363c 42a3 1a3c cd10 0dbd acf2 c3bd
00000100: c219 17be c870 7c3d 4676 d63d 6102 3bbd
00000110: e64c 3bbd 12d7 293c 3b44 5abd 4a13 ba3c
00000120: dc67 79bd add3 25bd 4349 3fbe 33d3 1fbb
00000130: 0854 3fbd 5a0f 48bb 001f 8f3d dab6 213d
00000140: fae4 bdbd 1ff7 9dbb d075 e8bd edd8 a83d
00000150: 5d31 853d 3ad6 3cbb 3835 9e3d 07e7 943d
00000160: efcc c03d dc4f 1e3d c32c 443d 41f6 7cbc
00000170: 05d7 16bd 21be e63d e628 a2bc 00ca 1f3d
00000180: c959 98bd 4014 d0bc 47da 853c ecb3 7b3b
00000190: 3565 7e3d 864b 823d 88b6 8dbd 0a44 9d3d
000001a0: 4b86 663d 487e f23d ed90 12be b200 84bd
000001b0: c0b1 16be 5daa c3bd 9c9b c33d fb16 1fbe
000001c0: 0392 6c3b 2778 bdbc 1cb5 0fbe f4ae 4abd
000001d0: b1ac 6cbd cf17 79bd 0035 c1bd 5c9d c33c
000001e0: 9449 69bd f851 90bd 2fdb a9bd 43ec c9bc
000001f0: 5473 e0bd 52c0 14be 404b 453d 86bc 3fbd
00000200: 3348 a3bd 5853 56bd 89ce c239 8b8a 39bd
00000210: bbda 7a3c a75f 0e3e 5aa4 24bd 14f8 5d39
00000220: aaee 093e 9def 96bc 43d0 2abd 411b 7c3d
00000230: da62 ec3c 785c 42bb e5f6 e23d f13b 96bd
00000240: ed42 bbbc 83d7 c83d 5237 05bd fd25 83bb
00000250: c038 d03d 6127 26bd 7792 2ebd 83c6 3cbd
00000260: e38e ffbd d4ef bbbd 4002 d9bc 19c9 ebbd
00000270: c4a6 19bd 92f9 ca3c a4e3 d73d 066d fc3d
00000280: b1a9 073e 7c0c 803d 6f50 c33d a3ea ff3b
00000290: 0483 8ebd fc39 1a3d 6105 c23d 8390 a23d
000002a0: 62fd ac3d 6eac 1abd eaa5 113e 1b64 9b3d
000002b0: 87d5 603b 29e4 193e cc83 383d 4f1c 043d
000002c0: a14f 373d 6c12 093e da06 6f3d 996d 423d
000002d0: ad0e 0f3e 7380 1a3c 2f6f f23d 60a6 c1bc
000002e0: 73a2 073d 279f 693d 85d0 563d 26cc aebd
000002f0: d0d9 273e 1dec 04bd 24c0 ff3d 7a05 613b
00000300: 5dda 943d 3b5d 88bd 39ae cdbc c8b9 353d
00000310: 0527 9d3d 515b 35bd 3a6a 773d 4924 28bd
00000320: c583 933d b10a 823c a34a 4ebc 0c74 8f3d
00000330: 4a82 babc 0b0a 3cbd dd39 90bb 7d65 bc3d
00000340: b245 143e f471 e93d 3b4e d73d c707 12bd
00000350: 9921 0e3e 7bf9 953d aa82 5f3d c4f9 e7bc
00000360: 2aea f5bc 067a c03c e71e 623c 12b5 49bd
00000370: b5e4 53bd f386 ec3d fa91 5b3d c08c 863c
00000380: df8d 7e3c 6101 c13d 21cd 92bd 6026 9a3c
00000390: 989d f63d 2858 42bd d7dd a3bd b97e d5bc
000003a0: 605d b93d 92e8 503d ff5f c63d 377e 2cbd
000003b0: aea9 04bd 87ee bdbd 504c 0d3c 4568 c3ba
000003c0: f0c1 023e 028c c6bc 30aa 55bd 244e 993d
000003d0: 44c8 cbbc 650e 10bc cd89 133e 26c2 e53d
000003e0: 4fa8 c9bd bae2 1d3c c733 323d 0a1a e83d
000003f0: bca0 59bd 0151 8f3d b929 a4bd c4c2 c9bd
-0.12405355 0.043392528 -0.08159583 0.033261612 0.09378646 -0.054408174 0.03866529 -0.05067186
-0.07740488 -0.026548862 0.008530509 0.055863626 -0.09559695 0.06198974 -0.07466767 -0.10915083
-0.122102596 -0.12898318 -0.013229228 0.0009037963 -0.036970053 -0.086483516 0.03016719 0.001648851
-0.020706318 -0.0013008101 0.05188026 -0.06566455 -0.076151825 -0.04785468 0.11531248 0.030908361
-0.10745726 0.061218467 -0.057434585 -0.029378269 0.013482263 -0.0022471368 0.090695016 0.018818557
0.03128137 -0.09176502 0.0053084046 -0.09676368 -0.06988495 0.03544261 -0.12302534 -0.038100623
-0.066809714 0.040597133 -0.11209507 -0.021154819 -0.05714719 0.10782401 -0.05969371 -0.12052541
-0.05989081 0.048956353 0.008716908 0.016640468 0.011168151 0.009438338 -0.03443985 -0.0956777
-0.1475592 0.061630994 0.104717776 -0.045656566 -0.045727633 0.010366218 -0.053287726 0.022714276
-0.060890064 -0.040485073 -0.18680291 -0.002438736 -0.046710998 -0.0030526728 0.06988335 0.03948102
-0.092721894 -0.004820719 -0.11350596 0.082445 0.06503556 -0.0028814212 0.077249944 0.072706275
0.09414088 0.03865038 0.04789425 -0.015439571 -0.036826152 0.11266733 -0.019794893 0.039011
-0.07439 -0.025400281 0.016339434 0.0038406802 0.062108237 0.06362061 -0.06919581 0.07678993
0.056280416 0.118404925 -0.14313097 -0.06445445 -0.14716244 -0.095539786 0.095511645 -0.1553611
0.0036097772 -0.023128582 -0.14033931 -0.049483255 -0.05778188 -0.06081372 -0.09433937 0.023878746
-0.056954935 -0.07046884 -0.08293759 -0.024648791 -0.10959497 -0.1452649 0.048167467 -0.04681065
-0.07972755 -0.052325577 0.00037156444 -0.04529814 0.0153109385 0.13903676 -0.0401958 0.00021168619
0.1346995 -0.018424803 -0.04170252 0.06154943 0.02885573 -0.0029657166 0.11082248 -0.07335652
-0.022859061 0.098067306 -0.03252346 -0.0040023313 0.10167074 -0.0405649 -0.04262015 -0.046087753
-0.12478425 -0.09176603 -0.02649033 -0.11512966 -0.037512556 0.024777208 0.10541466 0.12325482
0.13248326 0.06252381 0.09536826 0.0078099533 -0.06958583 0.037652954 0.09473682 0.0793772
0.084467664 -0.037762098 0.14223447 0.07587453 0.003430696 0.15028442 0.045047566 0.03225356
0.044753674 0.13385934 0.058356144 0.0474678 0.13970442 0.009430039 0.11837613 -0.023638904
0.033113908 0.057036545 0.052444953 -0.08535032 0.16391683 -0.032451738 0.1248782 0.003433554
0.07268212 -0.06658407 -0.02510749 0.044366628 0.07673458 -0.04427654 0.06040404 -0.04105023
0.072028674 0.015874239 -0.012591037 0.07004556 -0.022767205 -0.045908015 -0.004401429 0.09199045
0.14479712 0.11398688 0.10512968 -0.03565195 0.13880004 0.07322975 0.05456797 -0.02831734
-0.030018885 0.023495685 0.013801313 -0.049244948 -0.051731784 0.11549177 0.05360601 0.016424537
0.015536754 0.09424091 -0.071680315 0.018817127 0.12041777 -0.047447354 -0.08001297 -0.026061403
0.09051013 0.051003046 0.096862786 -0.042112555 -0.03238838 -0.09274011 0.008624151 -0.0014908394
0.12769294 -0.024236683 -0.052164257 0.07485607 -0.024875768 -0.008792494 0.14408036 0.112186715
-0.098465554 0.009636575 0.04350641 0.113330916 -0.053131804 0.06997872 -0.080157705 -0.09851602

mean.bias f4 [4]
00000000: b8a0 aebd d925 23be 1a72 143d 481d 013e
-0.085267484 -0.15932406 0.03624163 0.12608826

log_std.weight f4 [4, 64]
00000000: eb7c cf3c d1a2 b0bd 80f8 c03c c1b9 51bd
00000010: 6a15 cc3d 2a6a 1a3d c126 143e 5e5b 293e
00000020: 3fc0 193e aee5 b73d a4ee 183e 2496 75bd
00000030: f4f8 133d c118 003e f211 a83d de9d d63d
00000040: c101 e73c b78a 423d 8e9b b73d 1b77 103e
00000050: 5cf3 e13d 93fd a0bd 3b12 9b3d 46fb 6c3c
00000060: e27f 6f3d 81dc ba3d d654 cdbc 7fc1 de3d
00000070: 7f63 133e ee5e 593d b2b2 89bd c0f9 2a3b
00000080: 81f1 033e f9e3 9b3d 2a26 333e 77b0 183d
00000090: 299b 77bd 494d 913d 531b 533d ef58 de3d
000000a0: 51a3 1ebd 1c72 33bd 8561 c03d 875b 3e3d
000000b0: 83ae 0e3e 119d 8abd f898 6bbd 77dd a53d
000000c0: da05 62bb a02d c33d e115 023e 6c71 4a3e
000000d0: 1744 673d 991e e3bd 85c9 2ebc ae18 a23d
000000e0: e4f4 1bbc f5de 883d 7590 923c a73a e23d
000000f0: 2d7e eb3d 273b fd3d 80ad c43d 6491 20bd
00000100: ea7a 28bc 1837 c7bc 9ffa eb3d 7a8c 0d3d
00000110: d15b cd3d 36f6 373d 605f af3c 239d 953d
00000120: 8555 793d d3ef f13d a519 e9bc 402b a23c
00000130: 45dc 503e 7563 9e3d a902 8bbd e679 d63d
00000140: 936d 06bd cc88 dd3d b4f5 223d 8b6c 393e
00000150: 04d3 0d3e 76af f43c ea88 0f3e 2523 6d3e
00000160: 41b6 03bd 8ad8 963d 600d e53d d3d3 2a3c
00000170: 9f74 2a3e 2679 023e b30e 3ebd cc95 8b3d
00000180: 182f 88bd 4f45 123e 581a 2abd a2ba 233c
00000190: 960a 4c3d f2ca d7bd 246c 6e3d d865 b33c
000001a0: 67c5 8b3d 1f7e 4e3d b2ad abbd 2fab eebc
000001b0: ac1e a13d ff48 a13d 7c27 92bd 4752 973b
000001c0: fc7b 373e 6cc3 85bd 9771 2f3c d362 68bd
000001d0: 2022 a23c 5166 bebd 2075 e83c d19a 383e
000001e0: 310c ce3d eb88 2ebd 57df 383e b6b2 c8bd
000001f0: d1d6 173b ea7f 153e 4c66 d73d 306f 0c3e
00000200: 5141 d13c 00d8 dabd e233 c8bd 73a6 683c
00000210: 4932 ddbd 7f1b c0bc af1a f13d b589 a73d
00000220: 2ecd 173e 4613 02bd 2311 ad3d 2610 053e
00000230: afd1 cf3d 742f 7a3d 2d41 0cbd 3341 c0bd
00000240: b966 003e 330e c1bd 75c1 043d cf74 33bd
00000250: 47c0 503d b0b4 e0bd 57bb a63d f131 6a3d
00000260: c8d1 69bd aa59 a2bc 8ae4 07bd 7623 61bd
00000270: e6ba a13c 1b06 a23c 66c3 53bd 5037 013d
00000280: fb85 68bd 5ded 293e 528f 21bd 41bc c93d
00000290: bdb7 83bd e0c8 94bd 2d4b 4f3b e3b8 f4bc
000002a0: 9695 003c ce23 f4bb c593 5bbb 1a43 b2bd
000002b0: 31b6 2b3e 4fdc be3d 98e7 36bd 7c67 343e
000002c0: f5f0 8d3c 30b2 99bd 97a6 953d 65e8 e63c
000002d0: ef93 ff3d 1ea9 aabc 2eda 5cbd d894 1f3e
000002e0: c51d 693d 8272 8f3d 7358 2b3d 20b5 b6bd
000002f0: bfae d93d 35b7 703d a55a bdbc 6c48 e43d
00000300: 69d4 a6bd 4ad4 93bd 2f3d 373c 9977 e1bd
00000310: c4cf c2bd ffdd 873c 2a36 8d3c 6ce2 473e
00000320: 73ed f43d cdde 423e c66b 753d ce9f c23c
00000330: 5827 c73d 4beb e8bb 4680 c2bd 08af e3bd
00000340: 5541 5a3d a0f0 36bd 31b2 47bc 0c5d fc3d
00000350: 83da e6bc 63c2 973d deb5 023d 7328 003e
00000360: ba1b a0bd 7134 d03d 6017 77bd 7f9d dbbd
00000370: e6d2 153e 28a8 71bd 7bf2 1c3e 106a 633d
00000380: ff65 943d ea94 203d 1c71 993d 27d5 903d
00000390: f3df 43bd 6bcb ca3d bc69 ea3d 06c2 083d
000003a0: 6144 8b3d d29d 383d fe67 febc 91ee a2bd
000003b0: b511 d9bb 676a bfbd 3c03 21bd e58f e93d
000003c0: 2e1b 5c3e 2226 fdbd 6154 81bd 0d7e 3a3e
000003d0: 791f 66bb 1cfa 7ebb 6d16 aa3d 5418 2d3e
000003e0: 72ff a63d e08c 5d3d 9530 453d f78e 7b3c
000003f0: f9bd 8a3d f57e acbd 9291 9abd 108d 023e
0.02532812 -0.08624805 0.023555994 -0.05120254 0.09965022 0.037698902 0.14467908 0.1653876
0.15014742 0.08979355 0.14934784 -0.05995764 0.036126092 0.12509443 0.08206548 0.104793295
0.028199079 0.04749557 0.089652166 0.14107935 0.11032745 -0.078608654 0.075718366 0.014464205
0.058471568 0.09124089 -0.025064867 0.1087675 0.14393423 0.053069048 -0.067235366 0.0026088804
0.12885095 0.07611842 0.17495027 0.037277665 -0.060450707 0.07094819 0.05153973 0.108568065
-0.03872997 -0.043809995 0.093936004 0.046474006 0.13933758 -0.06768239 -0.05751893 0.08098882
-0.003448835 0.09530187 0.12703659 0.1976983 0.05646142 -0.110898204 -0.010668163 0.079148635
-0.009518836 0.06683151 0.017891148 0.11046343 0.114986755 0.12364798 0.09603405 -0.039201155
-0.010283211 -0.024318263 0.115224116 0.034557797 0.10027278 0.04491254 0.021407783 0.07305362
0.060872573 0.11813321 -0.028454611 0.019796014 0.20396526 0.07733814 -0.06787617 0.10472469
-0.032819342 0.108171076 0.039785102 0.18107812 0.13850027 0.029868823 0.14017072 0.23157938
-0.032156233 0.0736552 0.11184192 0.010426479 0.1664605 0.12741527 -0.046400737 0.06815681
-0.066496074 0.14284252 -0.04152903 0.009993227 0.049814783 -0.105367556 0.0582086 0.021899149
0.06824761 0.050413247 -0.08382739 -0.029134361 0.07867178 0.07875251 -0.07136437 0.0046179625
0.1791839 -0.065314144 0.010708234 -0.05673487 0.019791663 -0.09296859 0.028376162 0.18027808
0.10060919 -0.042611044 0.18053947 -0.097997114 0.0023168812 0.14599577 0.105175585 0.1371429
0.02554384 -0.1068573 -0.09775521 0.014199841 -0.10800607 -0.023450611 0.117726676 0.081805624
0.14824364 -0.03175666 0.08450534 0.12994441 0.10147416 0.06108041 -0.034241844 -0.09387436
0.12539186 -0.094265364 0.032411058 -0.04381257 0.05096462 -0.109719634 0.08141201 0.057176534
-0.05708483 -0.019818146 -0.033176936 -0.05496546 0.01974244 0.019778302 -0.05170002 0.03154689
-0.0567684 0.16594453 -0.03944332 0.0985036 -0.0643153 -0.07264876 0.0031630502 -0.029873317
0.007848164 -0.0074505573 -0.0033504826 -0.08704205 0.1676872 0.09319364 -0.04465446 0.17617601
0.017326811 -0.0750469 0.07307165 0.028186986 0.12479388 -0.020832594 -0.05391901 0.15584123
0.056913156 0.070042625 0.0418324 -0.089212656 0.10629033 0.05876847 -0.023114512 0.11146626
-0.08145983 -0.07218225 0.011184021 -0.110091396 -0.095122844 0.016585348 0.017237742 0.19519967
0.11959352 0.19030304 0.059917234 0.023757841 0.09724301 -0.007108127 -0.094971225 -0.11117369
0.05328496 -0.04466307 -0.01218848 0.12322435 -0.028180366 0.07410123 0.031911723 0.1251543
-0.078177884 0.101662524 -0.060325027 -0.10723399 0.14631233 -0.058998257 0.15326874 0.05552107
0.07246017 0.039204516 0.07492277 0.070719056 -0.047820996 0.0990208 0.114459485 0.03338816
0.068001516 0.045072384 -0.031055447 -0.07955659 -0.0066244253 -0.093464665 -0.039309725 0.11404399
0.21494743 -0.12360789 -0.06314922 0.18212147 -0.0035113974 -0.00389064 0.08305059 0.16903812
0.08154191 0.054089427 0.048142035 0.01535391 0.06774516 -0.08422653 -0.075472966 0.12749124

log_std.bias f4 [4]
00000000: 06c1 82bd 2071 083e 8587 133e 6096 043e
-0.063844725 0.13324404 0.14407165 0.12947989
