results/ppo_BipedalWalker-v3_20250602_205845/ppo_critic_step_150000.pth (torch, 26206 bytes, 5 tensors)

net.0.weight f4 [64, 24]
0	0x3bb21cef	0.005435578
1	0x3d12b681	0.03581858
2	0xbdb014a2	-0.085976854
3	0xbf4ba3e6	-0.79546964
4	0x3da9aeb5	0.08285276
5	0xbe259335	-0.16169436
6	0x3dd1207e	0.102112755
7	0x3c63cc41	0.013903678
8	0xbd65233b	-0.0559418
9	0xbe61f0be	-0.22064492
10	0xbda9d4d1	-0.08292545
11	0xbe3063c9	-0.17225565
12	0xbd8f25eb	-0.06989654
13	0x3de74f51	0.11294425
14	0x3daa9463	0.08329084
15	0x3e5f1935	0.2178696
16	0x3e46edf0	0.19426703
17	0xbdc4cf81	-0.09609891
18	0x3e762dd2	0.24040917
19	0x3d65e45b	0.05612598
20	0x3e5d5c60	0.2161727
21	0x3dae0c85	0.08498482
22	0x3ce39284	0.027779825
23	0x3e7341b6	0.23755535
24	0xbea2a5fe	-0.31767267
25	0xbe4cbb90	-0.19993424
26	0x3e25f55b	0.16206877
27	0xbf3f003b	-0.74609727
28	0x3e3adaf9	0.18247594
29	0x3e2171a5	0.15766008
30	0xbc842fda	-0.016136099
31	0x3d9135e9	0.07090361
32	0x3bb19672	0.005419546
33	0xbe0e59a9	-0.1390139
34	0xbd240ac3	-0.040049326
35	0xbee31c98	-0.44357753
36	0xbdf1dbb1	-0.11809481
37	0xbe66bb8e	-0.22532484
38	0xbe2ad05c	-0.16681045
39	0xbe0beca2	-0.13664487
40	0x3cf7056f	0.030153958
41	0x3e67c391	0.22633196
42	0xbdca68e5	-0.09883288
43	0x3df49af5	0.11943618
44	0xbd727a04	-0.059198394
45	0x3e44864d	0.19191857
46	0x3e3d073c	0.18459791
47	0x3df0fa26	0.11766462
48	0x3e66e034	0.22546464
49	0xbe436f50	-0.19085431
50	0xbd5d5464	-0.05403556
51	0xbf7b5451	-0.9817553
52	0x3e97e6b7	0.2966821
53	0x3e300f17	0.17193256
54	0x3dc4f3bb	0.096168004
55	0x3d9f8baf	0.077903144
56	0xbe00bc76	-0.12571892
57	0xbed0b1be	-0.40760607
58	0x3d9dd5d6	0.077068016
59	0xbeab55a8	-0.33463788
60	0xbcbd4645	-0.023104796
61	0x3b0a583b	0.0021109718
62	0x3e3cb971	0.18430115
63	0x3da1051e	0.07862304
64	0x3caf0d29	0.02136858
65	0x3a33ee25	0.00068637944
66	0x3d5375cc	0.05162601
67	0xbd9e9c19	-0.07744617
68	0x3e68d5ec	0.22737855
69	0x3e6ad27c	0.22931856
70	0xbce1f4a7	-0.02758248
71	0x3e35ce32	0.17754439
72	0xbed99c4c	-0.42502058
73	0xbf004fbe	-0.50121677
74	0x3eabee24	0.33580124
75	0xbf5a1d50	-0.8520098
76	0x3e86253a	0.26200277
77	0xbdca9b0a	-0.098928526
78	0xbe246930	-0.16055751
79	0xbbc992a3	-0.0061515137
80	0xbb65ce05	-0.0035065424
81	0x3b2b6456	0.0026152334
82	0xbb3faf9c	-0.0029248958
83	0xbe8c0f03	-0.27355203
84	0x3d3c3760	0.045951247
85	0xbd033dd7	-0.032041397
86	0x3e582f6d	0.21111841
87	0xbc97ac55	-0.018514792
88	0x3d09f84b	0.033684056
89	0xbe37b7ee	-0.17941257
90	0x3d89d5b0	0.06730211
91	0xbd937651	-0.072003014
92	0xbd058316	-0.032595716
93	0xbdbdbd3a	-0.09264608
94	0x3e67fe3c	0.22655576
95	0x3e1865c2	0.14882568
96	0xbe8a5197	-0.27015373
97	0xbea3b834	-0.31976473
98	0x3ec65be9	0.38741997
99	0xbf2cc9ef	-0.67495626
100	0xbd4477f1	-0.047965948
101	0x3d90efdf	0.07077002
102	0xb988ee5f	-0.00026117542
103	0x3cbec50d	0.02328732
104	0xbe2f11d7	-0.17096649
105	0xbf06871b	-0.52549905
106	0xbd11d3fb	-0.03560255
107	0xbe77a816	-0.24185213
108	0x3d6dd1b1	0.058061305
109	0x3d3d1ab6	0.04616805
110	0xbda3dadd	-0.08000729
111	0xbe465ca5	-0.19371279
112	0xbdb1472c	-0.08656153
113	0xbe1ba2b6	-0.15198788
114	0xbe02deb6	-0.1278027
115	0xbe668710	-0.2251246
116	0x3dd96fac	0.10617003
117	0x3dfb44d1	0.12268985
118	0xbe4e4f6c	-0.20147485
119	0x3db440cf	0.08801424
120	0x3cc4b670	0.024012774
121	0xbe40f5ae	-0.1884372
122	0x3e07a228	0.13245451
123	0xbf588a1f	-0.84585756
124	0x3e5c725b	0.21527998
125	0x3dccb361	0.09995151
126	0x3e1626e6	0.14663276
127	0x3da71005	0.08157352
128	0x3d565d83	0.052335273
129	0xbe9a8e28	-0.30186582
130	0x3ce5b4f1	0.028040381
131	0xbea02542	-0.31278425
132	0x3da76bee	0.08174883
133	0x3c84cfdc	0.016212396
134	0xbcdaa581	-0.026690247
135	0xbd712117	-0.058869448
136	0x3d66a88a	0.056313075
137	0x3ca1a7c7	0.019733323
138	0x3c60a73f	0.01371175
139	0xbda54d6e	-0.08071409
140	0xbd062a1b	-0.032755
141	0x3e887954	0.26655066
142	0x3cdbc3f2	0.026826832
143	0x3e505168	0.20343554
144	0x3edbb5ee	0.4291224
145	0x3edd6085	0.432377
146	0xbef9a0eb	-0.48755583
147	0xbf3bab6e	-0.73308456
148	0x3e58b41c	0.21162456
149	0xbb752046	-0.003740327
150	0x3db38c69	0.087670155
151	0x3beaac2d	0.0071616382
152	0xbe1c24a7	-0.15248357
153	0x3e81f248	0.25380158
154	0xbca39483	-0.019968277
155	0xbc4fd05f	-0.012683957
156	0xbb39f65e	-0.0028375606
157	0xbe48a3b2	-0.19593695
158	0xbe07ba16	-0.1325458
159	0x3df62ae7	0.12019902
160	0xbe36fb05	-0.17869194
161	0xbdd6e434	-0.10492745
162	0x3cab3687	0.020900024
163	0xbdbd0401	-0.09229279
164	0x3c01fed4	0.007934291
165	0x3e31a823	0.17349295
166	0xbe26abd4	-0.16276485
167	0xbde38716	-0.1110975
168	0xbe998e5e	-0.2999143
169	0x3dead200	0.114658356
170	0xbd16f9e4	-0.036859408
171	0xbf8a30b1	-1.079611
172	0xbe8c5f9f	-0.27416703
173	0x3e849a6c	0.25899065
174	0x3df240dd	0.11828778
175	0xbe1e0070	-0.15429854
176	0xbe9b54a3	-0.3033801
177	0xbdb9df41	-0.090757854
178	0x3e2fc0d7	0.17163406
179	0xbe4500c1	-0.19238569
180	0x3dc9e770	0.09858596
181	0x3dcfae87	0.1014071
182	0x3dea4a65	0.11439971
183	0xbd355edd	-0.04427992
184	0x3c8d8d3d	0.017279262
185	0x3da120ec	0.078676075
186	0xbe01f72e	-0.12691948
187	0xbdd508a9	-0.104020424
188	0xbe552693	-0.20815496
189	0x3e0b0ce3	0.13579135
190	0xbdb06728	-0.086134255
191	0x3e3d7bef	0.18504308
192	0xbeedb602	-0.46427923
193	0xbf12ec05	-0.5739139
194	0x3f2ebadb	0.6825387
195	0xbf48aff0	-0.7839346
196	0xbea273e6	-0.31729048
197	0xbd48955a	-0.048970558
198	0xbe02511c	-0.12726253
199	0xbc144de3	-0.009051773
200	0xbdb98dd1	-0.090602525
201	0xbe9f81a9	-0.3115361
202	0x3cfa8144	0.030579217
203	0xbec91bec	-0.39279115
204	0x3d36e055	0.044647533
205	0x3d27cded	0.04096787
206	0xbe207e31	-0.15673138
207	0x3d910dd8	0.070827186
208	0xbd8ceeef	-0.068815105
209	0xbd74cba5	-0.059764523
210	0x3e171e29	0.14757599
211	0x3e1d58f7	0.15365969
212	0xbe4b1f19	-0.19836082
213	0x3e346e59	0.1762022
214	0x3e5d6a76	0.21622643
215	0xbe024da5	-0.12724932
216	0xbe6a8b54	-0.22904712
217	0xbe18f26f	-0.14936231
218	0xbe5c716f	-0.21527646
219	0xbf708534	-0.9395325
220	0x3e402c3a	0.18766871
221	0x3d42530c	0.04744248
222	0x3d80b8b0	0.06285226
223	0xbe9f7967	-0.3114731
224	0x3dcef96b	0.101061665
225	0x3dd18995	0.1023132
226	0x3e0f7968	0.14011157
227	0xbd4dd780	-0.050254345
228	0xbe7c698e	-0.24649641
229	0x3d5b62b5	0.05356093
230	0xbc6e3b18	-0.014540456
231	0x3ea320d6	0.3186099
232	0xbd4e41b4	-0.050355628
233	0x3e9bfe68	0.30467534
234	0x3ea58617	0.32328865
235	0x3d0592f1	0.032610837
236	0xbd4de966	-0.050271414
237	0x3e50d838	0.20394981
238	0xbc14d504	-0.00908399
239	0xbd47f778	-0.04881999
240	0xbe5dec42	-0.21672156
241	0xbceedfa2	-0.02915937
242	0x3d9cceba	0.076566175
243	0xbf650aa6	-0.89469373
244	0x3dc7f3bf	0.09763288
245	0x3e3bf888	0.18356526
246	0x3d1d998e	0.03847652
247	0x3c87ce66	0.01657791
248	0xbde2bc4f	-0.11071073
249	0xbed769d1	-0.4207292
250	0x3c484503	0.012223485
251	0xbe0ca119	-0.13733329
252	0x3dc0271d	0.0938246
253	0xbe113904	-0.14181906
254	0xbdde87c9	-0.10865743
255	0x3e3321ef	0.17493413

net.0.bias f4 [64]
0	0x3e573cfa	0.21019354
1	0xbe153d6a	-0.14574209
2	0xbd8eb5f5	-0.06968299
3	0x3d4b2172	0.049592443
4	0xbe351ff6	-0.17687973
5	0x3e023487	0.1271535
6	0xbce2d9a8	-0.027691677
7	0x3e7277be	0.2367849
8	0xbd0d43a8	-0.03448835
9	0x3e6d47a2	0.23171857
10	0x3d995a9e	0.07487987
11	0x3e98c477	0.2983739
12	0x3d9bc81b	0.076065265
13	0x3e3e61f7	0.18592058
14	0xbccfac34	-0.025350668
15	0xbdf955ab	-0.12174543
16	0x3e624e76	0.22100243
17	0x3e339db8	0.17540634
18	0xbd19671d	-0.037451852
19	0x3e1824b5	0.14857753
20	0x3e1183db	0.14210455
21	0x3cc3817f	0.02386546
22	0x3dc8876a	0.09791453
23	0x3e8f0c56	0.279391
24	0x3c09c639	0.008409076
25	0x3e4bc505	0.19899376
26	0x3d8cbe59	0.068722434
27	0xbe4c1f20	-0.19933748
28	0xbdd7fa2e	-0.10545765
29	0x3d76146c	0.06007807
30	0x3e745356	0.23859915
31	0x3e5395a3	0.2066255
32	0x3e7b8481	0.24562265
33	0x3e6d0df4	0.23149854
34	0x3d35da05	0.044397373
35	0xbd90e013	-0.07073989
36	0xbe6849b4	-0.22684366
37	0x3d405819	0.046959016
38	0xbd627208	-0.05528453
39	0x3e9e240b	0.30886874
40	0xbc88d206	-0.01670171
41	0x3d32db0a	0.043665923
42	0x3e4d3d27	0.20042859
43	0x3e1b2d8d	0.15154095
44	0x3d33eece	0.043928914
45	0x3df959de	0.12175344
46	0xbd1cfc2a	-0.03832642
47	0xbe501e78	-0.20324123
48	0xbc23c953	-0.00999673
49	0x3e459a4d	0.19297142
50	0x3e923ade	0.28560537
51	0x3cf3a1e5	0.029740283
52	0x3e875be0	0.26437283
53	0xbdee0f09	-0.116239615
54	0x3db3f52b	0.087869965
55	0x3e0e936c	0.13923424
56	0x3cf48ba5	0.029851744
57	0x3d8bf7a6	0.068343446
58	0xbe0f28cf	-0.13980411
59	0x3dc27137	0.0949425
60	0x3e14ffef	0.14550756
61	0x3e28939b	0.16462557
62	0x3d9f25d2	0.077708855
63	0xbbfe5daa	-0.0077626305

net.2.weight f4 [64, 64]
0	0x3c9ec6bf	0.019381879
1	0x3e6ee6f2	0.23330286
2	0x3db1ff53	0.08691277
3	0x3e1fecac	0.15617627
4	0x3e162b1e	0.14664885
5	0x3e51e9cc	0.20499343
6	0x3e912b26	0.28353232
7	0x3c8a596e	0.016888347
8	0x3eb19427	0.34683344
9	0x3e43e038	0.19128501
10	0x3dab023e	0.08350037
11	0x3daba5cf	0.08381235
12	0x3e1a6af9	0.1507987
13	0x3dfb96aa	0.12284596
14	0x3e67de46	0.22643384
15	0x3eb2a942	0.34894758
16	0x3e9cfbd8	0.30660892
17	0x3dc36e55	0.095425285
18	0x3e3e98ea	0.1861302
19	0x3dc48636	0.09595911
20	0x3d3d5dac	0.04623191
21	0x3e8902f1	0.26760057
22	0x3e0f36c9	0.13985743
23	0x3bbd34c8	0.0057741143
24	0x3e10944b	0.1411907
25	0x3e16521c	0.1467976
26	0x3e14e866	0.14541778
27	0x3ee45646	0.4459707
28	0x3f0f0720	0.55870247
29	0x3d129d30	0.035794437
30	0x3df265c7	0.11835819
31	0x3e027154	0.12738544
32	0x3dd3fbb2	0.103507414
33	0x3e249410	0.16072106
34	0x3ef1ebf3	0.47250327
35	0x3df3cae5	0.119039334
36	0x3ed2cf04	0.41173565
37	0x3e906228	0.28199887
38	0x3e8535f7	0.26017734
39	0xba4e3ecc	-0.0007867634
40	0x3ebb112f	0.36536548
41	0x3e0f3390	0.13984513
42	0x3d0ad5f8	0.033895463
43	0x3eaadc98	0.33371425
44	0x3e36ad30	0.17839503
45	0xbd0443d5	-0.032291252
46	0x3e091807	0.13388072
47	0x3ec826ad	0.39092007
48	0x3e524409	0.20533766
49	0x3e2597f3	0.16171245
50	0x3e1d6725	0.15371378
51	0x3e642feb	0.22283904
52	0x3d749e18	0.059721082
53	0x3d2e0874	0.04248853
54	0x3e5da94a	0.2164661
55	0x3e816d4e	0.25278705
56	0x3f43a780	0.7642746
57	0x3e8b47cb	0.2720321
58	0x3dd74719	0.10511608
59	0x3e22324b	0.15839498
60	0x3e76ded7	0.24108444
61	0x3ed5081b	0.41607746
62	0x3e72825a	0.23682538
63	0x3ef44708	0.47710443
64	0x3dc14f9c	0.094390124
65	0x3e637490	0.22212434
66	0x3e3533bc	0.17695516
67	0x3e868013	0.26269588
68	0x3dcec356	0.10095851
69	0x3e1e6191	0.15466906
70	0x3ea0afd6	0.31384152
71	0x3d45ab48	0.04825905
72	0x3ed0a645	0.40751854
73	0x3e8870de	0.2664861
74	0x3e15ee50	0.1464169
75	0x3de42893	0.111405514
76	0x3e54626f	0.20740674
77	0x3e029738	0.12752998
78	0x3e7f8a31	0.2495506
79	0x3e9cd8e9	0.3063424
80	0x3e632cf8	0.22185123
81	0xbc472d89	-0.0121568525
82	0x3e22f22c	0.15912694
83	0x3e105ba7	0.14097463
84	0x3e7c4ce8	0.24638712
85	0x3e115307	0.14191829
86	0x3e4c202d	0.19934149
87	0x3e05442f	0.13014291
88	0x3d540196	0.051759325
89	0x3e7b2c6a	0.24528661
90	0x3e973806	0.2953493
91	0x3f13282f	0.5748319
92	0x3ecde7f3	0.40216026
93	0x3e81a521	0.25321296
94	0x3d25e915	0.040505487
95	0x3cdfb53e	0.027308103
96	0x3e2eccef	0.17070363
97	0x3dc46703	0.095899604
98	0x3f2a0a4b	0.66421956
99	0x3e3670a5	0.17816408
100	0x3ef9bc10	0.48776293
101	0x3e35417f	0.17700766
102	0x3ec49bc6	0.38400096
103	0x3e72c4aa	0.23707834
104	0x3e917904	0.2841264
105	0x3e1ed80a	0.155121
106	0x3e0837fd	0.13302608
107	0x3e9179da	0.28413278
108	0x3e246b37	0.16056524
109	0x3d75c32a	0.060000576
110	0x3e1272ab	0.14301555
111	0x3e83d9ba	0.2575205
112	0x3e22bf89	0.15893377
113	0x3d87b910	0.06627095
114	0x3e166cc9	0.14689936
115	0x3e140585	0.1445523
116	0x3e792e54	0.24334079
117	0x3cff29e9	0.031147914
118	0x3e5ec1d3	0.21753626
119	0x3da40faa	0.080108
120	0x3f5cc57b	0.8623883
121	0x3e308548	0.17238343
122	0x3d1908e0	0.03736198
123	0x3e1804b4	0.14845544
124	0x3e75ce9f	0.24004601
125	0x3e711d33	0.23546295
126	0x3e346537	0.17616735
127	0x3ecbf5a2	0.3983584
128	0x3e0a5e20	0.13512468
129	0x3e76100e	0.24029562
130	0x3bbcb175	0.005758459
131	0x3ea562fe	0.32302088
132	0x3ddc9814	0.10771194
133	0x3e04da7d	0.12973972
134	0x3edaf842	0.4276753
135	0x3da2cfed	0.07949815
136	0x3ea0d438	0.3141191
137	0x3e09c6c1	0.13454725
138	0x3e0545b9	0.13014878
139	0x3e22499b	0.15848391
140	0x3e7ff1aa	0.24994531
141	0x3e4228df	0.18960904
142	0x3cba9b64	0.022779174
143	0x3eabbc5c	0.33542144
144	0x3e4e95f1	0.20174386
145	0x3dc00d95	0.093775906
146	0x3d841313	0.064489506
147	0x3dd46b9a	0.10372086
148	0x3e4a2c1b	0.19743387
149	0x3deba95b	0.11506911
150	0x3e269779	0.1626872
151	0x3e156bd4	0.14591914
152	0x3e11f45a	0.14253369
153	0x3df2c0b8	0.118531644
154	0x3e8b0256	0.2715022
155	0x3f11ba1b	0.569246
156	0x3eb0ca8a	0.34529525
157	0x3d541ba5	0.051784176
158	0x3de5defb	0.11224171
159	0x3e32985b	0.17440931
160	0x3dfa3e16	0.12218873
161	0x3d463503	0.0483904
162	0x3eed9b0e	0.4640736
163	0x3e198b85	0.14994629
164	0x3f0810db	0.5315072
165	0x3ea5d520	0.32389164
166	0x3e3c9297	0.18415295
167	0x3e5fd4e3	0.21858554
168	0x3eb45315	0.35219637
169	0xbd831328	-0.06400138
170	0x3e47bfee	0.19506809
171	0x3eb071f1	0.3446193
172	0x3dd68c98	0.10476035
173	0xbd411ed9	-0.04714856
174	0x3e2de3bc	0.16981405
175	0x3eb25270	0.3482852
176	0x3e8504d9	0.2598026
177	0x3dac1c2c	0.08403811
178	0x3e2afbb2	0.16697577
179	0x3e8114a6	0.25211066
180	0x3e43feb4	0.1914013
181	0x3e17ddc7	0.14830695
182	0x3e04d4f8	0.12971866
183	0x3e6b4e70	0.2297914
184	0x3f535455	0.82550555
185	0x3ddf9c03	0.10918429
186	0x3e83f905	0.25775924
187	0x3da3b065	0.07992629
188	0x3e612295	0.21985848
189	0x3ed3468f	0.4126477
190	0x3dbddb95	0.092703976
191	0x3ea034c4	0.31290257
192	0xbcfdf121	-0.030998768
193	0x3dbe75fa	0.09299846
194	0xbdcd0fd1	-0.10012782
195	0x3cb13ce3	0.021635478
196	0xbded00ad	-0.115723945
197	0x3d3c0aee	0.04590886
198	0x3dad66b8	0.08466858
199	0xbd527a0e	-0.05138593
200	0xbdeecc00	-0.11660004
201	0xbe1d4df5	-0.1536177
202	0xbda8e267	-0.08246308
203	0xbd549b1b	-0.051905733
204	0xbd95735a	-0.07297392
205	0x3d409486	0.047016643
206	0xbcc7f06e	-0.024406638
207	0xbdd7a84e	-0.105301484
208	0xbd3cab59	-0.046061847
209	0xbe02faae	-0.12790939
210	0x3cfc1b97	0.030774875
211	0xbc5f2d23	-0.013621601
212	0x3dc529d7	0.09627121
213	0x3d786d81	0.060651306
214	0xbda15d06	-0.07879071
215	0x3d9fd444	0.07804158
216	0xbe00eb29	-0.12589706
217	0xbe0a4bef	-0.13505529
218	0x3d8bbca9	0.068230934
219	0xbdaa9697	-0.08329504
220	0xbdc4a2e8	-0.096013844
221	0xbe06c889	-0.13162436
222	0xbdd5577f	-0.10417079
223	0xbe1fea03	-0.15616612
224	0x3c2ee70b	0.010675202
225	0xbe2ea0e0	-0.17053556
226	0xbd0f0730	-0.034918964
227	0x3d93d390	0.07218087
228	0xbdece968	-0.11567956
229	0x3d8ccde2	0.068752065
230	0x3db78d67	0.08962517
231	0xbd443dd5	-0.04791053
232	0xbc9f1f9b	-0.01942425
233	0xbe0444c4	-0.12916857
234	0x3d76b44c	0.06023054
235	0x3da56074	0.080750376
236	0xbce8e1d3	-0.028427994
237	0x3d8d1df0	0.06890476
238	0xbde89f16	-0.11358468
239	0xbdcbfdf1	-0.09960545
240	0x3dd3e505	0.103464164
241	0xbe072287	-0.13196765
242	0xbd8a55c6	-0.06754641
243	0xbd921d4d	-0.07134495
244	0xbdfc13f3	-0.123084925
245	0x3c7b2f30	0.015331075
246	0xbd81868c	-0.06324491
247	0x3bac30b2	0.0052548284
248	0xbd3f3300	-0.046679497
249	0x3d168ae5	0.036753554
250	0x3bea8a5e	0.007157608
251	0xbe04db6f	-0.12974332
252	0x3d94be7a	0.07262893
253	0x3d6d51c4	0.057939306
254	0xbde50406	-0.11182408
255	0x3cef1f03	0.029189592

net.2.bias f4 [64]
0	0x3e91fb82	0.28512198
1	0x3dedf4da	0.11618967
2	0x3e11d9b9	0.14243211
3	0x3da4a0c3	0.08038475
4	0x3d6162eb	0.055025976
5	0xbe4442fa	-0.19166175
6	0xbd8de95e	-0.06929277
7	0x3e862024	0.26196396
8	0x3e87569f	0.26433274
9	0x3e1bac31	0.15202405
10	0x3e757a69	0.23972477
11	0x3d195635	0.03743573
12	0xbd947834	-0.072494894
13	0x3e03bae0	0.12864256
14	0x3e847ba4	0.2587558
15	0xbe04ea6c	-0.1298005
16	0x3e8890bc	0.26672924
17	0x3e057e3a	0.13036433
18	0x3e468f69	0.19390644
19	0xbd90760c	-0.07053766
20	0x3d92b936	0.071642324
21	0x3e865895	0.26239458
22	0x3da92606	0.082592055
23	0x3dff579a	0.124678805
24	0x3ea95a48	0.33076692
25	0xbe0e1582	-0.13875392
26	0x3e9989ca	0.29987937
27	0x3e93a073	0.2883335
28	0xbe645371	-0.22297455
29	0x3caaa5d4	0.020831026
30	0x3da45488	0.080239356
31	0x3e9cc213	0.30616817
32	0xbe4ec279	-0.20191373
33	0x3da10d06	0.07863812
34	0xbd3e1fe8	-0.046417147
35	0x3e78c9bd	0.24295707
36	0x3e245c37	0.16050802
37	0x3e1df3ec	0.1542508
38	0x3d99d82c	0.07511935
39	0xbdfa79fb	-0.12230297
40	0x3e7a0a00	0.24417877
41	0x3ea54510	0.32279253
42	0x3d2ad9e9	0.04171172
43	0x3e4fb727	0.20284711
44	0xbc063ff1	-0.008193956
45	0x3e970ea3	0.29503354
46	0xbe004640	-0.12526798
47	0xbce4338e	-0.027856614
48	0xbe306419	-0.17225684
49	0x3dc59140	0.09646845
50	0x3e388d99	0.18022765
51	0xbe635e95	-0.22204049
52	0x3d8c3eb9	0.06847901
53	0x3e56823c	0.20948118
54	0x3e276c93	0.16350012
55	0xbd72cead	-0.059279133
56	0x3e8c9315	0.27455965
57	0xbdf3cb10	-0.119039655
58	0x3e69c083	0.22827344
59	0x3d950cc7	0.07277828
60	0xbc0f9a7a	-0.008764857
61	0x3e9925be	0.29911608
62	0x3e2d30fc	0.16913217
63	0x3d37197e	0.044702046

net.4.weight f4 [1, 64]
0	0xbe8468e1	-0.25861266
1	0xbe8ca176	-0.27466935
2	0xbea33fa8	-0.31884503
3	0x3d0c40d7	0.034241524
4	0x3eed4d2d	0.46347943
5	0x3e92e2f9	0.2868879
6	0x3d45365d	0.048147548
7	0xbe88ecb7	-0.267431
8	0xbea3b936	-0.31977242
9	0xbe4e835b	-0.20167296
10	0xbe71565a	-0.23568097
11	0x3e9a7b79	0.30172327
12	0x3e494a2c	0.196572
13	0xbe6fc07b	-0.23413269
14	0xbe9452f9	-0.28969553
15	0x3e8b36c7	0.2719023
16	0xbe82ba16	-0.25532597
17	0xbe347ce8	-0.17625773
18	0xbe8d51b9	-0.27601412
19	0x3ebdd73d	0.37078276
20	0x3d719282	0.05897761
21	0xbe94044c	-0.28909528
22	0x3baafe86	0.00521833
23	0xbe834fec	-0.25646913
24	0xbe710fd9	-0.23541202
25	0x3ead384d	0.33832017
26	0xbe7371ab	-0.2377383
27	0xbe6a0b0d	-0.22855778
28	0x3f0afcad	0.542918
29	0x3e9db97b	0.30805573
30	0x3d59072e	0.052985363
31	0xbe8580f2	-0.2607494
32	0x3e30440b	0.17213456
33	0x3d23ff06	0.04003813
34	0xbd941cc6	-0.072320506
35	0xbe9a6692	-0.3015638
36	0xbe902ba7	-0.28158304
37	0xbebf5667	-0.37370607
38	0x3c24f956	0.010069212
39	0x3ea35d8c	0.31907308
40	0xbe8a4556	-0.27006024
41	0xbeb6ddc4	-0.3571607
42	0x3d4f8a3c	0.05066894
43	0xbeb0c829	-0.3452771
44	0x3e93a509	0.2883685
45	0xbe6df816	-0.23239169
46	0x3d783387	0.060596015
47	0x3dbc411c	0.09192106
48	0x3ee5e20a	0.44899017
49	0xbea9f8d0	-0.3319764
50	0xbe944e76	-0.2896611
51	0x3ec35f9f	0.3815889
52	0x3ec8a3ec	0.39187562
53	0xbe8e6012	-0.2780767
54	0xbe9aff7c	-0.30273044
55	0x3eba3307	0.36367056
56	0xbe721aa7	-0.2364298
57	0x3ee9259c	0.45536506
58	0xbe8c4c4b	-0.27401957
59	0x3dce5647	0.1007505
60	0x3d3496db	0.04408918
61	0xbe7f591a	-0.24936333
62	0xbe9b2a14	-0.3030554
63	0x3ed43a98	0.41450953
